…
function = torch.nn.CrossEntropyLoss()\n","  optimizer = torch.optim.Adam(model.parameters(), 1e-4)\n","  auc_metric = ROCAUCMetric()"]},{"cell_type":"code","execution_count":null,"metadata":{"colab":{"base_uri":"https://localhost:8080/"},"executionInfo":{"elapsed":10,"status":"ok","timestamp":1650284822694,"user":{"displayName":"Deevyankar Agarwal","userId":"14882055139397387561"},"user_tz":-240},"id":"rfTuqU6DJbqG","outputId":"4e4d03f2-5954-4d16-8a5e-88030363782c"},"outputs":[{"name":"stdout","output_type":"stream","text":["<bound method Module.parameters of EfficientNetBN(\n","  (_conv_stem): Conv3d(1, 40, kernel_size=(3, 3, 3), stride=(2, 2, 2), bias=False)\n","  (_conv_stem_padding): ConstantPad3d(padding=(0, 1, 0, 1, 0, 1), value=0.0)\n","  (_bn0): BatchNorm3d(40, eps=0.001, momentum=0.01, affine=True, track_running_stats=True)\n","  (_blocks): Sequential(\n","    (0): Sequential(\n","      (0): MBConvBlock(\n","        (_expand_conv): Identity()\n","        (_expand_conv_padding): Identity()\n","        (_bn0): Identity()\n","        (_depthwise_conv): Conv3d(40, 40, kernel_size=(3, 3, 3), stride=(1, 1, 1), groups=40, bias=False)\n","        (_depthwise_conv_padding): ConstantPad3d(padding=(1, 1, 1, 1, 1, 1), value=0.0)\n","        (_bn1): BatchNorm3d(40, eps=0.001, momentum=0.01, affine=True, track_running_stats=True)\n","        (_se_adaptpool): AdaptiveAvgPool3d(output_size=1)\n","        (_se_reduce): Conv3d(40, 10, kernel_size=(1, 1, 1), stride=(1, 1, 1))\n","        (_se_reduce_padding): Identity()\n","        (_se_expand): Conv3d(10, 40, kernel_size=(1, 1, 1), stride=(1, 1, 1))\n","        (_se_expand_padding): Identity()\n","        (_project_conv): Conv3d(40, 24, kernel_size=(1, 1, 1), stride=(1, 1, 1), bias=False)\n","        (_project_conv_padding): Identity()\n","        (_bn2): BatchNorm3d(24, eps=0.001, momentum=0.01, affine=True, track_running_stats=True)\n","        (_swish): MemoryEfficientSwish()\n","      )\n","      (1): MBConvBlock(\n","        (_expand_conv): Identity()\n","        (_expand_conv_padding): Identity()\n","        (_bn0): Identity()\n","        (_depthwise_conv): Conv3d(24, 24, kernel_size=(3, 3, 3), stride=(1, 1, 1), groups=24, bias=False)\n","        (_depthwise_conv_padding): ConstantPad3d(padding=(1, 1, 1, 1, 1, 1), value=0.0)\n","        (_bn1): BatchNorm3d(24, eps=0.001, momentum=0.01, affine=True, track_running_stats=True)\n","        (_se_adaptpool): AdaptiveAvgPool3d(output_size=1)\n","        (_se_reduce): Conv3d(24, 6, kernel_size=(1, 1, 1), stride=(1, 1, 1))\n","        (_se_reduce_padding): Identity()\n","        (_se_expand): Conv3d(6, 24, kernel_size=(1, 1, 1), stride=(1, 1, 1))\n","        (_se_expand_padding): Identity()\n","        (_project_conv): Conv3d(24, 24, kernel_size=(1, 1, 1), stride=(1, 1, 1), bias=False)\n","        (_project_conv_padding): Identity()\n","        (_bn2): BatchNorm3d(24, eps=0.001, momentum=0.01, affine=True, track_running_stats=True)\n","        (_swish): MemoryEfficientSwish()\n","      )\n","    )\n","    (1): Sequential(\n","      (2): MBConvBlock(\n","        (_expand_conv): Conv3d(24, 144, kernel_size=(1, 1, 1), stride=(1, 1, 1), bias=False)\n","        (_expand_conv_padding): Identity()\n","        (_bn0): BatchNorm3d(144, eps=0.001, momentum=0.01, affine=True, track_running_stats=True)\n","        (_depthwise_conv): Conv3d(144, 144, kernel_size=(3, 3, 3), stride=(2, 2, 2), groups=144, bias=False)\n","        (_depthwise_conv_padding): ConstantPad3d(padding=(0, 1, 0, 1, 0, 1), value=0.0)\n","        (_bn1): BatchNorm3d(144, eps=0.001, momentum=0.01, affine=True, track_running_stats=True)\n","        (_se_adaptpool): AdaptiveAvgPool3d(output_size=1)\n","        (_se_reduce): Conv3d(144, 6, kernel_size=(1, 1, 1), stride=(1, 1, 1))\n","        (_se_reduce_padding): Identity()\n","        (_se_expand): Conv3d(6, 144, kernel_size=(1, 1, 1), stride=(1, 1, 1))\n","        (_se_expand_padding): Identity()\n","        (_project_conv): Conv3d(144, 32, kernel_size=(1, 1, 1), stride=(1, 1, 1), bias=False)\n","        (_project_conv_padding): Identity()\n","        (_bn2): BatchNorm3d(32, eps=0.001, momentum=0.01, affine=True, track_running_stats=True)\n","        (_swish): MemoryEfficientSwish()\n","      )\n","      (3): MBConvBlock(\n","        (_expand_conv): Conv3d(32, 192, kernel_size=(1, 1, 1), stride=(1, 1, 1), bias=False)\n","        (_expand_conv_padding): Identity()\n","        (_bn0): BatchNorm3d(192, eps=0.001, momentum=0.01, affine=True, track_running_stats=True)\n","        (_depthwise_conv): Conv3d(192, 192, kernel_size=(3, 3, 3), stride=(1, 1, 1), groups=192, bias=False)\n","        (_depthwise_conv_padding): ConstantPad3d(padding=(1, 1, 1, 1, 1, 1), value=0.0)\n","        (_bn1): BatchNorm3d(192, eps=0.001, momentum=0.01, affine=True, track_running_stats=True)\n","        (_se_adaptpool): AdaptiveAvgPool3d(output_size=1)\n","        (_se_reduce): Conv3d(192, 8, kernel_size=(1, 1, 1), stride=(1, 1, 1))\n","        (_se_reduce_padding): Identity()\n","        (_se_expand): Conv3d(8, 192, kernel_size=(1, 1, 1), stride=(1, 1, 1))\n","        (_se_expand_padding): Identity()\n","        (_project_conv): Conv3d(192, 32, kernel_size=(1, 1, 1), stride=(1, 1, 1), bias=False)\n","        (_project_conv_padding): Identity()\n","        (_bn2): BatchNorm3d(32, eps=0.001, momentum=0.01, affine=True, track_running_stats=True)\n","        (_swish): MemoryEfficientSwish()\n","      )\n","      (4): MBConvBlock(\n","        (_expand_conv): Conv3d(32, 192, kernel_size=(1, 1, 1), stride=(1, 1, 1), bias=False)\n","        (_expand_conv_padding): Identity()\n","        (_bn0): BatchNorm3d(192, eps=0.001, momentum=0.01, affine=True, track_running_stats=True)\n","        (_depthwise_conv): Conv3d(192, 192, kernel_size=(3, 3, 3), stride=(1, 1, 1), groups=192, bias=False)\n","        (_depthwise_conv_padding): ConstantPad3d(padding=(1, 1, 1, 1, 1, 1), value=0.0)\n","        (_bn1): BatchNorm3d(192, eps=0.001, momentum=0.01, affine=True, track_running_stats=True)\n","        (_se_adaptpool): AdaptiveAvgPool3d(output_size=1)\n","        (_se_reduce): Conv3d(192, 8, kernel_size=(1, 1, 1), stride=(1, 1, 1))\n","        (_se_reduce_padding): Identity()\n","        (_se_expand): Conv3d(8, 192, kernel_size=(1, 1, 1), stride=(1, 1, 1))\n","        (_se_expand_padding): Identity()\n","        (_project_conv): Conv3d(192, 32, kernel_size=(1, 1, 1), stride=(1, 1, 1), bias=False)\n","        (_project_conv_padding): Identity()\n","        (_bn2): BatchNorm3d(32, eps=0.001, momentum=0.01, affine=True, track_running_stats=True)\n","        (_swish): MemoryEfficientSwish()\n","      )\n","    )\n","    (2): Sequential(\n","      (5): MBConvBlock(\n","        (_expand_conv): Conv3d(32, 192, kernel_size=(1, 1, 1), stride=(1, 1, 1), bias=False)\n","        (_expand_conv_padding): Identity()\n","        (_bn0): BatchNorm3d(192, eps=0.001, momentum=0.01, affine=True, track_running_stats=True)\n","        (_depthwise_conv): Conv3d(192, 192, kernel_size=(5, 5, 5), stride=(2, 2, 2), groups=192, bias=False)\n","        (_depthwise_conv_padding): ConstantPad3d(padding=(2, 2, 2, 2, 2, 2), value=0.0)\n","        (_bn1): BatchNorm3d(192, eps=0.001, momentum=0.01, affine=True, track_running_stats=True)\n","        (_se_adaptpool): AdaptiveAvgPool3d(output_size=1)\n","        (_se_reduce): Conv3d(192, 8, kernel_size=(1, 1, 1), stride=(1, 1, 1))\n","        (_se_reduce_padding): Identity()\n","        (_se_expand): Conv3d(8, 192, kernel_size=(1, 1, 1), stride=(1, 1, 1))\n","        (_se_expand_padding): Identity()\n","        (_project_conv): Conv3d(192, 48, kernel_size=(1, 1, 1), stride=(1, 1, 1), bias=False)\n","        (_project_conv_padding): Identity()\n","        (_bn2): BatchNorm3d(48, eps=0.001, momentum=0.01, affine=True, track_running_stats=True)\n","        (_swish): MemoryEfficientSwish()\n","      )\n","      (6): MBConvBlock(\n","        (_expand_conv): Conv3d(48, 288, kernel_size=(1, 1, 1), stride=(1, 1, 1), bias=False)\n","        (_expand_conv_padding): Identity()\n","        (_bn0): BatchNorm3d(288, eps=0.001, momentum=0.01, affine=True, track_running_stats=True)\n","        (_depthwise_conv): Conv3d(288, 288, kernel_size=(5, 5, 5), stride=(1, 1, 1), groups=288, bias=False)\n","        (_depthwise_conv_padding): ConstantPad3d(padding=(2, 2, 2, 2, 2, 2), value=0.0)\n","        (_bn1): BatchNorm3d(288, eps=0.001, momentum=0.01, affine=True, track_running_stats=True)\n","        (_se_adaptpool): AdaptiveAvgPool3d(output_size=1)\n","        (_se_reduce): Conv3d(288, 12, kernel_size=(1, 1, 1), stride=(1, 1, 1))\n","        (_se_reduce_padding): Identity()\n","        (_se_expand): Conv3d(12, 288, kernel_size=(1, 1, 1), stride=(1, 1, 1))\n","        (_se_expand_padding): Identity()\n","        (_project_conv): Conv3d(288, 48, kernel_size=(1, 1, 1), stride=(1, 1, 1), bias=False)\n","        (_project_conv_padding): Identity()\n","        (_bn2): BatchNorm3d(48, eps=0.001, momentum=0.01, affine=True, track_running_stats=True)\n","        (_swish): MemoryEfficientSwish()\n","      )\n","      (7): MBConvBlock(\n","        (_expand_conv): Conv3d(48, 288, kernel_size=(1, 1, 1), stride=(1, 1, 1), bias=False)\n","        (_expand_conv_padding): Identity()\n","        (_bn0): BatchNorm3d(288, eps=0.001, momentum=0.01, affine=True, track_running_stats=True)\n","        (_depthwise_conv): Conv3d(288, 288, kernel_size=(5, 5, 5), stride=(1, 1, 1), groups=288, bias=False)\n","        (_depthwise_conv_padding): ConstantPad3d(padding=(2, 2, 2, 2, 2, 2), value=0.0)\n","        (_bn1): BatchNorm3d(288, eps=0.001, momentum=0.01, affine=True, track_running_stats=True)\n","        (_se_adaptpool): AdaptiveAvgPool3d(output_size=1)\n","        (_se_reduce): Conv3d(288, 12, kernel_size=(1, 1, 1), stride=(1, 1, 1))\n","        (_se_reduce_padding): Identity()\n","        (_se_expand): Conv3d(12, 288, kernel_size=(1, 1, 1), stride=(1, 1, 1))\n","        (_se_expand_padding): Identity()\n","        (_project_conv): Conv3d(288, 48, kernel_size=(1, 1, 1), stride=(1, 1, 1), bias=False)\n","        (_project_conv_padding): Identity()\n","        (_bn2): BatchNorm3d(48, eps=0.001, momentum=0.01, affine=True, track_running_stats=True)\n","        (_swish): MemoryEfficientSwish()\n","      )\n","    )\n","    (3): Sequential(\n","      (8): MBConvBlock(\n","        (_expand_conv): Conv3d(48, 288, kernel_size=(1, 1, 1), stride=(1, 1, 1), bias=False)\n","        (_expand_conv_padding): Identity()\n","        (_bn0): BatchNorm3d(288, eps=0.001, momentum=0.01, affine=True, track_running_stats=True)\n","        (_depthwise_conv): Conv3d(288, 288, kernel_size=(3, 3, 3), stride=(2, 2, 2), groups=288, bias=False)\n","        (_depthwise_conv_padding): ConstantPad3d(padding=(0, 1, 0, 1, 0, 1), value=0.0)\n","        (_bn1): BatchNorm3d(288, eps=0.001, momentum=0.01, affine=True, track_running_stats=True)\n","        (_se_adaptpool): AdaptiveAvgPool3d(output_size=1)\n","        (_se_reduce): Conv3d(288, 12, kernel_size=(1, 1, 1), stride=(1, 1, 1))\n","        (_se_reduce_padding): Identity()\n","        (_se_expand): Conv3d(12, 288, kernel_size=(1, 1, 1), stride=(1, 1, 1))\n","        (_se_expand_padding): Identity()\n","        (_project_conv): Conv3d(288, 96, kernel_size=(1, 1, 1), stride=(1, 1, 1), bias=False)\n","        (_project_conv_padding): Identity()\n","        (_bn2): BatchNorm3d(96, eps=0.001, momentum=0.01, affine=True, track_running_stats=True)\n","        (_swish): MemoryEfficientSwish()\n","      )\n","      (9): MBConvBlock(\n","        (_expand_conv): Conv3d(96, 576, kernel_size=(1, 1, 1), stride=(1, 1, 1), bias=False)\n","        (_expand_conv_padding): Identity()\n","        (_bn0): BatchNorm3d(576, eps=0.001, momentum=0.01, affine=True, track_running_stats=True)\n","        (_depthwise_conv): Conv3d(576, 576, kernel_size=(3, 3, 3), stride=(1, 1, 1), groups=576, bias=False)\n","        (_depthwise_conv_padding): ConstantPad3d(padding=(1, 1, 1, 1, 1, 1), value=0.0)\n","        (_bn1): BatchNorm3d(576, eps=0.001, momentum=0.01, affine=True, track_running_stats=True)\n","        (_se_adaptpool): AdaptiveAvgPool3d(output_size=1)\n","        (_se_reduce): Conv3d(576, 24, kernel_size=(1, 1, 1), stride=(1, 1, 1))\n","        (_se_reduce_padding): Identity()\n","        (_se_expand): Conv3d(24, 576, kernel_size=(1, 1, 1), stride=(1, 1, 1))\n","        (_se_expand_padding): Identity()\n","        (_project_conv): Conv3d(576, 96, kernel_size=(1, 1, 1), stride=(1, 1, 1), bias=False)\n","        (_project_conv_padding): Identity()\n","        (_bn2): BatchNorm3d(96, eps=0.001, momentum=0.01, affine=True, track_running_stats=True)\n","        (_swish): MemoryEfficientSwish()\n","      )\n","      (10): MBConvBlock(\n","        (_expand_conv): Conv3d(96, 576, kernel_size=(1, 1, 1), stride=(1, 1, 1), bias=False)\n","        (_expand_conv_padding): Identity()\n","        (_bn0): BatchNorm3d(576, eps=0.001, momentum=0.01, affine=True, track_running_stats=True)\n","        (_depthwise_conv): Conv3d(576, 576, kernel_size=(3, 3, 3), stride=(1, 1, 1), groups=576, bias=False)\n","        (_depthwise_conv_padding): ConstantPad3d(padding=(1, 1, 1, 1, 1, 1), value=0.0)\n","        (_bn1): BatchNorm3d(576, eps=0.001, momentum=0.01, affine=True, track_running_stats=True)\n","        (_se_adaptpool): AdaptiveAvgPool3d(output_size=1)\n","        (_se_reduce): Conv3d(576, 24, kernel_size=(1, 1, 1), stride=(1, 1, 1))\n","        (_se_reduce_padding): Identity()\n","        (_se_expand): Conv3d(24, 576, kernel_size=(1, 1, 1), stride=(1, 1, 1))\n","        (_se_expand_padding): Identity()\n","        (_project_conv): Conv3d(576, 96, kernel_size=(1, 1, 1), stride=(1, 1, 1), bias=False)\n","        (_project_conv_padding): Identity()\n","        (_bn2): BatchNorm3d(96, eps=0.001, momentum=0.01, affine=True, track_running_stats=True)\n","        (_swish): MemoryEfficientSwish()\n","      )\n","      (11): MBConvBlock(\n","        (_expand_conv): Conv3d(96, 576, kernel_size=(1, 1, 1), stride=(1, 1, 1), bias=False)\n","        (_expand_conv_padding): Identity()\n","        (_bn0): BatchNorm3d(576, eps=0.001, momentum=0.01, affine=True, track_running_stats=True)\n","        (_depthwise_conv): Conv3d(576, 576, kernel_size=(3, 3, 3), stride=(1, 1, 1), groups=576, bias=False)\n","        (_depthwise_conv_padding): ConstantPad3d(padding=(1, 1, 1, 1, 1, 1), value=0.0)\n","        (_bn1): BatchNorm3d(576, eps=0.001, momentum=0.01, affine=True, track_running_stats=True)\n","        (_se_adaptpool): AdaptiveAvgPool3d(output_size=1)\n","        (_se_reduce): Conv3d(576, 24, kernel_size=(1, 1, 1), stride=(1, 1, 1))\n","        (_se_reduce_padding): Identity()\n","        (_se_expand): Conv3d(24, 576, kernel_size=(1, 1, 1), stride=(1, 1, 1))\n","        (_se_expand_padding): Identity()\n","        (_project_conv): Conv3d(576, 96, kernel_size=(1, 1, 1), stride=(1, 1, 1), bias=False)\n","        (_project_conv_padding): Identity()\n","        (_bn2): BatchNorm3d(96, eps=0.001, momentum=0.01, affine=True, track_running_stats=True)\n","        (_swish): MemoryEfficientSwish()\n","      )\n","      (12): MBConvBlock(\n","        (_expand_conv): Conv3d(96, 576, kernel_size=(1, 1, 1), stride=(1, 1, 1), bias=False)\n","        (_expand_conv_padding): Identity()\n","        (_bn0): BatchNorm3d(576, eps=0.001, momentum=0.01, affine=True, track_running_stats=True)\n","        (_depthwise_conv): Conv3d(576, 576, kernel_size=(3, 3, 3), stride=(1, 1, 1), groups=576, bias=False)\n","        (_depthwise_conv_padding): ConstantPad3d(padding=(1, 1, 1, 1, 1, 1), value=0.0)\n","        (_bn1): BatchNorm3d(576, eps=0.001, momentum=0.01, affine=True, track_running_stats=True)\n","        (_se_adaptpool): AdaptiveAvgPool3d(output_size=1)\n","        (_se_reduce): Conv3d(576, 24, kernel_size=(1, 1, 1), stride=(1, 1, 1))\n","        (_se_reduce_padding): Identity()\n","        (_se_expand): Conv3d(24, 576, kernel_size=(1, 1, 1), stride=(1, 1, 1))\n","        (_se_expand_padding): Identity()\n","        (_project_conv): Conv3d(576, 96, kernel_size=(1, 1, 1), stride=(1, 1, 1), bias=False)\n","        (_project_conv_padding): Identity()\n","        (_bn2): BatchNorm3d(96, eps=0.001, momentum=0.01, affine=True, track_running_stats=True)\n","        (_swish): MemoryEfficientSwish()\n","      )\n","    )\n","    (4): Sequential(\n","      (13): MBConvBlock(\n","        (_expand_conv): Conv3d(96, 576, kernel_size=(1, 1, 1), stride=(1, 1, 1), bias=False)\n","        (_expand_conv_padding): Identity()\n","        (_bn0): BatchNorm3d(576, eps=0.001, momentum=0.01, affine=True, track_running_stats=True)\n","        (_depthwise_conv): Conv3d(576, 576, kernel_size=(5, 5, 5), stride=(1, 1, 1), groups=576, bias=False)\n","        (_depthwise_conv_padding): ConstantPad3d(padding=(2, 2, 2, 2, 2, 2), value=0.0)\n","        (_bn1): BatchNorm3d(576, eps=0.001, momentum=0.01, affine=True, track_running_stats=True)\n","        (_se_adaptpool): AdaptiveAvgPool3d(output_size=1)\n","        (_se_reduce): Conv3d(576, 24, kernel_size=(1, 1, 1), stride=(1, 1, 1))\n","        (_se_reduce_padding): Identity()\n","        (_se_expand): Conv3d(24, 576, kernel_size=(1, 1, 1), stride=(1, 1, 1))\n","        (_se_expand_padding): Identity()\n","        (_project_conv): Conv3d(576, 136, kernel_size=(1, 1, 1), stride=(1, 1, 1), bias=False)\n","        (_project_conv_padding): Identity()\n","        (_bn2): BatchNorm3d(136, eps=0.001, momentum=0.01, affine=True, track_running_stats=True)\n","        (_swish): MemoryEfficientSwish()\n","      )\n","      (14): MBConvBlock(\n","        (_expand_conv): Conv3d(136, 816, kernel_size=(1, 1, 1), stride=(1, 1, 1), bias=False)\n","        (_expand_conv_padding): Identity()\n","        (_bn0): BatchNorm3d(816, eps=0.001, momentum=0.01, affine=True, track_running_stats=True)\n","        (_depthwise_conv): Conv3d(816, 816, kernel_size=(5, 5, 5), stride=(1, 1, 1), groups=816, bias=False)\n","        (_depthwise_conv_padding): ConstantPad3d(padding=(2, 2, 2, 2, 2, 2), value=0.0)\n","        (_bn1): BatchNorm3d(816, eps=0.001, momentum=0.01, affine=True, track_running_stats=True)\n","        (_se_adaptpool): AdaptiveAvgPool3d(output_size=1)\n","        (_se_reduce): Conv3d(816, 34, kernel_size=(1, 1, 1), stride=(1, 1, 1))\n","        (_se_reduce_padding): Identity()\n","        (_se_expand): Conv3d(34, 816, kernel_size=(1, 1, 1), stride=(1, 1, 1))\n","        (_se_expand_padding): Identity()\n","        (_project_conv): Conv3d(816, 136, kernel_size=(1, 1, 1), stride=(1, 1, 1), bias=False)\n","        (_project_conv_padding): Identity()\n","        (_bn2): BatchNorm3d(136, eps=0.001, momentum=0.01, affine=True, track_running_stats=True)\n","        (_swish): MemoryEfficientSwish()\n","      )\n","      (15): MBConvBlock(\n","        (_expand_conv): Conv3d(136, 816, kernel_size=(1, 1, 1), stride=(1, 1, 1), bias=False)\n","        (_expand_conv_padding): Identity()\n","        (_bn0): BatchNorm3d(816, eps=0.001, momentum=0.01, affine=True, track_running_stats=True)\n","        (_depthwise_conv): Conv3d(816, 816, kernel_size=(5, 5, 5), stride=(1, 1, 1), groups=816, bias=False)\n","        (_depthwise_conv_padding): ConstantPad3d(padding=(2, 2, 2, 2, 2, 2), value=0.0)\n","        (_bn1): BatchNorm3d(816, eps=0.001, momentum=0.01, affine=True, track_running_stats=True)\n","        (_se_adaptpool): AdaptiveAvgPool3d(output_size=1)\n","        (_se_reduce): Conv3d(816, 34, kernel_size=(1, 1, 1), stride=(1, 1, 1))\n","        (_se_reduce_padding): Identity()\n","        (_se_expand): Conv3d(34, 816, kernel_size=(1, 1, 1), stride=(1, 1, 1))\n","        (_se_expand_padding): Identity()\n","        (_project_conv): Conv3d(816, 136, kernel_size=(1, 1, 1), stride=(1, 1, 1), bias=False)\n","        (_project_conv_padding): Identity()\n","        (_bn2): BatchNorm3d(136, eps=0.001, momentum=0.01, affine=True, track_running_stats=True)\n","        (_swish): MemoryEfficientSwish()\n","      )\n","      (16): MBConvBlock(\n","        (_expand_conv): Conv3d(136, 816, kernel_size=(1, 1, 1), stride=(1, 1, 1), bias=False)\n","        (_expand_conv_padding): Identity()\n","        (_bn0): BatchNorm3d(816, eps=0.001, momentum=0.01, affine=True, track_running_stats=True)\n","        (_depthwise_conv): Conv3d(816, 816, kernel_size=(5, 5, 5), stride=(1, 1, 1), groups=816, bias=False)\n","        (_depthwise_conv_padding): ConstantPad3d(padding=(2, 2, 2, 2, 2, 2), value=0.0)\n","        (_bn1): BatchNorm3d(816, eps=0.001, momentum=0.01, affine=True, track_running_stats=True)\n","        (_se_adaptpool): AdaptiveAvgPool3d(output_size=1)\n","        (_se_reduce): Conv3d(816, 34, kernel_size=(1, 1, 1), stride=(1, 1, 1))\n","        (_se_reduce_padding): Identity()\n","        (_se_expand): Conv3d(34, 816, kernel_size=(1, 1, 1), stride=(1, 1, 1))\n","        (_se_expand_padding): Identity()\n","        (_project_conv): Conv3d(816, 136, kernel_size=(1, 1, 1), stride=(1, 1, 1), bias=False)\n","        (_project_conv_padding): Identity()\n","        (_bn2): BatchNorm3d(136, eps=0.001, momentum=0.01, affine=True, track_running_stats=True)\n","        (_swish): MemoryEfficientSwish()\n","      )\n","      (17): MBConvBlock(\n","        (_expand_conv): Conv3d(136, 816, kernel_size=(1, 1, 1), stride=(1, 1, 1), bias=False)\n","        (_expand_conv_padding): Identity()\n","        (_bn0): BatchNorm3d(816, eps=0.001, momentum=0.01, affine=True, track_running_stats=True)\n","        (_depthwise_conv): Conv3d(816, 816, kernel_size=(5, 5, 5), stride=(1, 1, 1), groups=816, bias=False)\n","        (_depthwise_conv_padding): ConstantPad3d(padding=(2, 2, 2, 2, 2, 2), value=0.0)\n","        (_bn1): BatchNorm3d(816, eps=0.001, momentum=0.01, affine=True, track_running_stats=True)\n","        (_se_adaptpool): AdaptiveAvgPool3d(output_size=1)\n","        (_se_reduce): Conv3d(816, 34, kernel_size=(1, 1, 1), stride=(1, 1, 1))\n","        (_se_reduce_padding): Identity()\n","        (_se_expand): Conv3d(34, 816, kernel_size=(1, 1, 1), stride=(1, 1, 1))\n","        (_se_expand_padding): Identity()\n","        (_project_conv): Conv3d(816, 136, kernel_size=(1, 1, 1), stride=(1, 1, 1), bias=False)\n","        (_project_conv_padding): Identity()\n","        (_bn2): BatchNorm3d(136, eps=0.001, momentum=0.01, affine=True, track_running_stats=True)\n","        (_swish): MemoryEfficientSwish()\n","      )\n","    )\n","    (5): Sequential(\n","      (18): MBConvBlock(\n","        (_expand_conv): Conv3d(136, 816, kernel_size=(1, 1, 1), stride=(1, 1, 1), bias=False)\n","        (_expand_conv_padding): Identity()\n","        (_bn0): BatchNorm3d(816, eps=0.001, momentum=0.01, affine=True, track_running_stats=True)\n","        (_depthwise_conv): Conv3d(816, 816, kernel_size=(5, 5, 5), stride=(2, 2, 2), groups=816, bias=False)\n","        (_depthwise_conv_padding): ConstantPad3d(padding=(2, 2, 2, 2, 2, 2), value=0.0)\n","        (_bn1): BatchNorm3d(816, eps=0.001, momentum=0.01, affine=True, track_running_stats=True)\n","        (_se_adaptpool): AdaptiveAvgPool3d(output_size=1)\n","        (_se_reduce): Conv3d(816, 34, kernel_size=(1, 1, 1), stride=(1, 1, 1))\n","        (_se_reduce_padding): Identity()\n","        (_se_expand): Conv3d(34, 816, kernel_size=(1, 1, 1), stride=(1, 1, 1))\n","        (_se_expand_padding): Identity()\n","        (_project_conv): Conv3d(816, 232, kernel_size=(1, 1, 1), stride=(1, 1, 1), bias=False)\n","        (_project_conv_padding): Identity()\n","        (_bn2): BatchNorm3d(232, eps=0.001, momentum=0.01, affine=True, track_running_stats=True)\n","        (_swish): MemoryEfficientSwish()\n","      )\n","      (19): MBConvBlock(\n","        (_expand_conv): Conv3d(232, 1392, kernel_size=(1, 1, 1), stride=(1, 1, 1), bias=False)\n","        (_expand_conv_padding): Identity()\n","        (_bn0): BatchNorm3d(1392, eps=0.001, momentum=0.01, affine=True, track_running_stats=True)\n","        (_depthwise_conv): Conv3d(1392, 1392, kernel_size=(5, 5, 5), stride=(1, 1, 1), groups=1392, bias=False)\n","        (_depthwise_conv_padding): ConstantPad3d(padding=(2, 2, 2, 2, 2, 2), value=0.0)\n","        (_bn1): BatchNorm3d(1392, eps=0.001, momentum=0.01, affine=True, track_running_stats=True)\n","        (_se_adaptpool): AdaptiveAvgPool3d(output_size=1)\n","        (_se_reduce): Conv3d(1392, 58, kernel_size=(1, 1, 1), stride=(1, 1, 1))\n","        (_se_reduce_padding): Identity()\n","        (_se_expand): Conv3d(58, 1392, kernel_size=(1, 1, 1), stride=(1, 1, 1))\n","        (_se_expand_padding): Identity()\n","        (_project_conv): Conv3d(1392, 232, kernel_size=(1, 1, 1), stride=(1, 1, 1), bias=False)\n","        (_project_conv_padding): Identity()\n","        (_bn2): BatchNorm3d(232, eps=0.001, momentum=0.01, affine=True, track_running_stats=True)\n","        (_swish): MemoryEfficientSwish()\n","      )\n","      (20): MBConvBlock(\n","        (_expand_conv): Conv3d(232, 1392, kernel_size=(1, 1, 1), stride=(1, 1, 1), bias=False)\n","        (_expand_conv_padding): Identity()\n","        (_bn0): BatchNorm3d(1392, eps=0.001, momentum=0.01, affine=True, track_running_stats=True)\n","        (_depthwise_conv): Conv3d(1392, 1392, kernel_size=(5, 5, 5), stride=(1, 1, 1), groups=1392, bias=False)\n","        (_depthwise_conv_padding): ConstantPad3d(padding=(2, 2, 2, 2, 2, 2), value=0.0)\n","        (_bn1): BatchNorm3d(1392, eps=0.001, momentum=0.01, affine=True, track_running_stats=True)\n","        (_se_adaptpool): AdaptiveAvgPool3d(output_size=1)\n","        (_se_reduce): Conv3d(1392, 58, kernel_size=(1, 1, 1), stride=(1, 1, 1))\n","        (_se_reduce_padding): Identity()\n","        (_se_expand): Conv3d(58, 1392, kernel_size=(1, 1, 1), stride=(1, 1, 1))\n","        (_se_expand_padding): Identity()\n","        (_project_conv): Conv3d(1392, 232, kernel_size=(1, 1, 1), stride=(1, 1, 1), bias=False)\n","        (_project_conv_padding): Identity()\n","        (_bn2): BatchNorm3d(232, eps=0.001, momentum=0.01, affine=True, track_running_stats=True)\n","        (_swish): MemoryEfficientSwish()\n","      )\n","      (21): MBConvBlock(\n","        (_expand_conv): Conv3d(232, 1392, kernel_size=(1, 1, 1), stride=(1, 1, 1), bias=False)\n","        (_expand_conv_padding): Identity()\n","        (_bn0): BatchNorm3d(1392, eps=0.001, momentum=0.01, affine=True, track_running_stats=True)\n","        (_depthwise_conv): Conv3d(1392, 1392, kernel_size=(5, 5, 5), stride=(1, 1, 1), groups=1392, bias=False)\n","        (_depthwise_conv_padding): ConstantPad3d(padding=(2, 2, 2, 2, 2, 2), value=0.0)\n","        (_bn1): BatchNorm3d(1392, eps=0.001, momentum=0.01, affine=True, track_running_stats=True)\n","        (_se_adaptpool): AdaptiveAvgPool3d(output_size=1)\n","        (_se_reduce): Conv3d(1392, 58, kernel_size=(1, 1, 1), stride=(1, 1, 1))\n","        (_se_reduce_padding): Identity()\n","        (_se_expand): Conv3d(58, 1392, kernel_size=(1, 1, 1), stride=(1, 1, 1))\n","        (_se_expand_padding): Identity()\n","        (_project_conv): Conv3d(1392, 232, kernel_size=(1, 1, 1), stride=(1, 1, 1), bias=False)\n","        (_project_conv_padding): Identity()\n","        (_bn2): BatchNorm3d(232, eps=0.001, momentum=0.01, affine=True, track_running_stats=True)\n","        (_swish): MemoryEfficientSwish()\n","      )\n","      (22): MBConvBlock(\n","        (_expand_conv): Conv3d(232, 1392, kernel_size=(1, 1, 1), stride=(1, 1, 1), bias=False)\n","        (_expand_conv_padding): Identity()\n","        (_bn0): BatchNorm3d(1392, eps=0.001, momentum=0.01, affine=True, track_running_stats=True)\n","        (_depthwise_conv): Conv3d(1392, 1392, kernel_size=(5, 5, 5), stride=(1, 1, 1), groups=1392, bias=False)\n","        (_depthwise_conv_padding): ConstantPad3d(padding=(2, 2, 2, 2, 2, 2), value=0.0)\n","        (_bn1): BatchNorm3d(1392, eps=0.001, momentum=0.01, affine=True, track_running_stats=True)\n","        (_se_adaptpool): AdaptiveAvgPool3d(output_size=1)\n","        (_se_reduce): Conv3d(1392, 58, kernel_size=(1, 1, 1), stride=(1, 1, 1))\n","        (_se_reduce_padding): Identity()\n","        (_se_expand): Conv3d(58, 1392, kernel_size=(1, 1, 1), stride=(1, 1, 1))\n","        (_se_expand_padding): Identity()\n","        (_project_conv): Conv3d(1392, 232, kernel_size=(1, 1, 1), stride=(1, 1, 1), bias=False)\n","        (_project_conv_padding): Identity()\n","        (_bn2): BatchNorm3d(232, eps=0.001, momentum=0.01, affine=True, track_running_stats=True)\n","        (_swish): MemoryEfficientSwish()\n","      )\n","      (23): MBConvBlock(\n","        (_expand_conv): Conv3d(232, 1392, kernel_size=(1, 1, 1), stride=(1, 1, 1), bias=False)\n","        (_expand_conv_padding): Identity()\n","        (_bn0): BatchNorm3d(1392, eps=0.001, momentum=0.01, affine=True, track_running_stats=True)\n","        (_depthwise_conv): Conv3d(1392, 1392, kernel_size=(5, 5, 5), stride=(1, 1, 1), groups=1392, bias=False)\n","        (_depthwise_conv_padding): ConstantPad3d(padding=(2, 2, 2, 2, 2, 2), value=0.0)\n","        (_bn1): BatchNorm3d(1392, eps=0.001, momentum=0.01, affine=True, track_running_stats=True)\n","        (_se_adaptpool): AdaptiveAvgPool3d(output_size=1)\n","        (_se_reduce): Conv3d(1392, 58, kernel_size=(1, 1, 1), stride=(1, 1, 1))\n","        (_se_reduce_padding): Identity()\n","        (_se_expand): Conv3d(58, 1392, kernel_size=(1, 1, 1), stride=(1, 1, 1))\n","        (_se_expand_padding): Identity()\n","        (_project_conv): Conv3d(1392, 232, kernel_size=(1, 1, 1), stride=(1, 1, 1), bias=False)\n","        (_project_conv_padding): Identity()\n","        (_bn2): BatchNorm3d(232, eps=0.001, momentum=0.01, affine=True, track_running_stats=True)\n","        (_swish): MemoryEfficientSwish()\n","      )\n","    )\n","    (6): Sequential(\n","      (24): MBConvBlock(\n","        (_expand_conv): Conv3d(232, 1392, kernel_size=(1, 1, 1), stride=(1, 1, 1), bias=False)\n","        (_expand_conv_padding): Identity()\n","        (_bn0): BatchNorm3d(1392, eps=0.001, momentum=0.01, affine=True, track_running_stats=True)\n","        (_depthwise_conv): Conv3d(1392, 1392, kernel_size=(3, 3, 3), stride=(1, 1, 1), groups=1392, bias=False)\n","        (_depthwise_conv_padding): ConstantPad3d(padding=(1, 1, 1, 1, 1, 1), value=0.0)\n","        (_bn1): BatchNorm3d(1392, eps=0.001, momentum=0.01, affine=True, track_running_stats=True)\n","        (_se_adaptpool): AdaptiveAvgPool3d(output_size=1)\n","        (_se_reduce): Conv3d(1392, 58, kernel_size=(1, 1, 1), stride=(1, 1, 1))\n","        (_se_reduce_padding): Identity()\n","        (_se_expand): Conv3d(58, 1392, kernel_size=(1, 1, 1), stride=(1, 1, 1))\n","        (_se_expand_padding): Identity()\n","        (_project_conv): Conv3d(1392, 384, kernel_size=(1, 1, 1), stride=(1, 1, 1), bias=False)\n","        (_project_conv_padding): Identity()\n","        (_bn2): BatchNorm3d(384, eps=0.001, momentum=0.01, affine=True, track_running_stats=True)\n","        (_swish): MemoryEfficientSwish()\n","      )\n","      (25): MBConvBlock(\n","        (_expand_conv): Conv3d(384, 2304, kernel_size=(1, 1, 1), stride=(1, 1, 1), bias=False)\n","        (_expand_conv_padding): Identity()\n","        (_bn0): BatchNorm3d(2304, eps=0.001, momentum=0.01, affine=True, track_running_stats=True)\n","        (_depthwise_conv): Conv3d(2304, 2304, kernel_size=(3, 3, 3), stride=(1, 1, 1), groups=2304, bias=False)\n","        (_depthwise_conv_padding): ConstantPad3d(padding=(1, 1, 1, 1, 1, 1), value=0.0)\n","        (_bn1): BatchNorm3d(2304, eps=0.001, momentum=0.01, affine=True, track_running_stats=True)\n","        (_se_adaptpool): AdaptiveAvgPool3d(output_size=1)\n","        (_se_reduce): Conv3d(2304, 96, kernel_size=(1, 1, 1), stride=(1, 1, 1))\n","        (_se_reduce_padding): Identity()\n","        (_se_expand): Conv3d(96, 2304, kernel_size=(1, 1, 1), stride=(1, 1, 1))\n","        (_se_expand_padding): Identity()\n","        (_project_conv): Conv3d(2304, 384, kernel_size=(1, 1, 1), stride=(1, 1, 1), bias=False)\n","        (_project_conv_padding): Identity()\n","        (_bn2): BatchNorm3d(384, eps=0.001, momentum=0.01, affine=True, track_running_stats=True)\n","        (_swish): MemoryEfficientSwish()\n","      )\n","    )\n","  )\n","  (_conv_head): Conv3d(384, 1536, kernel_size=(1, 1, 1), stride=(1, 1, 1), bias=False)\n","  (_conv_head_padding): Identity()\n","  (_bn1): BatchNorm3d(1536, eps=0.001, momentum=0.01, affine=True, track_running_stats=True)\n","  (_avg_pooling): AdaptiveAvgPool3d(output_size=1)\n","  (_dropout): Dropout(p=0.3, inplace=False)\n","  (_fc): Linear(in_features=1536, out_features=2, bias=True)\n","  (_swish): MemoryEfficientSwish()\n",")>\n"]}],"source":["print(model.parameters)"]},{"cell_type":"code","execution_count":null,"metadata":{"colab":{"background_save":true,"base_uri":"https://localhost:8080/"},"id":"Ve31g7LaVSGl","outputId":"893706a1-9a2b-498e-df07-3881164814c1"},"outputs":[{"name":"stdout","output_type":"stream","text":["---------
…
  |\n","|  GPU   GI   CI        PID   Type   Process name                  GPU Memory |\n","|        ID   ID                                                   Usage      |\n","|=============================================================================|\n","+-----------------------------------------------------------------------------+\n"]}],"source":["!nvidia-smi "]},{"cell_type":"code","execution_count":null,"metadata":{"colab":{"background_save":true},"id":"pn5KWnRv7nhh","outputId":"744e662d-0dd4-4748-9786-6541cfc10b14"},"outputs":[{"data":{"text/plain":["EfficientNetBN(\n","  (_conv_stem): Conv3d(1, 40, kernel_size=(3, 3, 3), stride=(2, 2, 2), bias=False)\n","  (_conv_stem_padding): ConstantPad3d(padding=(0, 1, 0, 1, 0, 1), value=0.0)\n","  (_bn0): BatchNorm3d(40, eps=0.001, momentum=0.01, affine=True, track_running_stats=True)\n","  (_blocks): Sequential(\n","    (0): Sequential(\n","      (0): MBConvBlock(\n","        (_expand_conv): Identity()\n","        (_expand_conv_padding): Identity()\n","        (_bn0): Identity()\n","        (_depthwise_conv): Conv3d(40, 40, kernel_size=(3, 3, 3), stride=(1, 1, 1), groups=40, bias=False)\n","        (_depthwise_conv_padding): ConstantPad3d(padding=(1, 1, 1, 1, 1, 1), value=0.0)\n","        (_bn1): BatchNorm3d(40, eps=0.001, momentum=0.01, affine=True, track_running_stats=True)\n","        (_se_adaptpool): AdaptiveAvgPool3d(output_size=1)\n","        (_se_reduce): Conv3d(40, 10, kernel_size=(1, 1, 1), stride=(1, 1, 1))\n","        (_se_reduce_padding): Identity()\n","        (_se_expand): Conv3d(10, 40, kernel_size=(1, 1, 1), stride=(1, 1, 1))\n","        (_se_expand_padding): Identity()\n","        (_project_conv): Conv3d(40, 24, kernel_size=(1, 1, 1), stride=(1, 1, 1), bias=False)\n","        (_project_conv_padding): Identity()\n","        (_bn2): BatchNorm3d(24, eps=0.001, momentum=0.01, affine=True, track_running_stats=True)\n","        (_swish): MemoryEfficientSwish()\n","      )\n","      (1): MBConvBlock(\n","        (_expand_conv): Identity()\n","        (_expand_conv_padding): Identity()\n","        (_bn0): Identity()\n","        (_depthwise_conv): Conv3d(24, 24, kernel_size=(3, 3, 3), stride=(1, 1, 1), groups=24, bias=False)\n","        (_depthwise_conv_padding): ConstantPad3d(padding=(1, 1, 1, 1, 1, 1), value=0.0)\n","        (_bn1): BatchNorm3d(24, eps=0.001, momentum=0.01, affine=True, track_running_stats=True)\n","        (_se_adaptpool): AdaptiveAvgPool3d(output_size=1)\n","        (_se_reduce): Conv3d(24, 6, kernel_size=(1, 1, 1), stride=(1, 1, 1))\n","        (_se_reduce_padding): Identity()\n","        (_se_expand): Conv3d(6, 24, kernel_size=(1, 1, 1), stride=(1, 1, 1))\n","        (_se_expand_padding): Identity()\n","        (_project_conv): Conv3d(24, 24, kernel_size=(1, 1, 1), stride=(1, 1, 1), bias=False)\n","        (_project_conv_padding): Identity()\n","        (_bn2): BatchNorm3d(24, eps=0.001, momentum=0.01, affine=True, track_running_stats=True)\n","        (_swish): MemoryEfficientSwish()\n","      )\n","    )\n","    (1): Sequential(\n","      (2): MBConvBlock(\n","        (_expand_conv): Conv3d(24, 144, kernel_size=(1, 1, 1), stride=(1, 1, 1), bias=False)\n","        (_expand_conv_padding): Identity()\n","        (_bn0): BatchNorm3d(144, eps=0.001, momentum=0.01, affine=True, track_running_stats=True)\n","        (_depthwise_conv): Conv3d(144, 144, kernel_size=(3, 3, 3), stride=(2, 2, 2), groups=144, bias=False)\n","        (_depthwise_conv_padding): ConstantPad3d(padding=(0, 1, 0, 1, 0, 1), value=0.0)\n","        (_bn1): BatchNorm3d(144, eps=0.001, momentum=0.01, affine=True, track_running_stats=True)\n","        (_se_adaptpool): AdaptiveAvgPool3d(output_size=1)\n","        (_se_reduce): Conv3d(144, 6, kernel_size=(1, 1, 1), stride=(1, 1, 1))\n","        (_se_reduce_padding): Identity()\n","        (_se_expand): Conv3d(6, 144, kernel_size=(1, 1, 1), stride=(1, 1, 1))\n","        (_se_expand_padding): Identity()\n","        (_project_conv): Conv3d(144, 32, kernel_size=(1, 1, 1), stride=(1, 1, 1), bias=False)\n","        (_project_conv_padding): Identity()\n","        (_bn2): BatchNorm3d(32, eps=0.001, momentum=0.01, affine=True, track_running_stats=True)\n","        (_swish): MemoryEfficientSwish()\n","      )\n","      (3): MBConvBlock(\n","        (_expand_conv): Conv3d(32, 192, kernel_size=(1, 1, 1), stride=(1, 1, 1), bias=False)\n","        (_expand_conv_padding): Identity()\n","        (_bn0): BatchNorm3d(192, eps=0.001, momentum=0.01, affine=True, track_running_stats=True)\n","        (_depthwise_conv): Conv3d(192, 192, kernel_size=(3, 3, 3), stride=(1, 1, 1), groups=192, bias=False)\n","        (_depthwise_conv_padding): ConstantPad3d(padding=(1, 1, 1, 1, 1, 1), value=0.0)\n","        (_bn1): BatchNorm3d(192, eps=0.001, momentum=0.01, affine=True, track_running_stats=True)\n","        (_se_adaptpool): AdaptiveAvgPool3d(output_size=1)\n","        (_se_reduce): Conv3d(192, 8, kernel_size=(1, 1, 1), stride=(1, 1, 1))\n","        (_se_reduce_padding): Identity()\n","        (_se_expand): Conv3d(8, 192, kernel_size=(1, 1, 1), stride=(1, 1, 1))\n","        (_se_expand_padding): Identity()\n","        (_project_conv): Conv3d(192, 32, kernel_size=(1, 1, 1), stride=(1, 1, 1), bias=False)\n","        (_project_conv_padding): Identity()\n","        (_bn2): BatchNorm3d(32, eps=0.001, momentum=0.01, affine=True, track_running_stats=True)\n","        (_swish): MemoryEfficientSwish()\n","      )\n","      (4): MBConvBlock(\n","        (_expand_conv): Conv3d(32, 192, kernel_size=(1, 1, 1), stride=(1, 1, 1), bias=False)\n","        (_expand_conv_padding): Identity()\n","        (_bn0): BatchNorm3d(192, eps=0.001, momentum=0.01, affine=True, track_running_stats=True)\n","        (_depthwise_conv): Conv3d(192, 192, kernel_size=(3, 3, 3), stride=(1, 1, 1), groups=192, bias=False)\n","        (_depthwise_conv_padding): ConstantPad3d(padding=(1, 1, 1, 1, 1, 1), value=0.0)\n","        (_bn1): BatchNorm3d(192, eps=0.001, momentum=0.01, affine=True, track_running_stats=True)\n","        (_se_adaptpool): AdaptiveAvgPool3d(output_size=1)\n","        (_se_reduce): Conv3d(192, 8, kernel_size=(1, 1, 1), stride=(1, 1, 1))\n","        (_se_reduce_padding): Identity()\n","        (_se_expand): Conv3d(8, 192, kernel_size=(1, 1, 1), stride=(1, 1, 1))\n","        (_se_expand_padding): Identity()\n","        (_project_conv): Conv3d(192, 32, kernel_size=(1, 1, 1), stride=(1, 1, 1), bias=False)\n","        (_project_conv_padding): Identity()\n","        (_bn2): BatchNorm3d(32, eps=0.001, momentum=0.01, affine=True, track_running_stats=True)\n","        (_swish): MemoryEfficientSwish()\n","      )\n","    )\n","    (2): Sequential(\n","      (5): MBConvBlock(\n","        (_expand_conv): Conv3d(32, 192, kernel_size=(1, 1, 1), stride=(1, 1, 1), bias=False)\n","        (_expand_conv_padding): Identity()\n","        (_bn0): BatchNorm3d(192, eps=0.001, momentum=0.01, affine=True, track_running_stats=True)\n","        (_depthwise_conv): Conv3d(192, 192, kernel_size=(5, 5, 5), stride=(2, 2, 2), groups=192, bias=False)\n","        (_depthwise_conv_padding): ConstantPad3d(padding=(2, 2, 2, 2, 2, 2), value=0.0)\n","        (_bn1): BatchNorm3d(192, eps=0.001, momentum=0.01, affine=True, track_running_stats=True)\n","        (_se_adaptpool): AdaptiveAvgPool3d(output_size=1)\n","        (_se_reduce): Conv3d(192, 8, kernel_size=(1, 1, 1), stride=(1, 1, 1))\n","        (_se_reduce_padding): Identity()\n","        (_se_expand): Conv3d(8, 192, kernel_size=(1, 1, 1), stride=(1, 1, 1))\n","        (_se_expand_padding): Identity()\n","        (_project_conv): Conv3d(192, 48, kernel_size=(1, 1, 1), stride=(1, 1, 1), bias=False)\n","        (_project_conv_padding): Identity()\n","        (_bn2): BatchNorm3d(48, eps=0.001, momentum=0.01, affine=True, track_running_stats=True)\n","        (_swish): MemoryEfficientSwish()\n","      )\n","      (6): MBConvBlock(\n","        (_expand_conv): Conv3d(48, 288, kernel_size=(1, 1, 1), stride=(1, 1, 1), bias=False)\n","        (_expand_conv_padding): Identity()\n","        (_bn0): BatchNorm3d(288, eps=0.001, momentum=0.01, affine=True, track_running_stats=True)\n","        (_depthwise_conv): Conv3d(288, 288, kernel_size=(5, 5, 5), stride=(1, 1, 1), groups=288, bias=False)\n","        (_depthwise_conv_padding): ConstantPad3d(padding=(2, 2, 2, 2, 2, 2), value=0.0)\n","        (_bn1): BatchNorm3d(288, eps=0.001, momentum=0.01, affine=True, track_running_stats=True)\n","        (_se_adaptpool): AdaptiveAvgPool3d(output_size=1)\n","        (_se_reduce): Conv3d(288, 12, kernel_size=(1, 1, 1), stride=(1, 1, 1))\n","        (_se_reduce_padding): Identity()\n","        (_se_expand): Conv3d(12, 288, kernel_size=(1, 1, 1), stride=(1, 1, 1))\n","        (_se_expand_padding): Identity()\n","        (_project_conv): Conv3d(288, 48, kernel_size=(1, 1, 1), stride=(1, 1, 1), bias=False)\n","        (_project_conv_padding): Identity()\n","        (_bn2): BatchNorm3d(48, eps=0.001, momentum=0.01, affine=True, track_running_stats=True)\n","        (_swish): MemoryEfficientSwish()\n","      )\n","      (7): MBConvBlock(\n","        (_expand_conv): Conv3d(48, 288, kernel_size=(1, 1, 1), stride=(1, 1, 1), bias=False)\n","        (_expand_conv_padding): Identity()\n","        (_bn0): BatchNorm3d(288, eps=0.001, momentum=0.01, affine=True, track_running_stats=True)\n","        (_depthwise_conv): Conv3d(288, 288, kernel_size=(5, 5, 5), stride=(1, 1, 1), groups=288, bias=False)\n","        (_depthwise_conv_padding): ConstantPad3d(padding=(2, 2, 2, 2, 2, 2), value=0.0)\n","        (_bn1): BatchNorm3d(288, eps=0.001, momentum=0.01, affine=True, track_running_stats=True)\n","        (_se_adaptpool): AdaptiveAvgPool3d(output_size=1)\n","        (_se_reduce): Conv3d(288, 12, kernel_size=(1, 1, 1), stride=(1, 1, 1))\n","        (_se_reduce_padding): Identity()\n","        (_se_expand): Conv3d(12, 288, kernel_size=(1, 1, 1), stride=(1, 1, 1))\n","        (_se_expand_padding): Identity()\n","        (_project_conv): Conv3d(288, 48, kernel_size=(1, 1, 1), stride=(1, 1, 1), bias=False)\n","        (_project_conv_padding): Identity()\n","        (_bn2): BatchNorm3d(48, eps=0.001, momentum=0.01, affine=True, track_running_stats=True)\n","        (_swish): MemoryEfficientSwish()\n","      )\n","    )\n","    (3): Sequential(\n","      (8): MBConvBlock(\n","        (_expand_conv): Conv3d(48, 288, kernel_size=(1, 1, 1), stride=(1, 1, 1), bias=False)\n","        (_expand_conv_padding): Identity()\n","        (_bn0): BatchNorm3d(288, eps=0.001, momentum=0.01, affine=True, track_running_stats=True)\n","        (_depthwise_conv): Conv3d(288, 288, kernel_size=(3, 3, 3), stride=(2, 2, 2), groups=288, bias=False)\n","        (_depthwise_conv_padding): ConstantPad3d(padding=(0, 1, 0, 1, 0, 1), value=0.0)\n","        (_bn1): BatchNorm3d(288, eps=0.001, momentum=0.01, affine=True, track_running_stats=True)\n","        (_se_adaptpool): AdaptiveAvgPool3d(output_size=1)\n","        (_se_reduce): Conv3d(288, 12, kernel_size=(1, 1, 1), stride=(1, 1, 1))\n","        (_se_reduce_padding): Identity()\n","        (_se_expand): Conv3d(12, 288, kernel_size=(1, 1, 1), stride=(1, 1, 1))\n","        (_se_expand_padding): Identity()\n","        (_project_conv): Conv3d(288, 96, kernel_size=(1, 1, 1), stride=(1, 1, 1), bias=False)\n","        (_project_conv_padding): Identity()\n","        (_bn2): BatchNorm3d(96, eps=0.001, momentum=0.01, affine=True, track_running_stats=True)\n","        (_swish): MemoryEfficientSwish()\n","      )\n","      (9): MBConvBlock(\n","        (_expand_conv): Conv3d(96, 576, kernel_size=(1, 1, 1), stride=(1, 1, 1), bias=False)\n","        (_expand_conv_padding): Identity()\n","        (_bn0): BatchNorm3d(576, eps=0.001, momentum=0.01, affine=True, track_running_stats=True)\n","        (_depthwise_conv): Conv3d(576, 576, kernel_size=(3, 3, 3), stride=(1, 1, 1), groups=576, bias=False)\n","        (_depthwise_conv_padding): ConstantPad3d(padding=(1, 1, 1, 1, 1, 1), value=0.0)\n","        (_bn1): BatchNorm3d(576, eps=0.001, momentum=0.01, affine=True, track_running_stats=True)\n","        (_se_adaptpool): AdaptiveAvgPool3d(output_size=1)\n","        (_se_reduce): Conv3d(576, 24, kernel_size=(1, 1, 1), stride=(1, 1, 1))\n","        (_se_reduce_padding): Identity()\n","        (_se_expand): Conv3d(24, 576, kernel_size=(1, 1, 1), stride=(1, 1, 1))\n","        (_se_expand_padding): Identity()\n","        (_project_conv): Conv3d(576, 96, kernel_size=(1, 1, 1), stride=(1, 1, 1), bias=False)\n","        (_project_conv_padding): Identity()\n","        (_bn2): BatchNorm3d(96, eps=0.001, momentum=0.01, affine=True, track_running_stats=True)\n","        (_swish): MemoryEfficientSwish()\n","      )\n","      (10): MBConvBlock(\n","        (_expand_conv): Conv3d(96, 576, kernel_size=(1, 1, 1), stride=(1, 1, 1), bias=False)\n","        (_expand_conv_padding): Identity()\n","        (_bn0): BatchNorm3d(576, eps=0.001, momentum=0.01, affine=True, track_running_stats=True)\n","        (_depthwise_conv): Conv3d(576, 576, kernel_size=(3, 3, 3), stride=(1, 1, 1), groups=576, bias=False)\n","        (_depthwise_conv_padding): ConstantPad3d(padding=(1, 1, 1, 1, 1, 1), value=0.0)\n","        (_bn1): BatchNorm3d(576, eps=0.001, momentum=0.01, affine=True, track_running_stats=True)\n","        (_se_adaptpool): AdaptiveAvgPool3d(output_size=1)\n","        (_se_reduce): Conv3d(576, 24, kernel_size=(1, 1, 1), stride=(1, 1, 1))\n","        (_se_reduce_padding): Identity()\n","        (_se_expand): Conv3d(24, 576, kernel_size=(1, 1, 1), stride=(1, 1, 1))\n","        (_se_expand_padding): Identity()\n","        (_project_conv): Conv3d(576, 96, kernel_size=(1, 1, 1), stride=(1, 1, 1), bias=False)\n","        (_project_conv_padding): Identity()\n","        (_bn2): BatchNorm3d(96, eps=0.001, momentum=0.01, affine=True, track_running_stats=True)\n","        (_swish): MemoryEfficientSwish()\n","      )\n","      (11): MBConvBlock(\n","        (_expand_conv): Conv3d(96, 576, kernel_size=(1, 1, 1), stride=(1, 1, 1), bias=False)\n","        (_expand_conv_padding): Identity()\n","        (_bn0): BatchNorm3d(576, eps=0.001, momentum=0.01, affine=True, track_running_stats=True)\n","        (_depthwise_conv): Conv3d(576, 576, kernel_size=(3, 3, 3), stride=(1, 1, 1), groups=576, bias=False)\n","        (_depthwise_conv_padding): ConstantPad3d(padding=(1, 1, 1, 1, 1, 1), value=0.0)\n","        (_bn1): BatchNorm3d(576, eps=0.001, momentum=0.01, affine=True, track_running_stats=True)\n","        (_se_adaptpool): AdaptiveAvgPool3d(output_size=1)\n","        (_se_reduce): Conv3d(576, 24, kernel_size=(1, 1, 1), stride=(1, 1, 1))\n","        (_se_reduce_padding): Identity()\n","        (_se_expand): Conv3d(24, 576, kernel_size=(1, 1, 1), stride=(1, 1, 1))\n","        (_se_expand_padding): Identity()\n","        (_project_conv): Conv3d(576, 96, kernel_size=(1, 1, 1), stride=(1, 1, 1), bias=False)\n","        (_project_conv_padding): Identity()\n","        (_bn2): BatchNorm3d(96, eps=0.001, momentum=0.01, affine=True, track_running_stats=True)\n","        (_swish): MemoryEfficientSwish()\n","      )\n","      (12): MBConvBlock(\n","        (_expand_conv): Conv3d(96, 576, kernel_size=(1, 1, 1), stride=(1, 1, 1), bias=False)\n","        (_expand_conv_padding): Identity()\n","        (_bn0): BatchNorm3d(576, eps=0.001, momentum=0.01, affine=True, track_running_stats=True)\n","        (_depthwise_conv): Conv3d(576, 576, kernel_size=(3, 3, 3), stride=(1, 1, 1), groups=576, bias=False)\n","        (_depthwise_conv_padding): ConstantPad3d(padding=(1, 1, 1, 1, 1, 1), value=0.0)\n","        (_bn1): BatchNorm3d(576, eps=0.001, momentum=0.01, affine=True, track_running_stats=True)\n","        (_se_adaptpool): AdaptiveAvgPool3d(output_size=1)\n","        (_se_reduce): Conv3d(576, 24, kernel_size=(1, 1, 1), stride=(1, 1, 1))\n","        (_se_reduce_padding): Identity()\n","        (_se_expand): Conv3d(24, 576, kernel_size=(1, 1, 1), stride=(1, 1, 1))\n","        (_se_expand_padding): Identity()\n","        (_project_conv): Conv3d(576, 96, kernel_size=(1, 1, 1), stride=(1, 1, 1), bias=False)\n","        (_project_conv_padding): Identity()\n","        (_bn2): BatchNorm3d(96, eps=0.001, momentum=0.01, affine=True, track_running_stats=True)\n","        (_swish): MemoryEfficientSwish()\n","      )\n","    )\n","    (4): Sequential(\n","      (13): MBConvBlock(\n","        (_expand_conv): Conv3d(96, 576, kernel_size=(1, 1, 1), stride=(1, 1, 1), bias=False)\n","        (_expand_conv_padding): Identity()\n","        (_bn0): BatchNorm3d(576, eps=0.001, momentum=0.01, affine=True, track_running_stats=True)\n","        (_depthwise_conv): Conv3d(576, 576, kernel_size=(5, 5, 5), stride=(1, 1, 1), groups=576, bias=False)\n","        (_depthwise_conv_padding): ConstantPad3d(padding=(2, 2, 2, 2, 2, 2), value=0.0)\n","        (_bn1): BatchNorm3d(576, eps=0.001, momentum=0.01, affine=True, track_running_stats=True)\n","        (_se_adaptpool): AdaptiveAvgPool3d(output_size=1)\n","        (_se_reduce): Conv3d(576, 24, kernel_size=(1, 1, 1), stride=(1, 1, 1))\n","        (_se_reduce_padding): Identity()\n","        (_se_expand): Conv3d(24, 576, kernel_size=(1, 1, 1), stride=(1, 1, 1))\n","        (_se_expand_padding): Identity()\n","        (_project_conv): Conv3d(576, 136, kernel_size=(1, 1, 1), stride=(1, 1, 1), bias=False)\n","        (_project_conv_padding): Identity()\n","        (_bn2): BatchNorm3d(136, eps=0.001, momentum=0.01, affine=True, track_running_stats=True)\n","        (_swish): MemoryEfficientSwish()\n","      )\n","      (14): MBConvBlock(\n","        (_expand_conv): Conv3d(136, 816, kernel_size=(1, 1, 1), stride=(1, 1, 1), bias=False)\n","        (_expand_conv_padding): Identity()\n","        (_bn0): BatchNorm3d(816, eps=0.001, momentum=0.01, affine=True, track_running_stats=True)\n","        (_depthwise_conv): Conv3d(816, 816, kernel_size=(5, 5, 5), stride=(1, 1, 1), groups=816, bias=False)\n","        (_depthwise_conv_padding): ConstantPad3d(padding=(2, 2, 2, 2, 2, 2), value=0.0)\n","        (_bn1): BatchNorm3d(816, eps=0.001, momentum=0.01, affine=True, track_running_stats=True)\n","        (_se_adaptpool): AdaptiveAvgPool3d(output_size=1)\n","        (_se_reduce): Conv3d(816, 34, kernel_size=(1, 1, 1), stride=(1, 1, 1))\n","        (_se_reduce_padding): Identity()\n","        (_se_expand): Conv3d(34, 816, kernel_size=(1, 1, 1), stride=(1, 1, 1))\n","        (_se_expand_padding): Identity()\n","        (_project_conv): Conv3d(816, 136, kernel_size=(1, 1, 1), stride=(1, 1, 1), bias=False)\n","        (_project_conv_padding): Identity()\n","        (_bn2): BatchNorm3d(136, eps=0.001, momentum=0.01, affine=True, track_running_stats=True)\n","        (_swish): MemoryEfficientSwish()\n","      )\n","      (15): MBConvBlock(\n","        (_expand_conv): Conv3d(136, 816, kernel_size=(1, 1, 1), stride=(1, 1, 1), bias=False)\n","        (_expand_conv_padding): Identity()\n","        (_bn0): BatchNorm3d(816, eps=0.001, momentum=0.01, affine=True, track_running_stats=True)\n","        (_depthwise_conv): Conv3d(816, 816, kernel_size=(5, 5, 5), stride=(1, 1, 1), groups=816, bias=False)\n","        (_depthwise_conv_padding): ConstantPad3d(padding=(2, 2, 2, 2, 2, 2), value=0.0)\n","        (_bn1): BatchNorm3d(816, eps=0.001, momentum=0.01, affine=True, track_running_stats=True)\n","        (_se_adaptpool): AdaptiveAvgPool3d(output_size=1)\n","        (_se_reduce): Conv3d(816, 34, kernel_size=(1, 1, 1), stride=(1, 1, 1))\n","        (_se_reduce_padding): Identity()\n","        (_se_expand): Conv3d(34, 816, kernel_size=(1, 1, 1), stride=(1, 1, 1))\n","        (_se_expand_padding): Identity()\n","        (_project_conv): Conv3d(816, 136, kernel_size=(1, 1, 1), stride=(1, 1, 1), bias=False)\n","        (_project_conv_padding): Identity()\n","        (_bn2): BatchNorm3d(136, eps=0.001, momentum=0.01, affine=True, track_running_stats=True)\n","        (_swish): MemoryEfficientSwish()\n","      )\n","      (16): MBConvBlock(\n","        (_expand_conv): Conv3d(136, 816, kernel_size=(1, 1, 1), stride=(1, 1, 1), bias=False)\n","        (_expand_conv_padding): Identity()\n","        (_bn0): BatchNorm3d(816, eps=0.001, momentum=0.01, affine=True, track_running_stats=True)\n","        (_depthwise_conv): Conv3d(816, 816, kernel_size=(5, 5, 5), stride=(1, 1, 1), groups=816, bias=False)\n","        (_depthwise_conv_padding): ConstantPad3d(padding=(2, 2, 2, 2, 2, 2), value=0.0)\n","        (_bn1): BatchNorm3d(816, eps=0.001, momentum=0.01, affine=True, track_running_stats=True)\n","        (_se_adaptpool): AdaptiveAvgPool3d(output_size=1)\n","        (_se_reduce): Conv3d(816, 34, kernel_size=(1, 1, 1), stride=(1, 1, 1))\n","        (_se_reduce_padding): Identity()\n","        (_se_expand): Conv3d(34, 816, kernel_size=(1, 1, 1), stride=(1, 1, 1))\n","        (_se_expand_padding): Identity()\n","        (_project_conv): Conv3d(816, 136, kernel_size=(1, 1, 1), stride=(1, 1, 1), bias=False)\n","        (_project_conv_padding): Identity()\n","        (_bn2): BatchNorm3d(136, eps=0.001, momentum=0.01, affine=True, track_running_stats=True)\n","        (_swish): MemoryEfficientSwish()\n","      )\n","      (17): MBConvBlock(\n","        (_expand_conv): Conv3d(136, 816, kernel_size=(1, 1, 1), stride=(1, 1, 1), bias=False)\n","        (_expand_conv_padding): Identity()\n","        (_bn0): BatchNorm3d(816, eps=0.001, momentum=0.01, affine=True, track_running_stats=True)\n","        (_depthwise_conv): Conv3d(816, 816, kernel_size=(5, 5, 5), stride=(1, 1, 1), groups=816, bias=False)\n","        (_depthwise_conv_padding): ConstantPad3d(padding=(2, 2, 2, 2, 2, 2), value=0.0)\n","        (_bn1): BatchNorm3d(816, eps=0.001, momentum=0.01, affine=True, track_running_stats=True)\n","        (_se_adaptpool): AdaptiveAvgPool3d(output_size=1)\n","        (_se_reduce): Conv3d(816, 34, kernel_size=(1, 1, 1), stride=(1, 1, 1))\n","        (_se_reduce_padding): Identity()\n","        (_se_expand): Conv3d(34, 816, kernel_size=(1, 1, 1), stride=(1, 1, 1))\n","        (_se_expand_padding): Identity()\n","        (_project_conv): Conv3d(816, 136, kernel_size=(1, 1, 1), stride=(1, 1, 1), bias=False)\n","        (_project_conv_padding): Identity()\n","        (_bn2): BatchNorm3d(136, eps=0.001, momentum=0.01, affine=True, track_running_stats=True)\n","        (_swish): MemoryEfficientSwish()\n","      )\n","    )\n","    (5): Sequential(\n","      (18): MBConvBlock(\n","        (_expand_conv): Conv3d(136, 816, kernel_size=(1, 1, 1), stride=(1, 1, 1), bias=False)\n","        (_expand_conv_padding): Identity()\n","        (_bn0): BatchNorm3d(816, eps=0.001, momentum=0.01, affine=True, track_running_stats=True)\n","        (_depthwise_conv): Conv3d(816, 816, kernel_size=(5, 5, 5), stride=(2, 2, 2), groups=816, bias=False)\n","        (_depthwise_conv_padding): ConstantPad3d(padding=(2, 2, 2, 2, 2, 2), value=0.0)\n","        (_bn1): BatchNorm3d(816, eps=0.001, momentum=0.01, affine=True, track_running_stats=True)\n","        (_se_adaptpool): AdaptiveAvgPool3d(output_size=1)\n","        (_se_reduce): Conv3d(816, 34, kernel_size=(1, 1, 1), stride=(1, 1, 1))\n","        (_se_reduce_padding): Identity()\n","        (_se_expand): Conv3d(34, 816, kernel_size=(1, 1, 1), stride=(1, 1, 1))\n","        (_se_expand_padding): Identity()\n","        (_project_conv): Conv3d(816, 232, kernel_size=(1, 1, 1), stride=(1, 1, 1), bias=False)\n","        (_project_conv_padding): Identity()\n","        (_bn2): BatchNorm3d(232, eps=0.001, momentum=0.01, affine=True, track_running_stats=True)\n","        (_swish): MemoryEfficientSwish()\n","      )\n","      (19): MBConvBlock(\n","        (_expand_conv): Conv3d(232, 1392, kernel_size=(1, 1, 1), stride=(1, 1, 1), bias=False)\n","        (_expand_conv_padding): Identity()\n","        (_bn0): BatchNorm3d(1392, eps=0.001, momentum=0.01, affine=True, track_running_stats=True)\n","        (_depthwise_conv): Conv3d(1392, 1392, kernel_size=(5, 5, 5), stride=(1, 1, 1), groups=1392, bias=False)\n","        (_depthwise_conv_padding): ConstantPad3d(padding=(2, 2, 2, 2, 2, 2), value=0.0)\n","        (_bn1): BatchNorm3d(1392, eps=0.001, momentum=0.01, affine=True, track_running_stats=True)\n","        (_se_adaptpool): AdaptiveAvgPool3d(output_size=1)\n","        (_se_reduce): Conv3d(1392, 58, kernel_size=(1, 1, 1), stride=(1, 1, 1))\n","        (_se_reduce_padding): Identity()\n","        (_se_expand): Conv3d(58, 1392, kernel_size=(1, 1, 1), stride=(1, 1, 1))\n","        (_se_expand_padding): Identity()\n","        (_project_conv): Conv3d(1392, 232, kernel_size=(1, 1, 1), stride=(1, 1, 1), bias=False)\n","        (_project_conv_padding): Identity()\n","        (_bn2): BatchNorm3d(232, eps=0.001, momentum=0.01, affine=True, track_running_stats=True)\n","        (_swish): MemoryEfficientSwish()\n","      )\n","      (20): MBConvBlock(\n","        (_expand_conv): Conv3d(232, 1392, kernel_size=(1, 1, 1), stride=(1, 1, 1), bias=False)\n","        (_expand_conv_padding): Identity()\n","        (_bn0): BatchNorm3d(1392, eps=0.001, momentum=0.01, affine=True, track_running_stats=True)\n","        (_depthwise_conv): Conv3d(1392, 1392, kernel_size=(5, 5, 5), stride=(1, 1, 1), groups=1392, bias=False)\n","        (_depthwise_conv_padding): ConstantPad3d(padding=(2, 2, 2, 2, 2, 2), value=0.0)\n","        (_bn1): BatchNorm3d(1392, eps=0.001, momentum=0.01, affine=True, track_running_stats=True)\n","        (_se_adaptpool): AdaptiveAvgPool3d(output_size=1)\n","        (_se_reduce): Conv3d(1392, 58, kernel_size=(1, 1, 1), stride=(1, 1, 1))\n","        (_se_reduce_padding): Identity()\n","        (_se_expand): Conv3d(58, 1392, kernel_size=(1, 1, 1), stride=(1, 1, 1))\n","        (_se_expand_padding): Identity()\n","        (_project_conv): Conv3d(1392, 232, kernel_size=(1, 1, 1), stride=(1, 1, 1), bias=False)\n","        (_project_conv_padding): Identity()\n","        (_bn2): BatchNorm3d(232, eps=0.001, momentum=0.01, affine=True, track_running_stats=True)\n","        (_swish): MemoryEfficientSwish()\n","      )\n","      (21): MBConvBlock(\n","        (_expand_conv): Conv3d(232, 1392, kernel_size=(1, 1, 1), stride=(1, 1, 1), bias=False)\n","        (_expand_conv_padding): Identity()\n","        (_bn0): BatchNorm3d(1392, eps=0.001, momentum=0.01, affine=True, track_running_stats=True)\n","        (_depthwise_conv): Conv3d(1392, 1392, kernel_size=(5, 5, 5), stride=(1, 1, 1), groups=1392, bias=False)\n","        (_depthwise_conv_padding): ConstantPad3d(padding=(2, 2, 2, 2, 2, 2), value=0.0)\n","        (_bn1): BatchNorm3d(1392, eps=0.001, momentum=0.01, affine=True, track_running_stats=True)\n","        (_se_adaptpool): AdaptiveAvgPool3d(output_size=1)\n","        (_se_reduce): Conv3d(1392, 58, kernel_size=(1, 1, 1), stride=(1, 1, 1))\n","        (_se_reduce_padding): Identity()\n","        (_se_expand): Conv3d(58, 1392, kernel_size=(1, 1, 1), stride=(1, 1, 1))\n","        (_se_expand_padding): Identity()\n","        (_project_conv): Conv3d(1392, 232, kernel_size=(1, 1, 1), stride=(1, 1, 1), bias=False)\n","        (_project_conv_padding): Identity()\n","        (_bn2): BatchNorm3d(232, eps=0.001, momentum=0.01, affine=True, track_running_stats=True)\n","        (_swish): MemoryEfficientSwish()\n","      )\n","      (22): MBConvBlock(\n","        (_expand_conv): Conv3d(232, 1392, kernel_size=(1, 1, 1), stride=(1, 1, 1), bias=False)\n","        (_expand_conv_padding): Identity()\n","        (_bn0): BatchNorm3d(1392, eps=0.001, momentum=0.01, affine=True, track_running_stats=True)\n","        (_depthwise_conv): Conv3d(1392, 1392, kernel_size=(5, 5, 5), stride=(1, 1, 1), groups=1392, bias=False)\n","        (_depthwise_conv_padding): ConstantPad3d(padding=(2, 2, 2, 2, 2, 2), value=0.0)\n","        (_bn1): BatchNorm3d(1392, eps=0.001, momentum=0.01, affine=True, track_running_stats=True)\n","        (_se_adaptpool): AdaptiveAvgPool3d(output_size=1)\n","        (_se_reduce): Conv3d(1392, 58, kernel_size=(1, 1, 1), stride=(1, 1, 1))\n","        (_se_reduce_padding): Identity()\n","        (_se_expand): Conv3d(58, 1392, kernel_size=(1, 1, 1), stride=(1, 1, 1))\n","        (_se_expand_padding): Identity()\n","        (_project_conv): Conv3d(1392, 232, kernel_size=(1, 1, 1), stride=(1, 1, 1), bias=False)\n","        (_project_conv_padding): Identity()\n","        (_bn2): BatchNorm3d(232, eps=0.001, momentum=0.01, affine=True, track_running_stats=True)\n","        (_swish): MemoryEfficientSwish()\n","      )\n","      (23): MBConvBlock(\n","        (_expand_conv): Conv3d(232, 1392, kernel_size=(1, 1, 1), stride=(1, 1, 1), bias=False)\n","        (_expand_conv_padding): Identity()\n","        (_bn0): BatchNorm3d(1392, eps=0.001, momentum=0.01, affine=True, track_running_stats=True)\n","        (_depthwise_conv): Conv3d(1392, 1392, kernel_size=(5, 5, 5), stride=(1, 1, 1), groups=1392, bias=False)\n","        (_depthwise_conv_padding): ConstantPad3d(padding=(2, 2, 2, 2, 2, 2), value=0.0)\n","        (_bn1): BatchNorm3d(1392, eps=0.001, momentum=0.01, affine=True, track_running_stats=True)\n","        (_se_adaptpool): AdaptiveAvgPool3d(output_size=1)\n","        (_se_reduce): Conv3d(1392, 58, kernel_size=(1, 1, 1), stride=(1, 1, 1))\n","        (_se_reduce_padding): Identity()\n","        (_se_expand): Conv3d(58, 1392, kernel_size=(1, 1, 1), stride=(1, 1, 1))\n","        (_se_expand_padding): Identity()\n","        (_project_conv): Conv3d(1392, 232, kernel_size=(1, 1, 1), stride=(1, 1, 1), bias=False)\n","        (_project_conv_padding): Identity()\n","        (_bn2): BatchNorm3d(232, eps=0.001, momentum=0.01, affine=True, track_running_stats=True)\n","        (_swish): MemoryEfficientSwish()\n","      )\n","    )\n","    (6): Sequential(\n","      (24): MBConvBlock(\n","        (_expand_conv): Conv3d(232, 1392, kernel_size=(1, 1, 1), stride=(1, 1, 1), bias=False)\n","        (_expand_conv_padding): Identity()\n","        (_bn0): BatchNorm3d(1392, eps=0.001, momentum=0.01, affine=True, track_running_stats=True)\n","        (_depthwise_conv): Conv3d(1392, 1392, kernel_size=(3, 3, 3), stride=(1, 1, 1), groups=1392, bias=False)\n","        (_depthwise_conv_padding): ConstantPad3d(padding=(1, 1, 1, 1, 1, 1), value=0.0)\n","        (_bn1): BatchNorm3d(1392, eps=0.001, momentum=0.01, affine=True, track_running_stats=True)\n","        (_se_adaptpool): AdaptiveAvgPool3d(output_size=1)\n","        (_se_reduce): Conv3d(1392, 58, kernel_size=(1, 1, 1), stride=(1, 1, 1))\n","        (_se_reduce_padding): Identity()\n","        (_se_expand): Conv3d(58, 1392, kernel_size=(1, 1, 1), stride=(1, 1, 1))\n","        (_se_expand_padding): Identity()\n","        (_project_conv): Conv3d(1392, 384, kernel_size=(1, 1, 1), stride=(1, 1, 1), bias=False)\n","        (_project_conv_padding): Identity()\n","        (_bn2): BatchNorm3d(384, eps=0.001, momentum=0.01, affine=True, track_running_stats=True)\n","        (_swish): MemoryEfficientSwish()\n","      )\n","      (25): MBConvBlock(\n","        (_expand_conv): Conv3d(384, 2304, kernel_size=(1, 1, 1), stride=(1, 1, 1), bias=False)\n","        (_expand_conv_padding): Identity()\n","        (_bn0): BatchNorm3d(2304, eps=0.001, momentum=0.01, affine=True, track_running_stats=True)\n","        (_depthwise_conv): Conv3d(2304, 2304, kernel_size=(3, 3, 3), stride=(1, 1, 1), groups=2304, bias=False)\n","        (_depthwise_conv_padding): ConstantPad3d(padding=(1, 1, 1, 1, 1, 1), value=0.0)\n","        (_bn1): BatchNorm3d(2304, eps=0.001, momentum=0.01, affine=True, track_running_stats=True)\n","        (_se_adaptpool): AdaptiveAvgPool3d(output_size=1)\n","        (_se_reduce): Conv3d(2304, 96, kernel_size=(1, 1, 1), stride=(1, 1, 1))\n","        (_se_reduce_padding): Identity()\n","        (_se_expand): Conv3d(96, 2304, kernel_size=(1, 1, 1), stride=(1, 1, 1))\n","        (_se_expand_padding): Identity()\n","        (_project_conv): Conv3d(2304, 384, kernel_size=(1, 1, 1), stride=(1, 1, 1), bias=False)\n","        (_project_conv_padding): Identity()\n","        (_bn2): BatchNorm3d(384, eps=0.001, momentum=0.01, affine=True, track_running_stats=True)\n","        (_swish): MemoryEfficientSwish()\n","      )\n","    )\n","  )\n","  (_conv_head): Conv3d(384, 1536, kernel_size=(1, 1, 1), stride=(1, 1, 1), bias=False)\n","  (_conv_head_padding): Identity()\n","  (_bn1): BatchNorm3d(1536, eps=0.001, momentum=0.01, affine=True, track_running_stats=True)\n","  (_avg_pooling): AdaptiveAvgPool3d(output_size=1)\n","  (_dropout): Dropout(p=0.3, inplace=False)\n","  (_fc): Linear(in_features=1536, out_features=2, bias=True)\n","  (_swish): MemoryEfficientSwish()\n",")"]},"execution_count":null,"metadata":{},"output_type":"execute_result"}],"source":["model.load_state_dict(torch.load('/content/drive/MyDrive/F2ENB3ADvsCNbest_metric_model_classification3d_dict.pth'))\n","model.eval()"]},{"cell_type":"code","execution_count":null,"metadata":{"colab":{"background_save":true},"i
…
