…
function = torch.nn.CrossEntropyLoss()\n","  optimizer = torch.optim.Adam(model.parameters(), 1e-4)\n","  auc_metric = ROCAUCMetric()"]},{"cell_type":"code","execution_count":null,"metadata":{"colab":{"base_uri":"https://localhost:8080/"},"executionInfo":{"elapsed":14,"status":"ok","timestamp":1650022357075,"user":{"displayName":"Deevyankar Agarwal","userId":"14882055139397387561"},"user_tz":-240},"id":"rfTuqU6DJbqG","outputId":"708fc36d-30e7-4f67-a845-07a28a888346"},"outputs":[{"name":"stdout","output_type":"stream","text":["<bound method Module.parameters of EfficientNetBN(\n","  (_conv_stem): Conv3d(1, 32, kernel_size=(3, 3, 3), stride=(2, 2, 2), bias=False)\n","  (_conv_stem_padding): ConstantPad3d(padding=(0, 1, 0, 1, 0, 1), value=0.0)\n","  (_bn0): BatchNorm3d(32, eps=0.001, momentum=0.01, affine=True, track_running_stats=True)\n","  (_blocks): Sequential(\n","    (0): Sequential(\n","      (0): MBConvBlock(\n","        (_expand_conv): Identity()\n","        (_expand_conv_padding): Identity()\n","        (_bn0): Identity()\n","        (_depthwise_conv): Conv3d(32, 32, kernel_size=(3, 3, 3), stride=(1, 1, 1), groups=32, bias=False)\n","        (_depthwise_conv_padding): ConstantPad3d(padding=(1, 1, 1, 1, 1, 1), value=0.0)\n","        (_bn1): BatchNorm3d(32, eps=0.001, momentum=0.01, affine=True, track_running_stats=True)\n","        (_se_adaptpool): AdaptiveAvgPool3d(output_size=1)\n","        (_se_reduce): Conv3d(32, 8, kernel_size=(1, 1, 1), stride=(1, 1, 1))\n","        (_se_reduce_padding): Identity()\n","        (_se_expand): Conv3d(8, 32, kernel_size=(1, 1, 1), stride=(1, 1, 1))\n","        (_se_expand_padding): Identity()\n","        (_project_conv): Conv3d(32, 16, kernel_size=(1, 1, 1), stride=(1, 1, 1), bias=False)\n","        (_project_conv_padding): Identity()\n","        (_bn2): BatchNorm3d(16, eps=0.001, momentum=0.01, affine=True, track_running_stats=True)\n","        (_swish): MemoryEfficientSwish()\n","      )\n","      (1): MBConvBlock(\n","        (_expand_conv): Identity()\n","        (_expand_conv_padding): Identity()\n","        (_bn0): Identity()\n","        (_depthwise_conv): Conv3d(16, 16, kernel_size=(3, 3, 3), stride=(1, 1, 1), groups=16, bias=False)\n","        (_depthwise_conv_padding): ConstantPad3d(padding=(1, 1, 1, 1, 1, 1), value=0.0)\n","        (_bn1): BatchNorm3d(16, eps=0.001, momentum=0.01, affine=True, track_running_stats=True)\n","        (_se_adaptpool): AdaptiveAvgPool3d(output_size=1)\n","        (_se_reduce): Conv3d(16, 4, kernel_size=(1, 1, 1), stride=(1, 1, 1))\n","        (_se_reduce_padding): Identity()\n","        (_se_expand): Conv3d(4, 16, kernel_size=(1, 1, 1), stride=(1, 1, 1))\n","        (_se_expand_padding): Identity()\n","        (_project_conv): Conv3d(16, 16, kernel_size=(1, 1, 1), stride=(1, 1, 1), bias=False)\n","        (_project_conv_padding): Identity()\n","        (_bn2): BatchNorm3d(16, eps=0.001, momentum=0.01, affine=True, track_running_stats=True)\n","        (_swish): MemoryEfficientSwish()\n","      )\n","    )\n","    (1): Sequential(\n","      (2): MBConvBlock(\n","        (_expand_conv): Conv3d(16, 96, kernel_size=(1, 1, 1), stride=(1, 1, 1), bias=False)\n","        (_expand_conv_padding): Identity()\n","        (_bn0): BatchNorm3d(96, eps=0.001, momentum=0.01, affine=True, track_running_stats=True)\n","        (_depthwise_conv): Conv3d(96, 96, kernel_size=(3, 3, 3), stride=(2, 2, 2), groups=96, bias=False)\n","        (_depthwise_conv_padding): ConstantPad3d(padding=(0, 1, 0, 1, 0, 1), value=0.0)\n","        (_bn1): BatchNorm3d(96, eps=0.001, momentum=0.01, affine=True, track_running_stats=True)\n","        (_se_adaptpool): AdaptiveAvgPool3d(output_size=1)\n","        (_se_reduce): Conv3d(96, 4, kernel_size=(1, 1, 1), stride=(1, 1, 1))\n","        (_se_reduce_padding): Identity()\n","        (_se_expand): Conv3d(4, 96, kernel_size=(1, 1, 1), stride=(1, 1, 1))\n","        (_se_expand_padding): Identity()\n","        (_project_conv): Conv3d(96, 24, kernel_size=(1, 1, 1), stride=(1, 1, 1), bias=False)\n","        (_project_conv_padding): Identity()\n","        (_bn2): BatchNorm3d(24, eps=0.001, momentum=0.01, affine=True, track_running_stats=True)\n","        (_swish): MemoryEfficientSwish()\n","      )\n","      (3): MBConvBlock(\n","        (_expand_conv): Conv3d(24, 144, kernel_size=(1, 1, 1), stride=(1, 1, 1), bias=False)\n","        (_expand_conv_padding): Identity()\n","        (_bn0): BatchNorm3d(144, eps=0.001, momentum=0.01, affine=True, track_running_stats=True)\n","        (_depthwise_conv): Conv3d(144, 144, kernel_size=(3, 3, 3), stride=(1, 1, 1), groups=144, bias=False)\n","        (_depthwise_conv_padding): ConstantPad3d(padding=(1, 1, 1, 1, 1, 1), value=0.0)\n","        (_bn1): BatchNorm3d(144, eps=0.001, momentum=0.01, affine=True, track_running_stats=True)\n","        (_se_adaptpool): AdaptiveAvgPool3d(output_size=1)\n","        (_se_reduce): Conv3d(144, 6, kernel_size=(1, 1, 1), stride=(1, 1, 1))\n","        (_se_reduce_padding): Identity()\n","        (_se_expand): Conv3d(6, 144, kernel_size=(1, 1, 1), stride=(1, 1, 1))\n","        (_se_expand_padding): Identity()\n","        (_project_conv): Conv3d(144, 24, kernel_size=(1, 1, 1), stride=(1, 1, 1), bias=False)\n","        (_project_conv_padding): Identity()\n","        (_bn2): BatchNorm3d(24, eps=0.001, momentum=0.01, affine=True, track_running_stats=True)\n","        (_swish): MemoryEfficientSwish()\n","      )\n","      (4): MBConvBlock(\n","        (_expand_conv): Conv3d(24, 144, kernel_size=(1, 1, 1), stride=(1, 1, 1), bias=False)\n","        (_expand_conv_padding): Identity()\n","        (_bn0): BatchNorm3d(144, eps=0.001, momentum=0.01, affine=True, track_running_stats=True)\n","        (_depthwise_conv): Conv3d(144, 144, kernel_size=(3, 3, 3), stride=(1, 1, 1), groups=144, bias=False)\n","        (_depthwise_conv_padding): ConstantPad3d(padding=(1, 1, 1, 1, 1, 1), value=0.0)\n","        (_bn1): BatchNorm3d(144, eps=0.001, momentum=0.01, affine=True, track_running_stats=True)\n","        (_se_adaptpool): AdaptiveAvgPool3d(output_size=1)\n","        (_se_reduce): Conv3d(144, 6, kernel_size=(1, 1, 1), stride=(1, 1, 1))\n","        (_se_reduce_padding): Identity()\n","        (_se_expand): Conv3d(6, 144, kernel_size=(1, 1, 1), stride=(1, 1, 1))\n","        (_se_expand_padding): Identity()\n","        (_project_conv): Conv3d(144, 24, kernel_size=(1, 1, 1), stride=(1, 1, 1), bias=False)\n","        (_project_conv_padding): Identity()\n","        (_bn2): BatchNorm3d(24, eps=0.001, momentum=0.01, affine=True, track_running_stats=True)\n","        (_swish): MemoryEfficientSwish()\n","      )\n","    )\n","    (2): Sequential(\n","      (5): MBConvBlock(\n","        (_expand_conv): Conv3d(24, 144, kernel_size=(1, 1, 1), stride=(1, 1, 1), bias=False)\n","        (_expand_conv_padding): Identity()\n","        (_bn0): BatchNorm3d(144, eps=0.001, momentum=0.01, affine=True, track_running_stats=True)\n","        (_depthwise_conv): Conv3d(144, 144, kernel_size=(5, 5, 5), stride=(2, 2, 2), groups=144, bias=False)\n","        (_depthwise_conv_padding): ConstantPad3d(padding=(1, 2, 1, 2, 1, 2), value=0.0)\n","        (_bn1): BatchNorm3d(144, eps=0.001, momentum=0.01, affine=True, track_running_stats=True)\n","        (_se_adaptpool): AdaptiveAvgPool3d(output_size=1)\n","        (_se_reduce): Conv3d(144, 6, kernel_size=(1, 1, 1), stride=(1, 1, 1))\n","        (_se_reduce_padding): Identity()\n","        (_se_expand): Conv3d(6, 144, kernel_size=(1, 1, 1), stride=(1, 1, 1))\n","        (_se_expand_padding): Identity()\n","        (_project_conv): Conv3d(144, 40, kernel_size=(1, 1, 1), stride=(1, 1, 1), bias=False)\n","        (_project_conv_padding): Identity()\n","        (_bn2): BatchNorm3d(40, eps=0.001, momentum=0.01, affine=True, track_running_stats=True)\n","        (_swish): MemoryEfficientSwish()\n","      )\n","      (6): MBConvBlock(\n","        (_expand_conv): Conv3d(40, 240, kernel_size=(1, 1, 1), stride=(1, 1, 1), bias=False)\n","        (_expand_conv_padding): Identity()\n","        (_bn0): BatchNorm3d(240, eps=0.001, momentum=0.01, affine=True, track_running_stats=True)\n","        (_depthwise_conv): Conv3d(240, 240, kernel_size=(5, 5, 5), stride=(1, 1, 1), groups=240, bias=False)\n","        (_depthwise_conv_padding): ConstantPad3d(padding=(2, 2, 2, 2, 2, 2), value=0.0)\n","        (_bn1): BatchNorm3d(240, eps=0.001, momentum=0.01, affine=True, track_running_stats=True)\n","        (_se_adaptpool): AdaptiveAvgPool3d(output_size=1)\n","        (_se_reduce): Conv3d(240, 10, kernel_size=(1, 1, 1), stride=(1, 1, 1))\n","        (_se_reduce_padding): Identity()\n","        (_se_expand): Conv3d(10, 240, kernel_size=(1, 1, 1), stride=(1, 1, 1))\n","        (_se_expand_padding): Identity()\n","        (_project_conv): Conv3d(240, 40, kernel_size=(1, 1, 1), stride=(1, 1, 1), bias=False)\n","        (_project_conv_padding): Identity()\n","        (_bn2): BatchNorm3d(40, eps=0.001, momentum=0.01, affine=True, track_running_stats=True)\n","        (_swish): MemoryEfficientSwish()\n","      )\n","      (7): MBConvBlock(\n","        (_expand_conv): Conv3d(40, 240, kernel_size=(1, 1, 1), stride=(1, 1, 1), bias=False)\n","        (_expand_conv_padding): Identity()\n","        (_bn0): BatchNorm3d(240, eps=0.001, momentum=0.01, affine=True, track_running_stats=True)\n","        (_depthwise_conv): Conv3d(240, 240, kernel_size=(5, 5, 5), stride=(1, 1, 1), groups=240, bias=False)\n","        (_depthwise_conv_padding): ConstantPad3d(padding=(2, 2, 2, 2, 2, 2), value=0.0)\n","        (_bn1): BatchNorm3d(240, eps=0.001, momentum=0.01, affine=True, track_running_stats=True)\n","        (_se_adaptpool): AdaptiveAvgPool3d(output_size=1)\n","        (_se_reduce): Conv3d(240, 10, kernel_size=(1, 1, 1), stride=(1, 1, 1))\n","        (_se_reduce_padding): Identity()\n","        (_se_expand): Conv3d(10, 240, kernel_size=(1, 1, 1), stride=(1, 1, 1))\n","        (_se_expand_padding): Identity()\n","        (_project_conv): Conv3d(240, 40, kernel_size=(1, 1, 1), stride=(1, 1, 1), bias=False)\n","        (_project_conv_padding): Identity()\n","        (_bn2): BatchNorm3d(40, eps=0.001, momentum=0.01, affine=True, track_running_stats=True)\n","        (_swish): MemoryEfficientSwish()\n","      )\n","    )\n","    (3): Sequential(\n","      (8): MBConvBlock(\n","        (_expand_conv): Conv3d(40, 240, kernel_size=(1, 1, 1), stride=(1, 1, 1), bias=False)\n","        (_expand_conv_padding): Identity()\n","        (_bn0): BatchNorm3d(240, eps=0.001, momentum=0.01, affine=True, track_running_stats=True)\n","        (_depthwise_conv): Conv3d(240, 240, kernel_size=(3, 3, 3), stride=(2, 2, 2), groups=240, bias=False)\n","        (_depthwise_conv_padding): ConstantPad3d(padding=(0, 1, 0, 1, 0, 1), value=0.0)\n","        (_bn1): BatchNorm3d(240, eps=0.001, momentum=0.01, affine=True, track_running_stats=True)\n","        (_se_adaptpool): AdaptiveAvgPool3d(output_size=1)\n","        (_se_reduce): Conv3d(240, 10, kernel_size=(1, 1, 1), stride=(1, 1, 1))\n","        (_se_reduce_padding): Identity()\n","        (_se_expand): Conv3d(10, 240, kernel_size=(1, 1, 1), stride=(1, 1, 1))\n","        (_se_expand_padding): Identity()\n","        (_project_conv): Conv3d(240, 80, kernel_size=(1, 1, 1), stride=(1, 1, 1), bias=False)\n","        (_project_conv_padding): Identity()\n","        (_bn2): BatchNorm3d(80, eps=0.001, momentum=0.01, affine=True, track_running_stats=True)\n","        (_swish): MemoryEfficientSwish()\n","      )\n","      (9): MBConvBlock(\n","        (_expand_conv): Conv3d(80, 480, kernel_size=(1, 1, 1), stride=(1, 1, 1), bias=False)\n","        (_expand_conv_padding): Identity()\n","        (_bn0): BatchNorm3d(480, eps=0.001, momentum=0.01, affine=True, track_running_stats=True)\n","        (_depthwise_conv): Conv3d(480, 480, kernel_size=(3, 3, 3), stride=(1, 1, 1), groups=480, bias=False)\n","        (_depthwise_conv_padding): ConstantPad3d(padding=(1, 1, 1, 1, 1, 1), value=0.0)\n","        (_bn1): BatchNorm3d(480, eps=0.001, momentum=0.01, affine=True, track_running_stats=True)\n","        (_se_adaptpool): AdaptiveAvgPool3d(output_size=1)\n","        (_se_reduce): Conv3d(480, 20, kernel_size=(1, 1, 1), stride=(1, 1, 1))\n","        (_se_reduce_padding): Identity()\n","        (_se_expand): Conv3d(20, 480, kernel_size=(1, 1, 1), stride=(1, 1, 1))\n","        (_se_expand_padding): Identity()\n","        (_project_conv): Conv3d(480, 80, kernel_size=(1, 1, 1), stride=(1, 1, 1), bias=False)\n","        (_project_conv_padding): Identity()\n","        (_bn2): BatchNorm3d(80, eps=0.001, momentum=0.01, affine=True, track_running_stats=True)\n","        (_swish): MemoryEfficientSwish()\n","      )\n","      (10): MBConvBlock(\n","        (_expand_conv): Conv3d(80, 480, kernel_size=(1, 1, 1), stride=(1, 1, 1), bias=False)\n","        (_expand_conv_padding): Identity()\n","        (_bn0): BatchNorm3d(480, eps=0.001, momentum=0.01, affine=True, track_running_stats=True)\n","        (_depthwise_conv): Conv3d(480, 480, kernel_size=(3, 3, 3), stride=(1, 1, 1), groups=480, bias=False)\n","        (_depthwise_conv_padding): ConstantPad3d(padding=(1, 1, 1, 1, 1, 1), value=0.0)\n","        (_bn1): BatchNorm3d(480, eps=0.001, momentum=0.01, affine=True, track_running_stats=True)\n","        (_se_adaptpool): AdaptiveAvgPool3d(output_size=1)\n","        (_se_reduce): Conv3d(480, 20, kernel_size=(1, 1, 1), stride=(1, 1, 1))\n","        (_se_reduce_padding): Identity()\n","        (_se_expand): Conv3d(20, 480, kernel_size=(1, 1, 1), stride=(1, 1, 1))\n","        (_se_expand_padding): Identity()\n","        (_project_conv): Conv3d(480, 80, kernel_size=(1, 1, 1), stride=(1, 1, 1), bias=False)\n","        (_project_conv_padding): Identity()\n","        (_bn2): BatchNorm3d(80, eps=0.001, momentum=0.01, affine=True, track_running_stats=True)\n","        (_swish): MemoryEfficientSwish()\n","      )\n","      (11): MBConvBlock(\n","        (_expand_conv): Conv3d(80, 480, kernel_size=(1, 1, 1), stride=(1, 1, 1), bias=False)\n","        (_expand_conv_padding): Identity()\n","        (_bn0): BatchNorm3d(480, eps=0.001, momentum=0.01, affine=True, track_running_stats=True)\n","        (_depthwise_conv): Conv3d(480, 480, kernel_size=(3, 3, 3), stride=(1, 1, 1), groups=480, bias=False)\n","        (_depthwise_conv_padding): ConstantPad3d(padding=(1, 1, 1, 1, 1, 1), value=0.0)\n","        (_bn1): BatchNorm3d(480, eps=0.001, momentum=0.01, affine=True, track_running_stats=True)\n","        (_se_adaptpool): AdaptiveAvgPool3d(output_size=1)\n","        (_se_reduce): Conv3d(480, 20, kernel_size=(1, 1, 1), stride=(1, 1, 1))\n","        (_se_reduce_padding): Identity()\n","        (_se_expand): Conv3d(20, 480, kernel_size=(1, 1, 1), stride=(1, 1, 1))\n","        (_se_expand_padding): Identity()\n","        (_project_conv): Conv3d(480, 80, kernel_size=(1, 1, 1), stride=(1, 1, 1), bias=False)\n","        (_project_conv_padding): Identity()\n","        (_bn2): BatchNorm3d(80, eps=0.001, momentum=0.01, affine=True, track_running_stats=True)\n","        (_swish): MemoryEfficientSwish()\n","      )\n","    )\n","    (4): Sequential(\n","      (12): MBConvBlock(\n","        (_expand_conv): Conv3d(80, 480, kernel_size=(1, 1, 1), stride=(1, 1, 1), bias=False)\n","        (_expand_conv_padding): Identity()\n","        (_bn0): BatchNorm3d(480, eps=0.001, momentum=0.01, affine=True, track_running_stats=True)\n","        (_depthwise_conv): Conv3d(480, 480, kernel_size=(5, 5, 5), stride=(1, 1, 1), groups=480, bias=False)\n","        (_depthwise_conv_padding): ConstantPad3d(padding=(2, 2, 2, 2, 2, 2), value=0.0)\n","        (_bn1): BatchNorm3d(480, eps=0.001, momentum=0.01, affine=True, track_running_stats=True)\n","        (_se_adaptpool): AdaptiveAvgPool3d(output_size=1)\n","        (_se_reduce): Conv3d(480, 20, kernel_size=(1, 1, 1), stride=(1, 1, 1))\n","        (_se_reduce_padding): Identity()\n","        (_se_expand): Conv3d(20, 480, kernel_size=(1, 1, 1), stride=(1, 1, 1))\n","        (_se_expand_padding): Identity()\n","        (_project_conv): Conv3d(480, 112, kernel_size=(1, 1, 1), stride=(1, 1, 1), bias=False)\n","        (_project_conv_padding): Identity()\n","        (_bn2): BatchNorm3d(112, eps=0.001, momentum=0.01, affine=True, track_running_stats=True)\n","        (_swish): MemoryEfficientSwish()\n","      )\n","      (13): MBConvBlock(\n","        (_expand_conv): Conv3d(112, 672, kernel_size=(1, 1, 1), stride=(1, 1, 1), bias=False)\n","        (_expand_conv_padding): Identity()\n","        (_bn0): BatchNorm3d(672, eps=0.001, momentum=0.01, affine=True, track_running_stats=True)\n","        (_depthwise_conv): Conv3d(672, 672, kernel_size=(5, 5, 5), stride=(1, 1, 1), groups=672, bias=False)\n","        (_depthwise_conv_padding): ConstantPad3d(padding=(2, 2, 2, 2, 2, 2), value=0.0)\n","        (_bn1): BatchNorm3d(672, eps=0.001, momentum=0.01, affine=True, track_running_stats=True)\n","        (_se_adaptpool): AdaptiveAvgPool3d(output_size=1)\n","        (_se_reduce): Conv3d(672, 28, kernel_size=(1, 1, 1), stride=(1, 1, 1))\n","        (_se_reduce_padding): Identity()\n","        (_se_expand): Conv3d(28, 672, kernel_size=(1, 1, 1), stride=(1, 1, 1))\n","        (_se_expand_padding): Identity()\n","        (_project_conv): Conv3d(672, 112, kernel_size=(1, 1, 1), stride=(1, 1, 1), bias=False)\n","        (_project_conv_padding): Identity()\n","        (_bn2): BatchNorm3d(112, eps=0.001, momentum=0.01, affine=True, track_running_stats=True)\n","        (_swish): MemoryEfficientSwish()\n","      )\n","      (14): MBConvBlock(\n","        (_expand_conv): Conv3d(112, 672, kernel_size=(1, 1, 1), stride=(1, 1, 1), bias=False)\n","        (_expand_conv_padding): Identity()\n","        (_bn0): BatchNorm3d(672, eps=0.001, momentum=0.01, affine=True, track_running_stats=True)\n","        (_depthwise_conv): Conv3d(672, 672, kernel_size=(5, 5, 5), stride=(1, 1, 1), groups=672, bias=False)\n","        (_depthwise_conv_padding): ConstantPad3d(padding=(2, 2, 2, 2, 2, 2), value=0.0)\n","        (_bn1): BatchNorm3d(672, eps=0.001, momentum=0.01, affine=True, track_running_stats=True)\n","        (_se_adaptpool): AdaptiveAvgPool3d(output_size=1)\n","        (_se_reduce): Conv3d(672, 28, kernel_size=(1, 1, 1), stride=(1, 1, 1))\n","        (_se_reduce_padding): Identity()\n","        (_se_expand): Conv3d(28, 672, kernel_size=(1, 1, 1), stride=(1, 1, 1))\n","        (_se_expand_padding): Identity()\n","        (_project_conv): Conv3d(672, 112, kernel_size=(1, 1, 1), stride=(1, 1, 1), bias=False)\n","        (_project_conv_padding): Identity()\n","        (_bn2): BatchNorm3d(112, eps=0.001, momentum=0.01, affine=True, track_running_stats=True)\n","        (_swish): MemoryEfficientSwish()\n","      )\n","      (15): MBConvBlock(\n","        (_expand_conv): Conv3d(112, 672, kernel_size=(1, 1, 1), stride=(1, 1, 1), bias=False)\n","        (_expand_conv_padding): Identity()\n","        (_bn0): BatchNorm3d(672, eps=0.001, momentum=0.01, affine=True, track_running_stats=True)\n","        (_depthwise_conv): Conv3d(672, 672, kernel_size=(5, 5, 5), stride=(1, 1, 1), groups=672, bias=False)\n","        (_depthwise_conv_padding): ConstantPad3d(padding=(2, 2, 2, 2, 2, 2), value=0.0)\n","        (_bn1): BatchNorm3d(672, eps=0.001, momentum=0.01, affine=True, track_running_stats=True)\n","        (_se_adaptpool): AdaptiveAvgPool3d(output_size=1)\n","        (_se_reduce): Conv3d(672, 28, kernel_size=(1, 1, 1), stride=(1, 1, 1))\n","        (_se_reduce_padding): Identity()\n","        (_se_expand): Conv3d(28, 672, kernel_size=(1, 1, 1), stride=(1, 1, 1))\n","        (_se_expand_padding): Identity()\n","        (_project_conv): Conv3d(672, 112, kernel_size=(1, 1, 1), stride=(1, 1, 1), bias=False)\n","        (_project_conv_padding): Identity()\n","        (_bn2): BatchNorm3d(112, eps=0.001, momentum=0.01, affine=True, track_running_stats=True)\n","        (_swish): MemoryEfficientSwish()\n","      )\n","    )\n","    (5): Sequential(\n","      (16): MBConvBlock(\n","        (_expand_conv): Conv3d(112, 672, kernel_size=(1, 1, 1), stride=(1, 1, 1), bias=False)\n","        (_expand_conv_padding): Identity()\n","        (_bn0): BatchNorm3d(672, eps=0.001, momentum=0.01, affine=True, track_running_stats=True)\n","        (_depthwise_conv): Conv3d(672, 672, kernel_size=(5, 5, 5), stride=(2, 2, 2), groups=672, bias=False)\n","        (_depthwise_conv_padding): ConstantPad3d(padding=(2, 2, 2, 2, 2, 2), value=0.0)\n","        (_bn1): BatchNorm3d(672, eps=0.001, momentum=0.01, affine=True, track_running_stats=True)\n","        (_se_adaptpool): AdaptiveAvgPool3d(output_size=1)\n","        (_se_reduce): Conv3d(672, 28, kernel_size=(1, 1, 1), stride=(1, 1, 1))\n","        (_se_reduce_padding): Identity()\n","        (_se_expand): Conv3d(28, 672, kernel_size=(1, 1, 1), stride=(1, 1, 1))\n","        (_se_expand_padding): Identity()\n","        (_project_conv): Conv3d(672, 192, kernel_size=(1, 1, 1), stride=(1, 1, 1), bias=False)\n","        (_project_conv_padding): Identity()\n","        (_bn2): BatchNorm3d(192, eps=0.001, momentum=0.01, affine=True, track_running_stats=True)\n","        (_swish): MemoryEfficientSwish()\n","      )\n","      (17): MBConvBlock(\n","        (_expand_conv): Conv3d(192, 1152, kernel_size=(1, 1, 1), stride=(1, 1, 1), bias=False)\n","        (_expand_conv_padding): Identity()\n","        (_bn0): BatchNorm3d(1152, eps=0.001, momentum=0.01, affine=True, track_running_stats=True)\n","        (_depthwise_conv): Conv3d(1152, 1152, kernel_size=(5, 5, 5), stride=(1, 1, 1), groups=1152, bias=False)\n","        (_depthwise_conv_padding): ConstantPad3d(padding=(2, 2, 2, 2, 2, 2), value=0.0)\n","        (_bn1): BatchNorm3d(1152, eps=0.001, momentum=0.01, affine=True, track_running_stats=True)\n","        (_se_adaptpool): AdaptiveAvgPool3d(output_size=1)\n","        (_se_reduce): Conv3d(1152, 48, kernel_size=(1, 1, 1), stride=(1, 1, 1))\n","        (_se_reduce_padding): Identity()\n","        (_se_expand): Conv3d(48, 1152, kernel_size=(1, 1, 1), stride=(1, 1, 1))\n","        (_se_expand_padding): Identity()\n","        (_project_conv): Conv3d(1152, 192, kernel_size=(1, 1, 1), stride=(1, 1, 1), bias=False)\n","        (_project_conv_padding): Identity()\n","        (_bn2): BatchNorm3d(192, eps=0.001, momentum=0.01, affine=True, track_running_stats=True)\n","        (_swish): MemoryEfficientSwish()\n","      )\n","      (18): MBConvBlock(\n","        (_expand_conv): Conv3d(192, 1152, kernel_size=(1, 1, 1), stride=(1, 1, 1), bias=False)\n","        (_expand_conv_padding): Identity()\n","        (_bn0): BatchNorm3d(1152, eps=0.001, momentum=0.01, affine=True, track_running_stats=True)\n","        (_depthwise_conv): Conv3d(1152, 1152, kernel_size=(5, 5, 5), stride=(1, 1, 1), groups=1152, bias=False)\n","        (_depthwise_conv_padding): ConstantPad3d(padding=(2, 2, 2, 2, 2, 2), value=0.0)\n","        (_bn1): BatchNorm3d(1152, eps=0.001, momentum=0.01, affine=True, track_running_stats=True)\n","        (_se_adaptpool): AdaptiveAvgPool3d(output_size=1)\n","        (_se_reduce): Conv3d(1152, 48, kernel_size=(1, 1, 1), stride=(1, 1, 1))\n","        (_se_reduce_padding): Identity()\n","        (_se_expand): Conv3d(48, 1152, kernel_size=(1, 1, 1), stride=(1, 1, 1))\n","        (_se_expand_padding): Identity()\n","        (_project_conv): Conv3d(1152, 192, kernel_size=(1, 1, 1), stride=(1, 1, 1), bias=False)\n","        (_project_conv_padding): Identity()\n","        (_bn2): BatchNorm3d(192, eps=0.001, momentum=0.01, affine=True, track_running_stats=True)\n","        (_swish): MemoryEfficientSwish()\n","      )\n","      (19): MBConvBlock(\n","        (_expand_conv): Conv3d(192, 1152, kernel_size=(1, 1, 1), stride=(1, 1, 1), bias=False)\n","        (_expand_conv_padding): Identity()\n","        (_bn0): BatchNorm3d(1152, eps=0.001, momentum=0.01, affine=True, track_running_stats=True)\n","        (_depthwise_conv): Conv3d(1152, 1152, kernel_size=(5, 5, 5), stride=(1, 1, 1), groups=1152, bias=False)\n","        (_depthwise_conv_padding): ConstantPad3d(padding=(2, 2, 2, 2, 2, 2), value=0.0)\n","        (_bn1): BatchNorm3d(1152, eps=0.001, momentum=0.01, affine=True, track_running_stats=True)\n","        (_se_adaptpool): AdaptiveAvgPool3d(output_size=1)\n","        (_se_reduce): Conv3d(1152, 48, kernel_size=(1, 1, 1), stride=(1, 1, 1))\n","        (_se_reduce_padding): Identity()\n","        (_se_expand): Conv3d(48, 1152, kernel_size=(1, 1, 1), stride=(1, 1, 1))\n","        (_se_expand_padding): Identity()\n","        (_project_conv): Conv3d(1152, 192, kernel_size=(1, 1, 1), stride=(1, 1, 1), bias=False)\n","        (_project_conv_padding): Identity()\n","        (_bn2): BatchNorm3d(192, eps=0.001, momentum=0.01, affine=True, track_running_stats=True)\n","        (_swish): MemoryEfficientSwish()\n","      )\n","      (20): MBConvBlock(\n","        (_expand_conv): Conv3d(192, 1152, kernel_size=(1, 1, 1), stride=(1, 1, 1), bias=False)\n","        (_expand_conv_padding): Identity()\n","        (_bn0): BatchNorm3d(1152, eps=0.001, momentum=0.01, affine=True, track_running_stats=True)\n","        (_depthwise_conv): Conv3d(1152, 1152, kernel_size=(5, 5, 5), stride=(1, 1, 1), groups=1152, bias=False)\n","        (_depthwise_conv_padding): ConstantPad3d(padding=(2, 2, 2, 2, 2, 2), value=0.0)\n","        (_bn1): BatchNorm3d(1152, eps=0.001, momentum=0.01, affine=True, track_running_stats=True)\n","        (_se_adaptpool): AdaptiveAvgPool3d(output_size=1)\n","        (_se_reduce): Conv3d(1152, 48, kernel_size=(1, 1, 1), stride=(1, 1, 1))\n","        (_se_reduce_padding): Identity()\n","        (_se_expand): Conv3d(48, 1152, kernel_size=(1, 1, 1), stride=(1, 1, 1))\n","        (_se_expand_padding): Identity()\n","        (_project_conv): Conv3d(1152, 192, kernel_size=(1, 1, 1), stride=(1, 1, 1), bias=False)\n","        (_project_conv_padding): Identity()\n","        (_bn2): BatchNorm3d(192, eps=0.001, momentum=0.01, affine=True, track_running_stats=True)\n","        (_swish): MemoryEfficientSwish()\n","      )\n","    )\n","    (6): Sequential(\n","      (21): MBConvBlock(\n","        (_expand_conv): Conv3d(192, 1152, kernel_size=(1, 1, 1), stride=(1, 1, 1), bias=False)\n","        (_expand_conv_padding): Identity()\n","        (_bn0): BatchNorm3d(1152, eps=0.001, momentum=0.01, affine=True, track_running_stats=True)\n","        (_depthwise_conv): Conv3d(1152, 1152, kernel_size=(3, 3, 3), stride=(1, 1, 1), groups=1152, bias=False)\n","        (_depthwise_conv_padding): ConstantPad3d(padding=(1, 1, 1, 1, 1, 1), value=0.0)\n","        (_bn1): BatchNorm3d(1152, eps=0.001, momentum=0.01, affine=True, track_running_stats=True)\n","        (_se_adaptpool): AdaptiveAvgPool3d(output_size=1)\n","        (_se_reduce): Conv3d(1152, 48, kernel_size=(1, 1, 1), stride=(1, 1, 1))\n","        (_se_reduce_padding): Identity()\n","        (_se_expand): Conv3d(48, 1152, kernel_size=(1, 1, 1), stride=(1, 1, 1))\n","        (_se_expand_padding): Identity()\n","        (_project_conv): Conv3d(1152, 320, kernel_size=(1, 1, 1), stride=(1, 1, 1), bias=False)\n","        (_project_conv_padding): Identity()\n","        (_bn2): BatchNorm3d(320, eps=0.001, momentum=0.01, affine=True, track_running_stats=True)\n","        (_swish): MemoryEfficientSwish()\n","      )\n","      (22): MBConvBlock(\n","        (_expand_conv): Conv3d(320, 1920, kernel_size=(1, 1, 1), stride=(1, 1, 1), bias=False)\n","        (_expand_conv_padding): Identity()\n","        (_bn0): BatchNorm3d(1920, eps=0.001, momentum=0.01, affine=True, track_running_stats=True)\n","        (_depthwise_conv): Conv3d(1920, 1920, kernel_size=(3, 3, 3), stride=(1, 1, 1), groups=1920, bias=False)\n","        (_depthwise_conv_padding): ConstantPad3d(padding=(1, 1, 1, 1, 1, 1), value=0.0)\n","        (_bn1): BatchNorm3d(1920, eps=0.001, momentum=0.01, affine=True, track_running_stats=True)\n","        (_se_adaptpool): AdaptiveAvgPool3d(output_size=1)\n","        (_se_reduce): Conv3d(1920, 80, kernel_size=(1, 1, 1), stride=(1, 1, 1))\n","        (_se_reduce_padding): Identity()\n","        (_se_expand): Conv3d(80, 1920, kernel_size=(1, 1, 1), stride=(1, 1, 1))\n","        (_se_expand_padding): Identity()\n","        (_project_conv): Conv3d(1920, 320, kernel_size=(1, 1, 1), stride=(1, 1, 1), bias=False)\n","        (_project_conv_padding): Identity()\n","        (_bn2): BatchNorm3d(320, eps=0.001, momentum=0.01, affine=True, track_running_stats=True)\n","        (_swish): MemoryEfficientSwish()\n","      )\n","    )\n","  )\n","  (_conv_head): Conv3d(320, 1280, kernel_size=(1, 1, 1), stride=(1, 1, 1), bias=False)\n","  (_conv_head_padding): Identity()\n","  (_bn1): BatchNorm3d(1280, eps=0.001, momentum=0.01, affine=True, track_running_stats=True)\n","  (_avg_pooling): AdaptiveAvgPool3d(output_size=1)\n","  (_dropout): Dropout(p=0.2, inplace=False)\n","  (_fc): Linear(in_features=1280, out_features=2, bias=True)\n","  (_swish): MemoryEfficientSwish()\n",")>\n"]}],"source":["print(model.parameters)"]},{"cell_type":"code","execution_count":null,"metadata":{"colab":{"background_save":true,"base_uri":"https://localhost:8080/"},"id":"Ve31g7LaVSGl","outputId":"6b46e36f-3c17-4f1e-e21b-402d57d8337b"},"outputs":[{"name":"stdout","output_type":"stream","text":["---------
…
  |\n","|  GPU   GI   CI        PID   Type   Process name                  GPU Memory |\n","|        ID   ID                                                   Usage      |\n","|=============================================================================|\n","+-----------------------------------------------------------------------------+\n"]}],"source":["!nvidia-smi "]},{"cell_type":"code","execution_count":null,"metadata":{"colab":{"background_save":true},"id":"pn5KWnRv7nhh","outputId":"3afa2515-cd48-4ffb-9db1-5d5f85fa5098"},"outputs":[{"data":{"text/plain":["EfficientNetBN(\n","  (_conv_stem): Conv3d(1, 32, kernel_size=(3, 3, 3), stride=(2, 2, 2), bias=False)\n","  (_conv_stem_padding): ConstantPad3d(padding=(0, 1, 0, 1, 0, 1), value=0.0)\n","  (_bn0): BatchNorm3d(32, eps=0.001, momentum=0.01, affine=True, track_running_stats=True)\n","  (_blocks): Sequential(\n","    (0): Sequential(\n","      (0): MBConvBlock(\n","        (_expand_conv): Identity()\n","        (_expand_conv_padding): Identity()\n","        (_bn0): Identity()\n","        (_depthwise_conv): Conv3d(32, 32, kernel_size=(3, 3, 3), stride=(1, 1, 1), groups=32, bias=False)\n","        (_depthwise_conv_padding): ConstantPad3d(padding=(1, 1, 1, 1, 1, 1), value=0.0)\n","        (_bn1): BatchNorm3d(32, eps=0.001, momentum=0.01, affine=True, track_running_stats=True)\n","        (_se_adaptpool): AdaptiveAvgPool3d(output_size=1)\n","        (_se_reduce): Conv3d(32, 8, kernel_size=(1, 1, 1), stride=(1, 1, 1))\n","        (_se_reduce_padding): Identity()\n","        (_se_expand): Conv3d(8, 32, kernel_size=(1, 1, 1), stride=(1, 1, 1))\n","        (_se_expand_padding): Identity()\n","        (_project_conv): Conv3d(32, 16, kernel_size=(1, 1, 1), stride=(1, 1, 1), bias=False)\n","        (_project_conv_padding): Identity()\n","        (_bn2): BatchNorm3d(16, eps=0.001, momentum=0.01, affine=True, track_running_stats=True)\n","        (_swish): MemoryEfficientSwish()\n","      )\n","      (1): MBConvBlock(\n","        (_expand_conv): Identity()\n","        (_expand_conv_padding): Identity()\n","        (_bn0): Identity()\n","        (_depthwise_conv): Conv3d(16, 16, kernel_size=(3, 3, 3), stride=(1, 1, 1), groups=16, bias=False)\n","        (_depthwise_conv_padding): ConstantPad3d(padding=(1, 1, 1, 1, 1, 1), value=0.0)\n","        (_bn1): BatchNorm3d(16, eps=0.001, momentum=0.01, affine=True, track_running_stats=True)\n","        (_se_adaptpool): AdaptiveAvgPool3d(output_size=1)\n","        (_se_reduce): Conv3d(16, 4, kernel_size=(1, 1, 1), stride=(1, 1, 1))\n","        (_se_reduce_padding): Identity()\n","        (_se_expand): Conv3d(4, 16, kernel_size=(1, 1, 1), stride=(1, 1, 1))\n","        (_se_expand_padding): Identity()\n","        (_project_conv): Conv3d(16, 16, kernel_size=(1, 1, 1), stride=(1, 1, 1), bias=False)\n","        (_project_conv_padding): Identity()\n","        (_bn2): BatchNorm3d(16, eps=0.001, momentum=0.01, affine=True, track_running_stats=True)\n","        (_swish): MemoryEfficientSwish()\n","      )\n","    )\n","    (1): Sequential(\n","      (2): MBConvBlock(\n","        (_expand_conv): Conv3d(16, 96, kernel_size=(1, 1, 1), stride=(1, 1, 1), bias=False)\n","        (_expand_conv_padding): Identity()\n","        (_bn0): BatchNorm3d(96, eps=0.001, momentum=0.01, affine=True, track_running_stats=True)\n","        (_depthwise_conv): Conv3d(96, 96, kernel_size=(3, 3, 3), stride=(2, 2, 2), groups=96, bias=False)\n","        (_depthwise_conv_padding): ConstantPad3d(padding=(0, 1, 0, 1, 0, 1), value=0.0)\n","        (_bn1): BatchNorm3d(96, eps=0.001, momentum=0.01, affine=True, track_running_stats=True)\n","        (_se_adaptpool): AdaptiveAvgPool3d(output_size=1)\n","        (_se_reduce): Conv3d(96, 4, kernel_size=(1, 1, 1), stride=(1, 1, 1))\n","        (_se_reduce_padding): Identity()\n","        (_se_expand): Conv3d(4, 96, kernel_size=(1, 1, 1), stride=(1, 1, 1))\n","        (_se_expand_padding): Identity()\n","        (_project_conv): Conv3d(96, 24, kernel_size=(1, 1, 1), stride=(1, 1, 1), bias=False)\n","        (_project_conv_padding): Identity()\n","        (_bn2): BatchNorm3d(24, eps=0.001, momentum=0.01, affine=True, track_running_stats=True)\n","        (_swish): MemoryEfficientSwish()\n","      )\n","      (3): MBConvBlock(\n","        (_expand_conv): Conv3d(24, 144, kernel_size=(1, 1, 1), stride=(1, 1, 1), bias=False)\n","        (_expand_conv_padding): Identity()\n","        (_bn0): BatchNorm3d(144, eps=0.001, momentum=0.01, affine=True, track_running_stats=True)\n","        (_depthwise_conv): Conv3d(144, 144, kernel_size=(3, 3, 3), stride=(1, 1, 1), groups=144, bias=False)\n","        (_depthwise_conv_padding): ConstantPad3d(padding=(1, 1, 1, 1, 1, 1), value=0.0)\n","        (_bn1): BatchNorm3d(144, eps=0.001, momentum=0.01, affine=True, track_running_stats=True)\n","        (_se_adaptpool): AdaptiveAvgPool3d(output_size=1)\n","        (_se_reduce): Conv3d(144, 6, kernel_size=(1, 1, 1), stride=(1, 1, 1))\n","        (_se_reduce_padding): Identity()\n","        (_se_expand): Conv3d(6, 144, kernel_size=(1, 1, 1), stride=(1, 1, 1))\n","        (_se_expand_padding): Identity()\n","        (_project_conv): Conv3d(144, 24, kernel_size=(1, 1, 1), stride=(1, 1, 1), bias=False)\n","        (_project_conv_padding): Identity()\n","        (_bn2): BatchNorm3d(24, eps=0.001, momentum=0.01, affine=True, track_running_stats=True)\n","        (_swish): MemoryEfficientSwish()\n","      )\n","      (4): MBConvBlock(\n","        (_expand_conv): Conv3d(24, 144, kernel_size=(1, 1, 1), stride=(1, 1, 1), bias=False)\n","        (_expand_conv_padding): Identity()\n","        (_bn0): BatchNorm3d(144, eps=0.001, momentum=0.01, affine=True, track_running_stats=True)\n","        (_depthwise_conv): Conv3d(144, 144, kernel_size=(3, 3, 3), stride=(1, 1, 1), groups=144, bias=False)\n","        (_depthwise_conv_padding): ConstantPad3d(padding=(1, 1, 1, 1, 1, 1), value=0.0)\n","        (_bn1): BatchNorm3d(144, eps=0.001, momentum=0.01, affine=True, track_running_stats=True)\n","        (_se_adaptpool): AdaptiveAvgPool3d(output_size=1)\n","        (_se_reduce): Conv3d(144, 6, kernel_size=(1, 1, 1), stride=(1, 1, 1))\n","        (_se_reduce_padding): Identity()\n","        (_se_expand): Conv3d(6, 144, kernel_size=(1, 1, 1), stride=(1, 1, 1))\n","        (_se_expand_padding): Identity()\n","        (_project_conv): Conv3d(144, 24, kernel_size=(1, 1, 1), stride=(1, 1, 1), bias=False)\n","        (_project_conv_padding): Identity()\n","        (_bn2): BatchNorm3d(24, eps=0.001, momentum=0.01, affine=True, track_running_stats=True)\n","        (_swish): MemoryEfficientSwish()\n","      )\n","    )\n","    (2): Sequential(\n","      (5): MBConvBlock(\n","        (_expand_conv): Conv3d(24, 144, kernel_size=(1, 1, 1), stride=(1, 1, 1), bias=False)\n","        (_expand_conv_padding): Identity()\n","        (_bn0): BatchNorm3d(144, eps=0.001, momentum=0.01, affine=True, track_running_stats=True)\n","        (_depthwise_conv): Conv3d(144, 144, kernel_size=(5, 5, 5), stride=(2, 2, 2), groups=144, bias=False)\n","        (_depthwise_conv_padding): ConstantPad3d(padding=(1, 2, 1, 2, 1, 2), value=0.0)\n","        (_bn1): BatchNorm3d(144, eps=0.001, momentum=0.01, affine=True, track_running_stats=True)\n","        (_se_adaptpool): AdaptiveAvgPool3d(output_size=1)\n","        (_se_reduce): Conv3d(144, 6, kernel_size=(1, 1, 1), stride=(1, 1, 1))\n","        (_se_reduce_padding): Identity()\n","        (_se_expand): Conv3d(6, 144, kernel_size=(1, 1, 1), stride=(1, 1, 1))\n","        (_se_expand_padding): Identity()\n","        (_project_conv): Conv3d(144, 40, kernel_size=(1, 1, 1), stride=(1, 1, 1), bias=False)\n","        (_project_conv_padding): Identity()\n","        (_bn2): BatchNorm3d(40, eps=0.001, momentum=0.01, affine=True, track_running_stats=True)\n","        (_swish): MemoryEfficientSwish()\n","      )\n","      (6): MBConvBlock(\n","        (_expand_conv): Conv3d(40, 240, kernel_size=(1, 1, 1), stride=(1, 1, 1), bias=False)\n","        (_expand_conv_padding): Identity()\n","        (_bn0): BatchNorm3d(240, eps=0.001, momentum=0.01, affine=True, track_running_stats=True)\n","        (_depthwise_conv): Conv3d(240, 240, kernel_size=(5, 5, 5), stride=(1, 1, 1), groups=240, bias=False)\n","        (_depthwise_conv_padding): ConstantPad3d(padding=(2, 2, 2, 2, 2, 2), value=0.0)\n","        (_bn1): BatchNorm3d(240, eps=0.001, momentum=0.01, affine=True, track_running_stats=True)\n","        (_se_adaptpool): AdaptiveAvgPool3d(output_size=1)\n","        (_se_reduce): Conv3d(240, 10, kernel_size=(1, 1, 1), stride=(1, 1, 1))\n","        (_se_reduce_padding): Identity()\n","        (_se_expand): Conv3d(10, 240, kernel_size=(1, 1, 1), stride=(1, 1, 1))\n","        (_se_expand_padding): Identity()\n","        (_project_conv): Conv3d(240, 40, kernel_size=(1, 1, 1), stride=(1, 1, 1), bias=False)\n","        (_project_conv_padding): Identity()\n","        (_bn2): BatchNorm3d(40, eps=0.001, momentum=0.01, affine=True, track_running_stats=True)\n","        (_swish): MemoryEfficientSwish()\n","      )\n","      (7): MBConvBlock(\n","        (_expand_conv): Conv3d(40, 240, kernel_size=(1, 1, 1), stride=(1, 1, 1), bias=False)\n","        (_expand_conv_padding): Identity()\n","        (_bn0): BatchNorm3d(240, eps=0.001, momentum=0.01, affine=True, track_running_stats=True)\n","        (_depthwise_conv): Conv3d(240, 240, kernel_size=(5, 5, 5), stride=(1, 1, 1), groups=240, bias=False)\n","        (_depthwise_conv_padding): ConstantPad3d(padding=(2, 2, 2, 2, 2, 2), value=0.0)\n","        (_bn1): BatchNorm3d(240, eps=0.001, momentum=0.01, affine=True, track_running_stats=True)\n","        (_se_adaptpool): AdaptiveAvgPool3d(output_size=1)\n","        (_se_reduce): Conv3d(240, 10, kernel_size=(1, 1, 1), stride=(1, 1, 1))\n","        (_se_reduce_padding): Identity()\n","        (_se_expand): Conv3d(10, 240, kernel_size=(1, 1, 1), stride=(1, 1, 1))\n","        (_se_expand_padding): Identity()\n","        (_project_conv): Conv3d(240, 40, kernel_size=(1, 1, 1), stride=(1, 1, 1), bias=False)\n","        (_project_conv_padding): Identity()\n","        (_bn2): BatchNorm3d(40, eps=0.001, momentum=0.01, affine=True, track_running_stats=True)\n","        (_swish): MemoryEfficientSwish()\n","      )\n","    )\n","    (3): Sequential(\n","      (8): MBConvBlock(\n","        (_expand_conv): Conv3d(40, 240, kernel_size=(1, 1, 1), stride=(1, 1, 1), bias=False)\n","        (_expand_conv_padding): Identity()\n","        (_bn0): BatchNorm3d(240, eps=0.001, momentum=0.01, affine=True, track_running_stats=True)\n","        (_depthwise_conv): Conv3d(240, 240, kernel_size=(3, 3, 3), stride=(2, 2, 2), groups=240, bias=False)\n","        (_depthwise_conv_padding): ConstantPad3d(padding=(0, 1, 0, 1, 0, 1), value=0.0)\n","        (_bn1): BatchNorm3d(240, eps=0.001, momentum=0.01, affine=True, track_running_stats=True)\n","        (_se_adaptpool): AdaptiveAvgPool3d(output_size=1)\n","        (_se_reduce): Conv3d(240, 10, kernel_size=(1, 1, 1), stride=(1, 1, 1))\n","        (_se_reduce_padding): Identity()\n","        (_se_expand): Conv3d(10, 240, kernel_size=(1, 1, 1), stride=(1, 1, 1))\n","        (_se_expand_padding): Identity()\n","        (_project_conv): Conv3d(240, 80, kernel_size=(1, 1, 1), stride=(1, 1, 1), bias=False)\n","        (_project_conv_padding): Identity()\n","        (_bn2): BatchNorm3d(80, eps=0.001, momentum=0.01, affine=True, track_running_stats=True)\n","        (_swish): MemoryEfficientSwish()\n","      )\n","      (9): MBConvBlock(\n","        (_expand_conv): Conv3d(80, 480, kernel_size=(1, 1, 1), stride=(1, 1, 1), bias=False)\n","        (_expand_conv_padding): Identity()\n","        (_bn0): BatchNorm3d(480, eps=0.001, momentum=0.01, affine=True, track_running_stats=True)\n","        (_depthwise_conv): Conv3d(480, 480, kernel_size=(3, 3, 3), stride=(1, 1, 1), groups=480, bias=False)\n","        (_depthwise_conv_padding): ConstantPad3d(padding=(1, 1, 1, 1, 1, 1), value=0.0)\n","        (_bn1): BatchNorm3d(480, eps=0.001, momentum=0.01, affine=True, track_running_stats=True)\n","        (_se_adaptpool): AdaptiveAvgPool3d(output_size=1)\n","        (_se_reduce): Conv3d(480, 20, kernel_size=(1, 1, 1), stride=(1, 1, 1))\n","        (_se_reduce_padding): Identity()\n","        (_se_expand): Conv3d(20, 480, kernel_size=(1, 1, 1), stride=(1, 1, 1))\n","        (_se_expand_padding): Identity()\n","        (_project_conv): Conv3d(480, 80, kernel_size=(1, 1, 1), stride=(1, 1, 1), bias=False)\n","        (_project_conv_padding): Identity()\n","        (_bn2): BatchNorm3d(80, eps=0.001, momentum=0.01, affine=True, track_running_stats=True)\n","        (_swish): MemoryEfficientSwish()\n","      )\n","      (10): MBConvBlock(\n","        (_expand_conv): Conv3d(80, 480, kernel_size=(1, 1, 1), stride=(1, 1, 1), bias=False)\n","        (_expand_conv_padding): Identity()\n","        (_bn0): BatchNorm3d(480, eps=0.001, momentum=0.01, affine=True, track_running_stats=True)\n","        (_depthwise_conv): Conv3d(480, 480, kernel_size=(3, 3, 3), stride=(1, 1, 1), groups=480, bias=False)\n","        (_depthwise_conv_padding): ConstantPad3d(padding=(1, 1, 1, 1, 1, 1), value=0.0)\n","        (_bn1): BatchNorm3d(480, eps=0.001, momentum=0.01, affine=True, track_running_stats=True)\n","        (_se_adaptpool): AdaptiveAvgPool3d(output_size=1)\n","        (_se_reduce): Conv3d(480, 20, kernel_size=(1, 1, 1), stride=(1, 1, 1))\n","        (_se_reduce_padding): Identity()\n","        (_se_expand): Conv3d(20, 480, kernel_size=(1, 1, 1), stride=(1, 1, 1))\n","        (_se_expand_padding): Identity()\n","        (_project_conv): Conv3d(480, 80, kernel_size=(1, 1, 1), stride=(1, 1, 1), bias=False)\n","        (_project_conv_padding): Identity()\n","        (_bn2): BatchNorm3d(80, eps=0.001, momentum=0.01, affine=True, track_running_stats=True)\n","        (_swish): MemoryEfficientSwish()\n","      )\n","      (11): MBConvBlock(\n","        (_expand_conv): Conv3d(80, 480, kernel_size=(1, 1, 1), stride=(1, 1, 1), bias=False)\n","        (_expand_conv_padding): Identity()\n","        (_bn0): BatchNorm3d(480, eps=0.001, momentum=0.01, affine=True, track_running_stats=True)\n","        (_depthwise_conv): Conv3d(480, 480, kernel_size=(3, 3, 3), stride=(1, 1, 1), groups=480, bias=False)\n","        (_depthwise_conv_padding): ConstantPad3d(padding=(1, 1, 1, 1, 1, 1), value=0.0)\n","        (_bn1): BatchNorm3d(480, eps=0.001, momentum=0.01, affine=True, track_running_stats=True)\n","        (_se_adaptpool): AdaptiveAvgPool3d(output_size=1)\n","        (_se_reduce): Conv3d(480, 20, kernel_size=(1, 1, 1), stride=(1, 1, 1))\n","        (_se_reduce_padding): Identity()\n","        (_se_expand): Conv3d(20, 480, kernel_size=(1, 1, 1), stride=(1, 1, 1))\n","        (_se_expand_padding): Identity()\n","        (_project_conv): Conv3d(480, 80, kernel_size=(1, 1, 1), stride=(1, 1, 1), bias=False)\n","        (_project_conv_padding): Identity()\n","        (_bn2): BatchNorm3d(80, eps=0.001, momentum=0.01, affine=True, track_running_stats=True)\n","        (_swish): MemoryEfficientSwish()\n","      )\n","    )\n","    (4): Sequential(\n","      (12): MBConvBlock(\n","        (_expand_conv): Conv3d(80, 480, kernel_size=(1, 1, 1), stride=(1, 1, 1), bias=False)\n","        (_expand_conv_padding): Identity()\n","        (_bn0): BatchNorm3d(480, eps=0.001, momentum=0.01, affine=True, track_running_stats=True)\n","        (_depthwise_conv): Conv3d(480, 480, kernel_size=(5, 5, 5), stride=(1, 1, 1), groups=480, bias=False)\n","        (_depthwise_conv_padding): ConstantPad3d(padding=(2, 2, 2, 2, 2, 2), value=0.0)\n","        (_bn1): BatchNorm3d(480, eps=0.001, momentum=0.01, affine=True, track_running_stats=True)\n","        (_se_adaptpool): AdaptiveAvgPool3d(output_size=1)\n","        (_se_reduce): Conv3d(480, 20, kernel_size=(1, 1, 1), stride=(1, 1, 1))\n","        (_se_reduce_padding): Identity()\n","        (_se_expand): Conv3d(20, 480, kernel_size=(1, 1, 1), stride=(1, 1, 1))\n","        (_se_expand_padding): Identity()\n","        (_project_conv): Conv3d(480, 112, kernel_size=(1, 1, 1), stride=(1, 1, 1), bias=False)\n","        (_project_conv_padding): Identity()\n","        (_bn2): BatchNorm3d(112, eps=0.001, momentum=0.01, affine=True, track_running_stats=True)\n","        (_swish): MemoryEfficientSwish()\n","      )\n","      (13): MBConvBlock(\n","        (_expand_conv): Conv3d(112, 672, kernel_size=(1, 1, 1), stride=(1, 1, 1), bias=False)\n","        (_expand_conv_padding): Identity()\n","        (_bn0): BatchNorm3d(672, eps=0.001, momentum=0.01, affine=True, track_running_stats=True)\n","        (_depthwise_conv): Conv3d(672, 672, kernel_size=(5, 5, 5), stride=(1, 1, 1), groups=672, bias=False)\n","        (_depthwise_conv_padding): ConstantPad3d(padding=(2, 2, 2, 2, 2, 2), value=0.0)\n","        (_bn1): BatchNorm3d(672, eps=0.001, momentum=0.01, affine=True, track_running_stats=True)\n","        (_se_adaptpool): AdaptiveAvgPool3d(output_size=1)\n","        (_se_reduce): Conv3d(672, 28, kernel_size=(1, 1, 1), stride=(1, 1, 1))\n","        (_se_reduce_padding): Identity()\n","        (_se_expand): Conv3d(28, 672, kernel_size=(1, 1, 1), stride=(1, 1, 1))\n","        (_se_expand_padding): Identity()\n","        (_project_conv): Conv3d(672, 112, kernel_size=(1, 1, 1), stride=(1, 1, 1), bias=False)\n","        (_project_conv_padding): Identity()\n","        (_bn2): BatchNorm3d(112, eps=0.001, momentum=0.01, affine=True, track_running_stats=True)\n","        (_swish): MemoryEfficientSwish()\n","      )\n","      (14): MBConvBlock(\n","        (_expand_conv): Conv3d(112, 672, kernel_size=(1, 1, 1), stride=(1, 1, 1), bias=False)\n","        (_expand_conv_padding): Identity()\n","        (_bn0): BatchNorm3d(672, eps=0.001, momentum=0.01, affine=True, track_running_stats=True)\n","        (_depthwise_conv): Conv3d(672, 672, kernel_size=(5, 5, 5), stride=(1, 1, 1), groups=672, bias=False)\n","        (_depthwise_conv_padding): ConstantPad3d(padding=(2, 2, 2, 2, 2, 2), value=0.0)\n","        (_bn1): BatchNorm3d(672, eps=0.001, momentum=0.01, affine=True, track_running_stats=True)\n","        (_se_adaptpool): AdaptiveAvgPool3d(output_size=1)\n","        (_se_reduce): Conv3d(672, 28, kernel_size=(1, 1, 1), stride=(1, 1, 1))\n","        (_se_reduce_padding): Identity()\n","        (_se_expand): Conv3d(28, 672, kernel_size=(1, 1, 1), stride=(1, 1, 1))\n","        (_se_expand_padding): Identity()\n","        (_project_conv): Conv3d(672, 112, kernel_size=(1, 1, 1), stride=(1, 1, 1), bias=False)\n","        (_project_conv_padding): Identity()\n","        (_bn2): BatchNorm3d(112, eps=0.001, momentum=0.01, affine=True, track_running_stats=True)\n","        (_swish): MemoryEfficientSwish()\n","      )\n","      (15): MBConvBlock(\n","        (_expand_conv): Conv3d(112, 672, kernel_size=(1, 1, 1), stride=(1, 1, 1), bias=False)\n","        (_expand_conv_padding): Identity()\n","        (_bn0): BatchNorm3d(672, eps=0.001, momentum=0.01, affine=True, track_running_stats=True)\n","        (_depthwise_conv): Conv3d(672, 672, kernel_size=(5, 5, 5), stride=(1, 1, 1), groups=672, bias=False)\n","        (_depthwise_conv_padding): ConstantPad3d(padding=(2, 2, 2, 2, 2, 2), value=0.0)\n","        (_bn1): BatchNorm3d(672, eps=0.001, momentum=0.01, affine=True, track_running_stats=True)\n","        (_se_adaptpool): AdaptiveAvgPool3d(output_size=1)\n","        (_se_reduce): Conv3d(672, 28, kernel_size=(1, 1, 1), stride=(1, 1, 1))\n","        (_se_reduce_padding): Identity()\n","        (_se_expand): Conv3d(28, 672, kernel_size=(1, 1, 1), stride=(1, 1, 1))\n","        (_se_expand_padding): Identity()\n","        (_project_conv): Conv3d(672, 112, kernel_size=(1, 1, 1), stride=(1, 1, 1), bias=False)\n","        (_project_conv_padding): Identity()\n","        (_bn2): BatchNorm3d(112, eps=0.001, momentum=0.01, affine=True, track_running_stats=True)\n","        (_swish): MemoryEfficientSwish()\n","      )\n","    )\n","    (5): Sequential(\n","      (16): MBConvBlock(\n","        (_expand_conv): Conv3d(112, 672, kernel_size=(1, 1, 1), stride=(1, 1, 1), bias=False)\n","        (_expand_conv_padding): Identity()\n","        (_bn0): BatchNorm3d(672, eps=0.001, momentum=0.01, affine=True, track_running_stats=True)\n","        (_depthwise_conv): Conv3d(672, 672, kernel_size=(5, 5, 5), stride=(2, 2, 2), groups=672, bias=False)\n","        (_depthwise_conv_padding): ConstantPad3d(padding=(2, 2, 2, 2, 2, 2), value=0.0)\n","        (_bn1): BatchNorm3d(672, eps=0.001, momentum=0.01, affine=True, track_running_stats=True)\n","        (_se_adaptpool): AdaptiveAvgPool3d(output_size=1)\n","        (_se_reduce): Conv3d(672, 28, kernel_size=(1, 1, 1), stride=(1, 1, 1))\n","        (_se_reduce_padding): Identity()\n","        (_se_expand): Conv3d(28, 672, kernel_size=(1, 1, 1), stride=(1, 1, 1))\n","        (_se_expand_padding): Identity()\n","        (_project_conv): Conv3d(672, 192, kernel_size=(1, 1, 1), stride=(1, 1, 1), bias=False)\n","        (_project_conv_padding): Identity()\n","        (_bn2): BatchNorm3d(192, eps=0.001, momentum=0.01, affine=True, track_running_stats=True)\n","        (_swish): MemoryEfficientSwish()\n","      )\n","      (17): MBConvBlock(\n","        (_expand_conv): Conv3d(192, 1152, kernel_size=(1, 1, 1), stride=(1, 1, 1), bias=False)\n","        (_expand_conv_padding): Identity()\n","        (_bn0): BatchNorm3d(1152, eps=0.001, momentum=0.01, affine=True, track_running_stats=True)\n","        (_depthwise_conv): Conv3d(1152, 1152, kernel_size=(5, 5, 5), stride=(1, 1, 1), groups=1152, bias=False)\n","        (_depthwise_conv_padding): ConstantPad3d(padding=(2, 2, 2, 2, 2, 2), value=0.0)\n","        (_bn1): BatchNorm3d(1152, eps=0.001, momentum=0.01, affine=True, track_running_stats=True)\n","        (_se_adaptpool): AdaptiveAvgPool3d(output_size=1)\n","        (_se_reduce): Conv3d(1152, 48, kernel_size=(1, 1, 1), stride=(1, 1, 1))\n","        (_se_reduce_padding): Identity()\n","        (_se_expand): Conv3d(48, 1152, kernel_size=(1, 1, 1), stride=(1, 1, 1))\n","        (_se_expand_padding): Identity()\n","        (_project_conv): Conv3d(1152, 192, kernel_size=(1, 1, 1), stride=(1, 1, 1), bias=False)\n","        (_project_conv_padding): Identity()\n","        (_bn2): BatchNorm3d(192, eps=0.001, momentum=0.01, affine=True, track_running_stats=True)\n","        (_swish): MemoryEfficientSwish()\n","      )\n","      (18): MBConvBlock(\n","        (_expand_conv): Conv3d(192, 1152, kernel_size=(1, 1, 1), stride=(1, 1, 1), bias=False)\n","        (_expand_conv_padding): Identity()\n","        (_bn0): BatchNorm3d(1152, eps=0.001, momentum=0.01, affine=True, track_running_stats=True)\n","        (_depthwise_conv): Conv3d(1152, 1152, kernel_size=(5, 5, 5), stride=(1, 1, 1), groups=1152, bias=False)\n","        (_depthwise_conv_padding): ConstantPad3d(padding=(2, 2, 2, 2, 2, 2), value=0.0)\n","        (_bn1): BatchNorm3d(1152, eps=0.001, momentum=0.01, affine=True, track_running_stats=True)\n","        (_se_adaptpool): AdaptiveAvgPool3d(output_size=1)\n","        (_se_reduce): Conv3d(1152, 48, kernel_size=(1, 1, 1), stride=(1, 1, 1))\n","        (_se_reduce_padding): Identity()\n","        (_se_expand): Conv3d(48, 1152, kernel_size=(1, 1, 1), stride=(1, 1, 1))\n","        (_se_expand_padding): Identity()\n","        (_project_conv): Conv3d(1152, 192, kernel_size=(1, 1, 1), stride=(1, 1, 1), bias=False)\n","        (_project_conv_padding): Identity()\n","        (_bn2): BatchNorm3d(192, eps=0.001, momentum=0.01, affine=True, track_running_stats=True)\n","        (_swish): MemoryEfficientSwish()\n","      )\n","      (19): MBConvBlock(\n","        (_expand_conv): Conv3d(192, 1152, kernel_size=(1, 1, 1), stride=(1, 1, 1), bias=False)\n","        (_expand_conv_padding): Identity()\n","        (_bn0): BatchNorm3d(1152, eps=0.001, momentum=0.01, affine=True, track_running_stats=True)\n","        (_depthwise_conv): Conv3d(1152, 1152, kernel_size=(5, 5, 5), stride=(1, 1, 1), groups=1152, bias=False)\n","        (_depthwise_conv_padding): ConstantPad3d(padding=(2, 2, 2, 2, 2, 2), value=0.0)\n","        (_bn1): BatchNorm3d(1152, eps=0.001, momentum=0.01, affine=True, track_running_stats=True)\n","        (_se_adaptpool): AdaptiveAvgPool3d(output_size=1)\n","        (_se_reduce): Conv3d(1152, 48, kernel_size=(1, 1, 1), stride=(1, 1, 1))\n","        (_se_reduce_padding): Identity()\n","        (_se_expand): Conv3d(48, 1152, kernel_size=(1, 1, 1), stride=(1, 1, 1))\n","        (_se_expand_padding): Identity()\n","        (_project_conv): Conv3d(1152, 192, kernel_size=(1, 1, 1), stride=(1, 1, 1), bias=False)\n","        (_project_conv_padding): Identity()\n","        (_bn2): BatchNorm3d(192, eps=0.001, momentum=0.01, affine=True, track_running_stats=True)\n","        (_swish): MemoryEfficientSwish()\n","      )\n","      (20): MBConvBlock(\n","        (_expand_conv): Conv3d(192, 1152, kernel_size=(1, 1, 1), stride=(1, 1, 1), bias=False)\n","        (_expand_conv_padding): Identity()\n","        (_bn0): BatchNorm3d(1152, eps=0.001, momentum=0.01, affine=True, track_running_stats=True)\n","        (_depthwise_conv): Conv3d(1152, 1152, kernel_size=(5, 5, 5), stride=(1, 1, 1), groups=1152, bias=False)\n","        (_depthwise_conv_padding): ConstantPad3d(padding=(2, 2, 2, 2, 2, 2), value=0.0)\n","        (_bn1): BatchNorm3d(1152, eps=0.001, momentum=0.01, affine=True, track_running_stats=True)\n","        (_se_adaptpool): AdaptiveAvgPool3d(output_size=1)\n","        (_se_reduce): Conv3d(1152, 48, kernel_size=(1, 1, 1), stride=(1, 1, 1))\n","        (_se_reduce_padding): Identity()\n","        (_se_expand): Conv3d(48, 1152, kernel_size=(1, 1, 1), stride=(1, 1, 1))\n","        (_se_expand_padding): Identity()\n","        (_project_conv): Conv3d(1152, 192, kernel_size=(1, 1, 1), stride=(1, 1, 1), bias=False)\n","        (_project_conv_padding): Identity()\n","        (_bn2): BatchNorm3d(192, eps=0.001, momentum=0.01, affine=True, track_running_stats=True)\n","        (_swish): MemoryEfficientSwish()\n","      )\n","    )\n","    (6): Sequential(\n","      (21): MBConvBlock(\n","        (_expand_conv): Conv3d(192, 1152, kernel_size=(1, 1, 1), stride=(1, 1, 1), bias=False)\n","        (_expand_conv_padding): Identity()\n","        (_bn0): BatchNorm3d(1152, eps=0.001, momentum=0.01, affine=True, track_running_stats=True)\n","        (_depthwise_conv): Conv3d(1152, 1152, kernel_size=(3, 3, 3), stride=(1, 1, 1), groups=1152, bias=False)\n","        (_depthwise_conv_padding): ConstantPad3d(padding=(1, 1, 1, 1, 1, 1), value=0.0)\n","        (_bn1): BatchNorm3d(1152, eps=0.001, momentum=0.01, affine=True, track_running_stats=True)\n","        (_se_adaptpool): AdaptiveAvgPool3d(output_size=1)\n","        (_se_reduce): Conv3d(1152, 48, kernel_size=(1, 1, 1), stride=(1, 1, 1))\n","        (_se_reduce_padding): Identity()\n","        (_se_expand): Conv3d(48, 1152, kernel_size=(1, 1, 1), stride=(1, 1, 1))\n","        (_se_expand_padding): Identity()\n","        (_project_conv): Conv3d(1152, 320, kernel_size=(1, 1, 1), stride=(1, 1, 1), bias=False)\n","        (_project_conv_padding): Identity()\n","        (_bn2): BatchNorm3d(320, eps=0.001, momentum=0.01, affine=True, track_running_stats=True)\n","        (_swish): MemoryEfficientSwish()\n","      )\n","      (22): MBConvBlock(\n","        (_expand_conv): Conv3d(320, 1920, kernel_size=(1, 1, 1), stride=(1, 1, 1), bias=False)\n","        (_expand_conv_padding): Identity()\n","        (_bn0): BatchNorm3d(1920, eps=0.001, momentum=0.01, affine=True, track_running_stats=True)\n","        (_depthwise_conv): Conv3d(1920, 1920, kernel_size=(3, 3, 3), stride=(1, 1, 1), groups=1920, bias=False)\n","        (_depthwise_conv_padding): ConstantPad3d(padding=(1, 1, 1, 1, 1, 1), value=0.0)\n","        (_bn1): BatchNorm3d(1920, eps=0.001, momentum=0.01, affine=True, track_running_stats=True)\n","        (_se_adaptpool): AdaptiveAvgPool3d(output_size=1)\n","        (_se_reduce): Conv3d(1920, 80, kernel_size=(1, 1, 1), stride=(1, 1, 1))\n","        (_se_reduce_padding): Identity()\n","        (_se_expand): Conv3d(80, 1920, kernel_size=(1, 1, 1), stride=(1, 1, 1))\n","        (_se_expand_padding): Identity()\n","        (_project_conv): Conv3d(1920, 320, kernel_size=(1, 1, 1), stride=(1, 1, 1), bias=False)\n","        (_project_conv_padding): Identity()\n","        (_bn2): BatchNorm3d(320, eps=0.001, momentum=0.01, affine=True, track_running_stats=True)\n","        (_swish): MemoryEfficientSwish()\n","      )\n","    )\n","  )\n","  (_conv_head): Conv3d(320, 1280, kernel_size=(1, 1, 1), stride=(1, 1, 1), bias=False)\n","  (_conv_head_padding): Identity()\n","  (_bn1): BatchNorm3d(1280, eps=0.001, momentum=0.01, affine=True, track_running_stats=True)\n","  (_avg_pooling): AdaptiveAvgPool3d(output_size=1)\n","  (_dropout): Dropout(p=0.2, inplace=False)\n","  (_fc): Linear(in_features=1280, out_features=2, bias=True)\n","  (_swish): MemoryEfficientSwish()\n",")"]},"execution_count":null,"metadata":{},"output_type":"execute_result"}],"source":["model.load_state_dict(torch.load('/content/drive/MyDrive/F4ENB1SMCIvsADbest_metric_model_classification3d_dict.pth'))\n","model.eval()"]},{"cell_type":"code","execution_count":null,"metadata":{"colab":{"background_save":true},
…
