…
_function = torch.nn.CrossEntropyLoss()\n","  optimizer = torch.optim.Adam(model.parameters(), 1e-4)\n","  auc_metric = ROCAUCMetric()"]},{"cell_type":"code","execution_count":21,"metadata":{"colab":{"base_uri":"https://localhost:8080/"},"executionInfo":{"elapsed":832,"status":"ok","timestamp":1650459088172,"user":{"displayName":"Deevyankar Agarwal","userId":"14882055139397387561"},"user_tz":-240},"id":"rfTuqU6DJbqG","outputId":"35f9b267-7dcf-4dd8-d7a3-232f6c54e3a3"},"outputs":[{"output_type":"stream","name":"stdout","text":["<bound method Module.parameters of EfficientNetBN(\n","  (_conv_stem): Conv3d(1, 32, kernel_size=(3, 3, 3), stride=(2, 2, 2), bias=False)\n","  (_conv_stem_padding): ConstantPad3d(padding=(0, 1, 0, 1, 0, 1), value=0.0)\n","  (_bn0): BatchNorm3d(32, eps=0.001, momentum=0.01, affine=True, track_running_stats=True)\n","  (_blocks): Sequential(\n","    (0): Sequential(\n","      (0): MBConvBlock(\n","        (_expand_conv): Identity()\n","        (_expand_conv_padding): Identity()\n","        (_bn0): Identity()\n","        (_depthwise_conv): Conv3d(32, 32, kernel_size=(3, 3, 3), stride=(1, 1, 1), groups=32, bias=False)\n","        (_depthwise_conv_padding): ConstantPad3d(padding=(1, 1, 1, 1, 1, 1), value=0.0)\n","        (_bn1): BatchNorm3d(32, eps=0.001, momentum=0.01, affine=True, track_running_stats=True)\n","        (_se_adaptpool): AdaptiveAvgPool3d(output_size=1)\n","        (_se_reduce): Conv3d(32, 8, kernel_size=(1, 1, 1), stride=(1, 1, 1))\n","        (_se_reduce_padding): Identity()\n","        (_se_expand): Conv3d(8, 32, kernel_size=(1, 1, 1), stride=(1, 1, 1))\n","        (_se_expand_padding): Identity()\n","        (_project_conv): Conv3d(32, 16, kernel_size=(1, 1, 1), stride=(1, 1, 1), bias=False)\n","        (_project_conv_padding): Identity()\n","        (_bn2): BatchNorm3d(16, eps=0.001, momentum=0.01, affine=True, track_running_stats=True)\n","        (_swish): MemoryEfficientSwish()\n","      )\n","      (1): MBConvBlock(\n","        (_expand_conv): Identity()\n","        (_expand_conv_padding): Identity()\n","        (_bn0): Identity()\n","        (_depthwise_conv): Conv3d(16, 16, kernel_size=(3, 3, 3), stride=(1, 1, 1), groups=16, bias=False)\n","        (_depthwise_conv_padding): ConstantPad3d(padding=(1, 1, 1, 1, 1, 1), value=0.0)\n","        (_bn1): BatchNorm3d(16, eps=0.001, momentum=0.01, affine=True, track_running_stats=True)\n","        (_se_adaptpool): AdaptiveAvgPool3d(output_size=1)\n","        (_se_reduce): Conv3d(16, 4, kernel_size=(1, 1, 1), stride=(1, 1, 1))\n","        (_se_reduce_padding): Identity()\n","        (_se_expand): Conv3d(4, 16, kernel_size=(1, 1, 1), stride=(1, 1, 1))\n","        (_se_expand_padding): Identity()\n","        (_project_conv): Conv3d(16, 16, kernel_size=(1, 1, 1), stride=(1, 1, 1), bias=False)\n","        (_project_conv_padding): Identity()\n","        (_bn2): BatchNorm3d(16, eps=0.001, momentum=0.01, affine=True, track_running_stats=True)\n","        (_swish): MemoryEfficientSwish()\n","      )\n","    )\n","    (1): Sequential(\n","      (2): MBConvBlock(\n","        (_expand_conv): Conv3d(16, 96, kernel_size=(1, 1, 1), stride=(1, 1, 1), bias=False)\n","        (_expand_conv_padding): Identity()\n","        (_bn0): BatchNorm3d(96, eps=0.001, momentum=0.01, affine=True, track_running_stats=True)\n","        (_depthwise_conv): Conv3d(96, 96, kernel_size=(3, 3, 3), stride=(2, 2, 2), groups=96, bias=False)\n","        (_depthwise_conv_padding): ConstantPad3d(padding=(0, 1, 0, 1, 0, 1), value=0.0)\n","        (_bn1): BatchNorm3d(96, eps=0.001, momentum=0.01, affine=True, track_running_stats=True)\n","        (_se_adaptpool): AdaptiveAvgPool3d(output_size=1)\n","        (_se_reduce): Conv3d(96, 4, kernel_size=(1, 1, 1), stride=(1, 1, 1))\n","        (_se_reduce_padding): Identity()\n","        (_se_expand): Conv3d(4, 96, kernel_size=(1, 1, 1), stride=(1, 1, 1))\n","        (_se_expand_padding): Identity()\n","        (_project_conv): Conv3d(96, 24, kernel_size=(1, 1, 1), stride=(1, 1, 1), bias=False)\n","        (_project_conv_padding): Identity()\n","        (_bn2): BatchNorm3d(24, eps=0.001, momentum=0.01, affine=True, track_running_stats=True)\n","        (_swish): MemoryEfficientSwish()\n","      )\n","      (3): MBConvBlock(\n","        (_expand_conv): Conv3d(24, 144, kernel_size=(1, 1, 1), stride=(1, 1, 1), bias=False)\n","        (_expand_conv_padding): Identity()\n","        (_bn0): BatchNorm3d(144, eps=0.001, momentum=0.01, affine=True, track_running_stats=True)\n","        (_depthwise_conv): Conv3d(144, 144, kernel_size=(3, 3, 3), stride=(1, 1, 1), groups=144, bias=False)\n","        (_depthwise_conv_padding): ConstantPad3d(padding=(1, 1, 1, 1, 1, 1), value=0.0)\n","        (_bn1): BatchNorm3d(144, eps=0.001, momentum=0.01, affine=True, track_running_stats=True)\n","        (_se_adaptpool): AdaptiveAvgPool3d(output_size=1)\n","        (_se_reduce): Conv3d(144, 6, kernel_size=(1, 1, 1), stride=(1, 1, 1))\n","        (_se_reduce_padding): Identity()\n","        (_se_expand): Conv3d(6, 144, kernel_size=(1, 1, 1), stride=(1, 1, 1))\n","        (_se_expand_padding): Identity()\n","        (_project_conv): Conv3d(144, 24, kernel_size=(1, 1, 1), stride=(1, 1, 1), bias=False)\n","        (_project_conv_padding): Identity()\n","        (_bn2): BatchNorm3d(24, eps=0.001, momentum=0.01, affine=True, track_running_stats=True)\n","        (_swish): MemoryEfficientSwish()\n","      )\n","      (4): MBConvBlock(\n","        (_expand_conv): Conv3d(24, 144, kernel_size=(1, 1, 1), stride=(1, 1, 1), bias=False)\n","        (_expand_conv_padding): Identity()\n","        (_bn0): BatchNorm3d(144, eps=0.001, momentum=0.01, affine=True, track_running_stats=True)\n","        (_depthwise_conv): Conv3d(144, 144, kernel_size=(3, 3, 3), stride=(1, 1, 1), groups=144, bias=False)\n","        (_depthwise_conv_padding): ConstantPad3d(padding=(1, 1, 1, 1, 1, 1), value=0.0)\n","        (_bn1): BatchNorm3d(144, eps=0.001, momentum=0.01, affine=True, track_running_stats=True)\n","        (_se_adaptpool): AdaptiveAvgPool3d(output_size=1)\n","        (_se_reduce): Conv3d(144, 6, kernel_size=(1, 1, 1), stride=(1, 1, 1))\n","        (_se_reduce_padding): Identity()\n","        (_se_expand): Conv3d(6, 144, kernel_size=(1, 1, 1), stride=(1, 1, 1))\n","        (_se_expand_padding): Identity()\n","        (_project_conv): Conv3d(144, 24, kernel_size=(1, 1, 1), stride=(1, 1, 1), bias=False)\n","        (_project_conv_padding): Identity()\n","        (_bn2): BatchNorm3d(24, eps=0.001, momentum=0.01, affine=True, track_running_stats=True)\n","        (_swish): MemoryEfficientSwish()\n","      )\n","    )\n","    (2): Sequential(\n","      (5): MBConvBlock(\n","        (_expand_conv): Conv3d(24, 144, kernel_size=(1, 1, 1), stride=(1, 1, 1), bias=False)\n","        (_expand_conv_padding): Identity()\n","        (_bn0): BatchNorm3d(144, eps=0.001, momentum=0.01, affine=True, track_running_stats=True)\n","        (_depthwise_conv): Conv3d(144, 144, kernel_size=(5, 5, 5), stride=(2, 2, 2), groups=144, bias=False)\n","        (_depthwise_conv_padding): ConstantPad3d(padding=(2, 2, 2, 2, 2, 2), value=0.0)\n","        (_bn1): BatchNorm3d(144, eps=0.001, momentum=0.01, affine=True, track_running_stats=True)\n","        (_se_adaptpool): AdaptiveAvgPool3d(output_size=1)\n","        (_se_reduce): Conv3d(144, 6, kernel_size=(1, 1, 1), stride=(1, 1, 1))\n","        (_se_reduce_padding): Identity()\n","        (_se_expand): Conv3d(6, 144, kernel_size=(1, 1, 1), stride=(1, 1, 1))\n","        (_se_expand_padding): Identity()\n","        (_project_conv): Conv3d(144, 48, kernel_size=(1, 1, 1), stride=(1, 1, 1), bias=False)\n","        (_project_conv_padding): Identity()\n","        (_bn2): BatchNorm3d(48, eps=0.001, momentum=0.01, affine=True, track_running_stats=True)\n","        (_swish): MemoryEfficientSwish()\n","      )\n","      (6): MBConvBlock(\n","        (_expand_conv): Conv3d(48, 288, kernel_size=(1, 1, 1), stride=(1, 1, 1), bias=False)\n","        (_expand_conv_padding): Identity()\n","        (_bn0): BatchNorm3d(288, eps=0.001, momentum=0.01, affine=True, track_running_stats=True)\n","        (_depthwise_conv): Conv3d(288, 288, kernel_size=(5, 5, 5), stride=(1, 1, 1), groups=288, bias=False)\n","        (_depthwise_conv_padding): ConstantPad3d(padding=(2, 2, 2, 2, 2, 2), value=0.0)\n","        (_bn1): BatchNorm3d(288, eps=0.001, momentum=0.01, affine=True, track_running_stats=True)\n","        (_se_adaptpool): AdaptiveAvgPool3d(output_size=1)\n","        (_se_reduce): Conv3d(288, 12, kernel_size=(1, 1, 1), stride=(1, 1, 1))\n","        (_se_reduce_padding): Identity()\n","        (_se_expand): Conv3d(12, 288, kernel_size=(1, 1, 1), stride=(1, 1, 1))\n","        (_se_expand_padding): Identity()\n","        (_project_conv): Conv3d(288, 48, kernel_size=(1, 1, 1), stride=(1, 1, 1), bias=False)\n","        (_project_conv_padding): Identity()\n","        (_bn2): BatchNorm3d(48, eps=0.001, momentum=0.01, affine=True, track_running_stats=True)\n","        (_swish): MemoryEfficientSwish()\n","      )\n","      (7): MBConvBlock(\n","        (_expand_conv): Conv3d(48, 288, kernel_size=(1, 1, 1), stride=(1, 1, 1), bias=False)\n","        (_expand_conv_padding): Identity()\n","        (_bn0): BatchNorm3d(288, eps=0.001, momentum=0.01, affine=True, track_running_stats=True)\n","        (_depthwise_conv): Conv3d(288, 288, kernel_size=(5, 5, 5), stride=(1, 1, 1), groups=288, bias=False)\n","        (_depthwise_conv_padding): ConstantPad3d(padding=(2, 2, 2, 2, 2, 2), value=0.0)\n","        (_bn1): BatchNorm3d(288, eps=0.001, momentum=0.01, affine=True, track_running_stats=True)\n","        (_se_adaptpool): AdaptiveAvgPool3d(output_size=1)\n","        (_se_reduce): Conv3d(288, 12, kernel_size=(1, 1, 1), stride=(1, 1, 1))\n","        (_se_reduce_padding): Identity()\n","        (_se_expand): Conv3d(12, 288, kernel_size=(1, 1, 1), stride=(1, 1, 1))\n","        (_se_expand_padding): Identity()\n","        (_project_conv): Conv3d(288, 48, kernel_size=(1, 1, 1), stride=(1, 1, 1), bias=False)\n","        (_project_conv_padding): Identity()\n","        (_bn2): BatchNorm3d(48, eps=0.001, momentum=0.01, affine=True, track_running_stats=True)\n","        (_swish): MemoryEfficientSwish()\n","      )\n","    )\n","    (3): Sequential(\n","      (8): MBConvBlock(\n","        (_expand_conv): Conv3d(48, 288, kernel_size=(1, 1, 1), stride=(1, 1, 1), bias=False)\n","        (_expand_conv_padding): Identity()\n","        (_bn0): BatchNorm3d(288, eps=0.001, momentum=0.01, affine=True, track_running_stats=True)\n","        (_depthwise_conv): Conv3d(288, 288, kernel_size=(3, 3, 3), stride=(2, 2, 2), groups=288, bias=False)\n","        (_depthwise_conv_padding): ConstantPad3d(padding=(1, 1, 1, 1, 1, 1), value=0.0)\n","        (_bn1): BatchNorm3d(288, eps=0.001, momentum=0.01, affine=True, track_running_stats=True)\n","        (_se_adaptpool): AdaptiveAvgPool3d(output_size=1)\n","        (_se_reduce): Conv3d(288, 12, kernel_size=(1, 1, 1), stride=(1, 1, 1))\n","        (_se_reduce_padding): Identity()\n","        (_se_expand): Conv3d(12, 288, kernel_size=(1, 1, 1), stride=(1, 1, 1))\n","        (_se_expand_padding): Identity()\n","        (_project_conv): Conv3d(288, 88, kernel_size=(1, 1, 1), stride=(1, 1, 1), bias=False)\n","        (_project_conv_padding): Identity()\n","        (_bn2): BatchNorm3d(88, eps=0.001, momentum=0.01, affine=True, track_running_stats=True)\n","        (_swish): MemoryEfficientSwish()\n","      )\n","      (9): MBConvBlock(\n","        (_expand_conv): Conv3d(88, 528, kernel_size=(1, 1, 1), stride=(1, 1, 1), bias=False)\n","        (_expand_conv_padding): Identity()\n","        (_bn0): BatchNorm3d(528, eps=0.001, momentum=0.01, affine=True, track_running_stats=True)\n","        (_depthwise_conv): Conv3d(528, 528, kernel_size=(3, 3, 3), stride=(1, 1, 1), groups=528, bias=False)\n","        (_depthwise_conv_padding): ConstantPad3d(padding=(1, 1, 1, 1, 1, 1), value=0.0)\n","        (_bn1): BatchNorm3d(528, eps=0.001, momentum=0.01, affine=True, track_running_stats=True)\n","        (_se_adaptpool): AdaptiveAvgPool3d(output_size=1)\n","        (_se_reduce): Conv3d(528, 22, kernel_size=(1, 1, 1), stride=(1, 1, 1))\n","        (_se_reduce_padding): Identity()\n","        (_se_expand): Conv3d(22, 528, kernel_size=(1, 1, 1), stride=(1, 1, 1))\n","        (_se_expand_padding): Identity()\n","        (_project_conv): Conv3d(528, 88, kernel_size=(1, 1, 1), stride=(1, 1, 1), bias=False)\n","        (_project_conv_padding): Identity()\n","        (_bn2): BatchNorm3d(88, eps=0.001, momentum=0.01, affine=True, track_running_stats=True)\n","        (_swish): MemoryEfficientSwish()\n","      )\n","      (10): MBConvBlock(\n","        (_expand_conv): Conv3d(88, 528, kernel_size=(1, 1, 1), stride=(1, 1, 1), bias=False)\n","        (_expand_conv_padding): Identity()\n","        (_bn0): BatchNorm3d(528, eps=0.001, momentum=0.01, affine=True, track_running_stats=True)\n","        (_depthwise_conv): Conv3d(528, 528, kernel_size=(3, 3, 3), stride=(1, 1, 1), groups=528, bias=False)\n","        (_depthwise_conv_padding): ConstantPad3d(padding=(1, 1, 1, 1, 1, 1), value=0.0)\n","        (_bn1): BatchNorm3d(528, eps=0.001, momentum=0.01, affine=True, track_running_stats=True)\n","        (_se_adaptpool): AdaptiveAvgPool3d(output_size=1)\n","        (_se_reduce): Conv3d(528, 22, kernel_size=(1, 1, 1), stride=(1, 1, 1))\n","        (_se_reduce_padding): Identity()\n","        (_se_expand): Conv3d(22, 528, kernel_size=(1, 1, 1), stride=(1, 1, 1))\n","        (_se_expand_padding): Identity()\n","        (_project_conv): Conv3d(528, 88, kernel_size=(1, 1, 1), stride=(1, 1, 1), bias=False)\n","        (_project_conv_padding): Identity()\n","        (_bn2): BatchNorm3d(88, eps=0.001, momentum=0.01, affine=True, track_running_stats=True)\n","        (_swish): MemoryEfficientSwish()\n","      )\n","      (11): MBConvBlock(\n","        (_expand_conv): Conv3d(88, 528, kernel_size=(1, 1, 1), stride=(1, 1, 1), bias=False)\n","        (_expand_conv_padding): Identity()\n","        (_bn0): BatchNorm3d(528, eps=0.001, momentum=0.01, affine=True, track_running_stats=True)\n","        (_depthwise_conv): Conv3d(528, 528, kernel_size=(3, 3, 3), stride=(1, 1, 1), groups=528, bias=False)\n","        (_depthwise_conv_padding): ConstantPad3d(padding=(1, 1, 1, 1, 1, 1), value=0.0)\n","        (_bn1): BatchNorm3d(528, eps=0.001, momentum=0.01, affine=True, track_running_stats=True)\n","        (_se_adaptpool): AdaptiveAvgPool3d(output_size=1)\n","        (_se_reduce): Conv3d(528, 22, kernel_size=(1, 1, 1), stride=(1, 1, 1))\n","        (_se_reduce_padding): Identity()\n","        (_se_expand): Conv3d(22, 528, kernel_size=(1, 1, 1), stride=(1, 1, 1))\n","        (_se_expand_padding): Identity()\n","        (_project_conv): Conv3d(528, 88, kernel_size=(1, 1, 1), stride=(1, 1, 1), bias=False)\n","        (_project_conv_padding): Identity()\n","        (_bn2): BatchNorm3d(88, eps=0.001, momentum=0.01, affine=True, track_running_stats=True)\n","        (_swish): MemoryEfficientSwish()\n","      )\n","    )\n","    (4): Sequential(\n","      (12): MBConvBlock(\n","        (_expand_conv): Conv3d(88, 528, kernel_size=(1, 1, 1), stride=(1, 1, 1), bias=False)\n","        (_expand_conv_padding): Identity()\n","        (_bn0): BatchNorm3d(528, eps=0.001, momentum=0.01, affine=True, track_running_stats=True)\n","        (_depthwise_conv): Conv3d(528, 528, kernel_size=(5, 5, 5), stride=(1, 1, 1), groups=528, bias=False)\n","        (_depthwise_conv_padding): ConstantPad3d(padding=(2, 2, 2, 2, 2, 2), value=0.0)\n","        (_bn1): BatchNorm3d(528, eps=0.001, momentum=0.01, affine=True, track_running_stats=True)\n","        (_se_adaptpool): AdaptiveAvgPool3d(output_size=1)\n","        (_se_reduce): Conv3d(528, 22, kernel_size=(1, 1, 1), stride=(1, 1, 1))\n","        (_se_reduce_padding): Identity()\n","        (_se_expand): Conv3d(22, 528, kernel_size=(1, 1, 1), stride=(1, 1, 1))\n","        (_se_expand_padding): Identity()\n","        (_project_conv): Conv3d(528, 120, kernel_size=(1, 1, 1), stride=(1, 1, 1), bias=False)\n","        (_project_conv_padding): Identity()\n","        (_bn2): BatchNorm3d(120, eps=0.001, momentum=0.01, affine=True, track_running_stats=True)\n","        (_swish): MemoryEfficientSwish()\n","      )\n","      (13): MBConvBlock(\n","        (_expand_conv): Conv3d(120, 720, kernel_size=(1, 1, 1), stride=(1, 1, 1), bias=False)\n","        (_expand_conv_padding): Identity()\n","        (_bn0): BatchNorm3d(720, eps=0.001, momentum=0.01, affine=True, track_running_stats=True)\n","        (_depthwise_conv): Conv3d(720, 720, kernel_size=(5, 5, 5), stride=(1, 1, 1), groups=720, bias=False)\n","        (_depthwise_conv_padding): ConstantPad3d(padding=(2, 2, 2, 2, 2, 2), value=0.0)\n","        (_bn1): BatchNorm3d(720, eps=0.001, momentum=0.01, affine=True, track_running_stats=True)\n","        (_se_adaptpool): AdaptiveAvgPool3d(output_size=1)\n","        (_se_reduce): Conv3d(720, 30, kernel_size=(1, 1, 1), stride=(1, 1, 1))\n","        (_se_reduce_padding): Identity()\n","        (_se_expand): Conv3d(30, 720, kernel_size=(1, 1, 1), stride=(1, 1, 1))\n","        (_se_expand_padding): Identity()\n","        (_project_conv): Conv3d(720, 120, kernel_size=(1, 1, 1), stride=(1, 1, 1), bias=False)\n","        (_project_conv_padding): Identity()\n","        (_bn2): BatchNorm3d(120, eps=0.001, momentum=0.01, affine=True, track_running_stats=True)\n","        (_swish): MemoryEfficientSwish()\n","      )\n","      (14): MBConvBlock(\n","        (_expand_conv): Conv3d(120, 720, kernel_size=(1, 1, 1), stride=(1, 1, 1), bias=False)\n","        (_expand_conv_padding): Identity()\n","        (_bn0): BatchNorm3d(720, eps=0.001, momentum=0.01, affine=True, track_running_stats=True)\n","        (_depthwise_conv): Conv3d(720, 720, kernel_size=(5, 5, 5), stride=(1, 1, 1), groups=720, bias=False)\n","        (_depthwise_conv_padding): ConstantPad3d(padding=(2, 2, 2, 2, 2, 2), value=0.0)\n","        (_bn1): BatchNorm3d(720, eps=0.001, momentum=0.01, affine=True, track_running_stats=True)\n","        (_se_adaptpool): AdaptiveAvgPool3d(output_size=1)\n","        (_se_reduce): Conv3d(720, 30, kernel_size=(1, 1, 1), stride=(1, 1, 1))\n","        (_se_reduce_padding): Identity()\n","        (_se_expand): Conv3d(30, 720, kernel_size=(1, 1, 1), stride=(1, 1, 1))\n","        (_se_expand_padding): Identity()\n","        (_project_conv): Conv3d(720, 120, kernel_size=(1, 1, 1), stride=(1, 1, 1), bias=False)\n","        (_project_conv_padding): Identity()\n","        (_bn2): BatchNorm3d(120, eps=0.001, momentum=0.01, affine=True, track_running_stats=True)\n","        (_swish): MemoryEfficientSwish()\n","      )\n","      (15): MBConvBlock(\n","        (_expand_conv): Conv3d(120, 720, kernel_size=(1, 1, 1), stride=(1, 1, 1), bias=False)\n","        (_expand_conv_padding): Identity()\n","        (_bn0): BatchNorm3d(720, eps=0.001, momentum=0.01, affine=True, track_running_stats=True)\n","        (_depthwise_conv): Conv3d(720, 720, kernel_size=(5, 5, 5), stride=(1, 1, 1), groups=720, bias=False)\n","        (_depthwise_conv_padding): ConstantPad3d(padding=(2, 2, 2, 2, 2, 2), value=0.0)\n","        (_bn1): BatchNorm3d(720, eps=0.001, momentum=0.01, affine=True, track_running_stats=True)\n","        (_se_adaptpool): AdaptiveAvgPool3d(output_size=1)\n","        (_se_reduce): Conv3d(720, 30, kernel_size=(1, 1, 1), stride=(1, 1, 1))\n","        (_se_reduce_padding): Identity()\n","        (_se_expand): Conv3d(30, 720, kernel_size=(1, 1, 1), stride=(1, 1, 1))\n","        (_se_expand_padding): Identity()\n","        (_project_conv): Conv3d(720, 120, kernel_size=(1, 1, 1), stride=(1, 1, 1), bias=False)\n","        (_project_conv_padding): Identity()\n","        (_bn2): BatchNorm3d(120, eps=0.001, momentum=0.01, affine=True, track_running_stats=True)\n","        (_swish): MemoryEfficientSwish()\n","      )\n","    )\n","    (5): Sequential(\n","      (16): MBConvBlock(\n","        (_expand_conv): Conv3d(120, 720, kernel_size=(1, 1, 1), stride=(1, 1, 1), bias=False)\n","        (_expand_conv_padding): Identity()\n","        (_bn0): BatchNorm3d(720, eps=0.001, momentum=0.01, affine=True, track_running_stats=True)\n","        (_depthwise_conv): Conv3d(720, 720, kernel_size=(5, 5, 5), stride=(2, 2, 2), groups=720, bias=False)\n","        (_depthwise_conv_padding): ConstantPad3d(padding=(2, 2, 2, 2, 2, 2), value=0.0)\n","        (_bn1): BatchNorm3d(720, eps=0.001, momentum=0.01, affine=True, track_running_stats=True)\n","        (_se_adaptpool): AdaptiveAvgPool3d(output_size=1)\n","        (_se_reduce): Conv3d(720, 30, kernel_size=(1, 1, 1), stride=(1, 1, 1))\n","        (_se_reduce_padding): Identity()\n","        (_se_expand): Conv3d(30, 720, kernel_size=(1, 1, 1), stride=(1, 1, 1))\n","        (_se_expand_padding): Identity()\n","        (_project_conv): Conv3d(720, 208, kernel_size=(1, 1, 1), stride=(1, 1, 1), bias=False)\n","        (_project_conv_padding): Identity()\n","        (_bn2): BatchNorm3d(208, eps=0.001, momentum=0.01, affine=True, track_running_stats=True)\n","        (_swish): MemoryEfficientSwish()\n","      )\n","      (17): MBConvBlock(\n","        (_expand_conv): Conv3d(208, 1248, kernel_size=(1, 1, 1), stride=(1, 1, 1), bias=False)\n","        (_expand_conv_padding): Identity()\n","        (_bn0): BatchNorm3d(1248, eps=0.001, momentum=0.01, affine=True, track_running_stats=True)\n","        (_depthwise_conv): Conv3d(1248, 1248, kernel_size=(5, 5, 5), stride=(1, 1, 1), groups=1248, bias=False)\n","        (_depthwise_conv_padding): ConstantPad3d(padding=(2, 2, 2, 2, 2, 2), value=0.0)\n","        (_bn1): BatchNorm3d(1248, eps=0.001, momentum=0.01, affine=True, track_running_stats=True)\n","        (_se_adaptpool): AdaptiveAvgPool3d(output_size=1)\n","        (_se_reduce): Conv3d(1248, 52, kernel_size=(1, 1, 1), stride=(1, 1, 1))\n","        (_se_reduce_padding): Identity()\n","        (_se_expand): Conv3d(52, 1248, kernel_size=(1, 1, 1), stride=(1, 1, 1))\n","        (_se_expand_padding): Identity()\n","        (_project_conv): Conv3d(1248, 208, kernel_size=(1, 1, 1), stride=(1, 1, 1), bias=False)\n","        (_project_conv_padding): Identity()\n","        (_bn2): BatchNorm3d(208, eps=0.001, momentum=0.01, affine=True, track_running_stats=True)\n","        (_swish): MemoryEfficientSwish()\n","      )\n","      (18): MBConvBlock(\n","        (_expand_conv): Conv3d(208, 1248, kernel_size=(1, 1, 1), stride=(1, 1, 1), bias=False)\n","        (_expand_conv_padding): Identity()\n","        (_bn0): BatchNorm3d(1248, eps=0.001, momentum=0.01, affine=True, track_running_stats=True)\n","        (_depthwise_conv): Conv3d(1248, 1248, kernel_size=(5, 5, 5), stride=(1, 1, 1), groups=1248, bias=False)\n","        (_depthwise_conv_padding): ConstantPad3d(padding=(2, 2, 2, 2, 2, 2), value=0.0)\n","        (_bn1): BatchNorm3d(1248, eps=0.001, momentum=0.01, affine=True, track_running_stats=True)\n","        (_se_adaptpool): AdaptiveAvgPool3d(output_size=1)\n","        (_se_reduce): Conv3d(1248, 52, kernel_size=(1, 1, 1), stride=(1, 1, 1))\n","        (_se_reduce_padding): Identity()\n","        (_se_expand): Conv3d(52, 1248, kernel_size=(1, 1, 1), stride=(1, 1, 1))\n","        (_se_expand_padding): Identity()\n","        (_project_conv): Conv3d(1248, 208, kernel_size=(1, 1, 1), stride=(1, 1, 1), bias=False)\n","        (_project_conv_padding): Identity()\n","        (_bn2): BatchNorm3d(208, eps=0.001, momentum=0.01, affine=True, track_running_stats=True)\n","        (_swish): MemoryEfficientSwish()\n","      )\n","      (19): MBConvBlock(\n","        (_expand_conv): Conv3d(208, 1248, kernel_size=(1, 1, 1), stride=(1, 1, 1), bias=False)\n","        (_expand_conv_padding): Identity()\n","        (_bn0): BatchNorm3d(1248, eps=0.001, momentum=0.01, affine=True, track_running_stats=True)\n","        (_depthwise_conv): Conv3d(1248, 1248, kernel_size=(5, 5, 5), stride=(1, 1, 1), groups=1248, bias=False)\n","        (_depthwise_conv_padding): ConstantPad3d(padding=(2, 2, 2, 2, 2, 2), value=0.0)\n","        (_bn1): BatchNorm3d(1248, eps=0.001, momentum=0.01, affine=True, track_running_stats=True)\n","        (_se_adaptpool): AdaptiveAvgPool3d(output_size=1)\n","        (_se_reduce): Conv3d(1248, 52, kernel_size=(1, 1, 1), stride=(1, 1, 1))\n","        (_se_reduce_padding): Identity()\n","        (_se_expand): Conv3d(52, 1248, kernel_size=(1, 1, 1), stride=(1, 1, 1))\n","        (_se_expand_padding): Identity()\n","        (_project_conv): Conv3d(1248, 208, kernel_size=(1, 1, 1), stride=(1, 1, 1), bias=False)\n","        (_project_conv_padding): Identity()\n","        (_bn2): BatchNorm3d(208, eps=0.001, momentum=0.01, affine=True, track_running_stats=True)\n","        (_swish): MemoryEfficientSwish()\n","      )\n","      (20): MBConvBlock(\n","        (_expand_conv): Conv3d(208, 1248, kernel_size=(1, 1, 1), stride=(1, 1, 1), bias=False)\n","        (_expand_conv_padding): Identity()\n","        (_bn0): BatchNorm3d(1248, eps=0.001, momentum=0.01, affine=True, track_running_stats=True)\n","        (_depthwise_conv): Conv3d(1248, 1248, kernel_size=(5, 5, 5), stride=(1, 1, 1), groups=1248, bias=False)\n","        (_depthwise_conv_padding): ConstantPad3d(padding=(2, 2, 2, 2, 2, 2), value=0.0)\n","        (_bn1): BatchNorm3d(1248, eps=0.001, momentum=0.01, affine=True, track_running_stats=True)\n","        (_se_adaptpool): AdaptiveAvgPool3d(output_size=1)\n","        (_se_reduce): Conv3d(1248, 52, kernel_size=(1, 1, 1), stride=(1, 1, 1))\n","        (_se_reduce_padding): Identity()\n","        (_se_expand): Conv3d(52, 1248, kernel_size=(1, 1, 1), stride=(1, 1, 1))\n","        (_se_expand_padding): Identity()\n","        (_project_conv): Conv3d(1248, 208, kernel_size=(1, 1, 1), stride=(1, 1, 1), bias=False)\n","        (_project_conv_padding): Identity()\n","        (_bn2): BatchNorm3d(208, eps=0.001, momentum=0.01, affine=True, track_running_stats=True)\n","        (_swish): MemoryEfficientSwish()\n","      )\n","    )\n","    (6): Sequential(\n","      (21): MBConvBlock(\n","        (_expand_conv): Conv3d(208, 1248, kernel_size=(1, 1, 1), stride=(1, 1, 1), bias=False)\n","        (_expand_conv_padding): Identity()\n","        (_bn0): BatchNorm3d(1248, eps=0.001, momentum=0.01, affine=True, track_running_stats=True)\n","        (_depthwise_conv): Conv3d(1248, 1248, kernel_size=(3, 3, 3), stride=(1, 1, 1), groups=1248, bias=False)\n","        (_depthwise_conv_padding): ConstantPad3d(padding=(1, 1, 1, 1, 1, 1), value=0.0)\n","        (_bn1): BatchNorm3d(1248, eps=0.001, momentum=0.01, affine=True, track_running_stats=True)\n","        (_se_adaptpool): AdaptiveAvgPool3d(output_size=1)\n","        (_se_reduce): Conv3d(1248, 52, kernel_size=(1, 1, 1), stride=(1, 1, 1))\n","        (_se_reduce_padding): Identity()\n","        (_se_expand): Conv3d(52, 1248, kernel_size=(1, 1, 1), stride=(1, 1, 1))\n","        (_se_expand_padding): Identity()\n","        (_project_conv): Conv3d(1248, 352, kernel_size=(1, 1, 1), stride=(1, 1, 1), bias=False)\n","        (_project_conv_padding): Identity()\n","        (_bn2): BatchNorm3d(352, eps=0.001, momentum=0.01, affine=True, track_running_stats=True)\n","        (_swish): MemoryEfficientSwish()\n","      )\n","      (22): MBConvBlock(\n","        (_expand_conv): Conv3d(352, 2112, kernel_size=(1, 1, 1), stride=(1, 1, 1), bias=False)\n","        (_expand_conv_padding): Identity()\n","        (_bn0): BatchNorm3d(2112, eps=0.001, momentum=0.01, affine=True, track_running_stats=True)\n","        (_depthwise_conv): Conv3d(2112, 2112, kernel_size=(3, 3, 3), stride=(1, 1, 1), groups=2112, bias=False)\n","        (_depthwise_conv_padding): ConstantPad3d(padding=(1, 1, 1, 1, 1, 1), value=0.0)\n","        (_bn1): BatchNorm3d(2112, eps=0.001, momentum=0.01, affine=True, track_running_stats=True)\n","        (_se_adaptpool): AdaptiveAvgPool3d(output_size=1)\n","        (_se_reduce): Conv3d(2112, 88, kernel_size=(1, 1, 1), stride=(1, 1, 1))\n","        (_se_reduce_padding): Identity()\n","        (_se_expand): Conv3d(88, 2112, kernel_size=(1, 1, 1), stride=(1, 1, 1))\n","        (_se_expand_padding): Identity()\n","        (_project_conv): Conv3d(2112, 352, kernel_size=(1, 1, 1), stride=(1, 1, 1), bias=False)\n","        (_project_conv_padding): Identity()\n","        (_bn2): BatchNorm3d(352, eps=0.001, momentum=0.01, affine=True, track_running_stats=True)\n","        (_swish): MemoryEfficientSwish()\n","      )\n","    )\n","  )\n","  (_conv_head): Conv3d(352, 1408, kernel_size=(1, 1, 1), stride=(1, 1, 1), bias=False)\n","  (_conv_head_padding): Identity()\n","  (_bn1): BatchNorm3d(1408, eps=0.001, momentum=0.01, affine=True, track_running_stats=True)\n","  (_avg_pooling): AdaptiveAvgPool3d(output_size=1)\n","  (_dropout): Dropout(p=0.3, inplace=False)\n","  (_fc): Linear(in_features=1408, out_features=2, bias=True)\n","  (_swish): MemoryEfficientSwish()\n",")>\n"]}],"source":["print(model.parameters)"]},{"cell_type":"code","execution_count":46,"metadata":{"colab":{"base_uri":"https://localhost:8080/"},"id":"Ve31g7LaVSGl","outputId":"146f3dd1-a9e2-4184-da6f-bd95edfbc4af","executionInfo":{"status":"ok","timestamp":1650454335910,"user_tz":-240,"elapsed":1754704,"user
…
===============================================|\n","+-----------------------------------------------------------------------------+\n"]}],"source":["!nvidia-smi "]},{"cell_type":"code","execution_count":22,"metadata":{"colab":{"base_uri":"https://localhost:8080/"},"id":"pn5KWnRv7nhh","outputId":"cb559a0e-435c-417d-ec81-60c40744db67","executionInfo":{"status":"ok","timestamp":1650459109674,"user_tz":-240,"elapsed":2615,"user":{"displayName":"Deevyankar Agarwal","userId":"14882055139397387561"}}},"outputs":[{"output_type":"execute_result","data":{"text/plain":["EfficientNetBN(\n","  (_conv_stem): Conv3d(1, 32, kernel_size=(3, 3, 3), stride=(2, 2, 2), bias=False)\n","  (_conv_stem_padding): ConstantPad3d(padding=(0, 1, 0, 1, 0, 1), value=0.0)\n","  (_bn0): BatchNorm3d(32, eps=0.001, momentum=0.01, affine=True, track_running_stats=True)\n","  (_blocks): Sequential(\n","    (0): Sequential(\n","      (0): MBConvBlock(\n","        (_expand_conv): Identity()\n","        (_expand_conv_padding): Identity()\n","        (_bn0): Identity()\n","        (_depthwise_conv): Conv3d(32, 32, kernel_size=(3, 3, 3), stride=(1, 1, 1), groups=32, bias=False)\n","        (_depthwise_conv_padding): ConstantPad3d(padding=(1, 1, 1, 1, 1, 1), value=0.0)\n","        (_bn1): BatchNorm3d(32, eps=0.001, momentum=0.01, affine=True, track_running_stats=True)\n","        (_se_adaptpool): AdaptiveAvgPool3d(output_size=1)\n","        (_se_reduce): Conv3d(32, 8, kernel_size=(1, 1, 1), stride=(1, 1, 1))\n","        (_se_reduce_padding): Identity()\n","        (_se_expand): Conv3d(8, 32, kernel_size=(1, 1, 1), stride=(1, 1, 1))\n","        (_se_expand_padding): Identity()\n","        (_project_conv): Conv3d(32, 16, kernel_size=(1, 1, 1), stride=(1, 1, 1), bias=False)\n","        (_project_conv_padding): Identity()\n","        (_bn2): BatchNorm3d(16, eps=0.001, momentum=0.01, affine=True, track_running_stats=True)\n","        (_swish): MemoryEfficientSwish()\n","      )\n","      (1): MBConvBlock(\n","        (_expand_conv): Identity()\n","        (_expand_conv_padding): Identity()\n","        (_bn0): Identity()\n","        (_depthwise_conv): Conv3d(16, 16, kernel_size=(3, 3, 3), stride=(1, 1, 1), groups=16, bias=False)\n","        (_depthwise_conv_padding): ConstantPad3d(padding=(1, 1, 1, 1, 1, 1), value=0.0)\n","        (_bn1): BatchNorm3d(16, eps=0.001, momentum=0.01, affine=True, track_running_stats=True)\n","        (_se_adaptpool): AdaptiveAvgPool3d(output_size=1)\n","        (_se_reduce): Conv3d(16, 4, kernel_size=(1, 1, 1), stride=(1, 1, 1))\n","        (_se_reduce_padding): Identity()\n","        (_se_expand): Conv3d(4, 16, kernel_size=(1, 1, 1), stride=(1, 1, 1))\n","        (_se_expand_padding): Identity()\n","        (_project_conv): Conv3d(16, 16, kernel_size=(1, 1, 1), stride=(1, 1, 1), bias=False)\n","        (_project_conv_padding): Identity()\n","        (_bn2): BatchNorm3d(16, eps=0.001, momentum=0.01, affine=True, track_running_stats=True)\n","        (_swish): MemoryEfficientSwish()\n","      )\n","    )\n","    (1): Sequential(\n","      (2): MBConvBlock(\n","        (_expand_conv): Conv3d(16, 96, kernel_size=(1, 1, 1), stride=(1, 1, 1), bias=False)\n","        (_expand_conv_padding): Identity()\n","        (_bn0): BatchNorm3d(96, eps=0.001, momentum=0.01, affine=True, track_running_stats=True)\n","        (_depthwise_conv): Conv3d(96, 96, kernel_size=(3, 3, 3), stride=(2, 2, 2), groups=96, bias=False)\n","        (_depthwise_conv_padding): ConstantPad3d(padding=(0, 1, 0, 1, 0, 1), value=0.0)\n","        (_bn1): BatchNorm3d(96, eps=0.001, momentum=0.01, affine=True, track_running_stats=True)\n","        (_se_adaptpool): AdaptiveAvgPool3d(output_size=1)\n","        (_se_reduce): Conv3d(96, 4, kernel_size=(1, 1, 1), stride=(1, 1, 1))\n","        (_se_reduce_padding): Identity()\n","        (_se_expand): Conv3d(4, 96, kernel_size=(1, 1, 1), stride=(1, 1, 1))\n","        (_se_expand_padding): Identity()\n","        (_project_conv): Conv3d(96, 24, kernel_size=(1, 1, 1), stride=(1, 1, 1), bias=False)\n","        (_project_conv_padding): Identity()\n","        (_bn2): BatchNorm3d(24, eps=0.001, momentum=0.01, affine=True, track_running_stats=True)\n","        (_swish): MemoryEfficientSwish()\n","      )\n","      (3): MBConvBlock(\n","        (_expand_conv): Conv3d(24, 144, kernel_size=(1, 1, 1), stride=(1, 1, 1), bias=False)\n","        (_expand_conv_padding): Identity()\n","        (_bn0): BatchNorm3d(144, eps=0.001, momentum=0.01, affine=True, track_running_stats=True)\n","        (_depthwise_conv): Conv3d(144, 144, kernel_size=(3, 3, 3), stride=(1, 1, 1), groups=144, bias=False)\n","        (_depthwise_conv_padding): ConstantPad3d(padding=(1, 1, 1, 1, 1, 1), value=0.0)\n","        (_bn1): BatchNorm3d(144, eps=0.001, momentum=0.01, affine=True, track_running_stats=True)\n","        (_se_adaptpool): AdaptiveAvgPool3d(output_size=1)\n","        (_se_reduce): Conv3d(144, 6, kernel_size=(1, 1, 1), stride=(1, 1, 1))\n","        (_se_reduce_padding): Identity()\n","        (_se_expand): Conv3d(6, 144, kernel_size=(1, 1, 1), stride=(1, 1, 1))\n","        (_se_expand_padding): Identity()\n","        (_project_conv): Conv3d(144, 24, kernel_size=(1, 1, 1), stride=(1, 1, 1), bias=False)\n","        (_project_conv_padding): Identity()\n","        (_bn2): BatchNorm3d(24, eps=0.001, momentum=0.01, affine=True, track_running_stats=True)\n","        (_swish): MemoryEfficientSwish()\n","      )\n","      (4): MBConvBlock(\n","        (_expand_conv): Conv3d(24, 144, kernel_size=(1, 1, 1), stride=(1, 1, 1), bias=False)\n","        (_expand_conv_padding): Identity()\n","        (_bn0): BatchNorm3d(144, eps=0.001, momentum=0.01, affine=True, track_running_stats=True)\n","        (_depthwise_conv): Conv3d(144, 144, kernel_size=(3, 3, 3), stride=(1, 1, 1), groups=144, bias=False)\n","        (_depthwise_conv_padding): ConstantPad3d(padding=(1, 1, 1, 1, 1, 1), value=0.0)\n","        (_bn1): BatchNorm3d(144, eps=0.001, momentum=0.01, affine=True, track_running_stats=True)\n","        (_se_adaptpool): AdaptiveAvgPool3d(output_size=1)\n","        (_se_reduce): Conv3d(144, 6, kernel_size=(1, 1, 1), stride=(1, 1, 1))\n","        (_se_reduce_padding): Identity()\n","        (_se_expand): Conv3d(6, 144, kernel_size=(1, 1, 1), stride=(1, 1, 1))\n","        (_se_expand_padding): Identity()\n","        (_project_conv): Conv3d(144, 24, kernel_size=(1, 1, 1), stride=(1, 1, 1), bias=False)\n","        (_project_conv_padding): Identity()\n","        (_bn2): BatchNorm3d(24, eps=0.001, momentum=0.01, affine=True, track_running_stats=True)\n","        (_swish): MemoryEfficientSwish()\n","      )\n","    )\n","    (2): Sequential(\n","      (5): MBConvBlock(\n","        (_expand_conv): Conv3d(24, 144, kernel_size=(1, 1, 1), stride=(1, 1, 1), bias=False)\n","        (_expand_conv_padding): Identity()\n","        (_bn0): BatchNorm3d(144, eps=0.001, momentum=0.01, affine=True, track_running_stats=True)\n","        (_depthwise_conv): Conv3d(144, 144, kernel_size=(5, 5, 5), stride=(2, 2, 2), groups=144, bias=False)\n","        (_depthwise_conv_padding): ConstantPad3d(padding=(2, 2, 2, 2, 2, 2), value=0.0)\n","        (_bn1): BatchNorm3d(144, eps=0.001, momentum=0.01, affine=True, track_running_stats=True)\n","        (_se_adaptpool): AdaptiveAvgPool3d(output_size=1)\n","        (_se_reduce): Conv3d(144, 6, kernel_size=(1, 1, 1), stride=(1, 1, 1))\n","        (_se_reduce_padding): Identity()\n","        (_se_expand): Conv3d(6, 144, kernel_size=(1, 1, 1), stride=(1, 1, 1))\n","        (_se_expand_padding): Identity()\n","        (_project_conv): Conv3d(144, 48, kernel_size=(1, 1, 1), stride=(1, 1, 1), bias=False)\n","        (_project_conv_padding): Identity()\n","        (_bn2): BatchNorm3d(48, eps=0.001, momentum=0.01, affine=True, track_running_stats=True)\n","        (_swish): MemoryEfficientSwish()\n","      )\n","      (6): MBConvBlock(\n","        (_expand_conv): Conv3d(48, 288, kernel_size=(1, 1, 1), stride=(1, 1, 1), bias=False)\n","        (_expand_conv_padding): Identity()\n","        (_bn0): BatchNorm3d(288, eps=0.001, momentum=0.01, affine=True, track_running_stats=True)\n","        (_depthwise_conv): Conv3d(288, 288, kernel_size=(5, 5, 5), stride=(1, 1, 1), groups=288, bias=False)\n","        (_depthwise_conv_padding): ConstantPad3d(padding=(2, 2, 2, 2, 2, 2), value=0.0)\n","        (_bn1): BatchNorm3d(288, eps=0.001, momentum=0.01, affine=True, track_running_stats=True)\n","        (_se_adaptpool): AdaptiveAvgPool3d(output_size=1)\n","        (_se_reduce): Conv3d(288, 12, kernel_size=(1, 1, 1), stride=(1, 1, 1))\n","        (_se_reduce_padding): Identity()\n","        (_se_expand): Conv3d(12, 288, kernel_size=(1, 1, 1), stride=(1, 1, 1))\n","        (_se_expand_padding): Identity()\n","        (_project_conv): Conv3d(288, 48, kernel_size=(1, 1, 1), stride=(1, 1, 1), bias=False)\n","        (_project_conv_padding): Identity()\n","        (_bn2): BatchNorm3d(48, eps=0.001, momentum=0.01, affine=True, track_running_stats=True)\n","        (_swish): MemoryEfficientSwish()\n","      )\n","      (7): MBConvBlock(\n","        (_expand_conv): Conv3d(48, 288, kernel_size=(1, 1, 1), stride=(1, 1, 1), bias=False)\n","        (_expand_conv_padding): Identity()\n","        (_bn0): BatchNorm3d(288, eps=0.001, momentum=0.01, affine=True, track_running_stats=True)\n","        (_depthwise_conv): Conv3d(288, 288, kernel_size=(5, 5, 5), stride=(1, 1, 1), groups=288, bias=False)\n","        (_depthwise_conv_padding): ConstantPad3d(padding=(2, 2, 2, 2, 2, 2), value=0.0)\n","        (_bn1): BatchNorm3d(288, eps=0.001, momentum=0.01, affine=True, track_running_stats=True)\n","        (_se_adaptpool): AdaptiveAvgPool3d(output_size=1)\n","        (_se_reduce): Conv3d(288, 12, kernel_size=(1, 1, 1), stride=(1, 1, 1))\n","        (_se_reduce_padding): Identity()\n","        (_se_expand): Conv3d(12, 288, kernel_size=(1, 1, 1), stride=(1, 1, 1))\n","        (_se_expand_padding): Identity()\n","        (_project_conv): Conv3d(288, 48, kernel_size=(1, 1, 1), stride=(1, 1, 1), bias=False)\n","        (_project_conv_padding): Identity()\n","        (_bn2): BatchNorm3d(48, eps=0.001, momentum=0.01, affine=True, track_running_stats=True)\n","        (_swish): MemoryEfficientSwish()\n","      )\n","    )\n","    (3): Sequential(\n","      (8): MBConvBlock(\n","        (_expand_conv): Conv3d(48, 288, kernel_size=(1, 1, 1), stride=(1, 1, 1), bias=False)\n","        (_expand_conv_padding): Identity()\n","        (_bn0): BatchNorm3d(288, eps=0.001, momentum=0.01, affine=True, track_running_stats=True)\n","        (_depthwise_conv): Conv3d(288, 288, kernel_size=(3, 3, 3), stride=(2, 2, 2), groups=288, bias=False)\n","        (_depthwise_conv_padding): ConstantPad3d(padding=(1, 1, 1, 1, 1, 1), value=0.0)\n","        (_bn1): BatchNorm3d(288, eps=0.001, momentum=0.01, affine=True, track_running_stats=True)\n","        (_se_adaptpool): AdaptiveAvgPool3d(output_size=1)\n","        (_se_reduce): Conv3d(288, 12, kernel_size=(1, 1, 1), stride=(1, 1, 1))\n","        (_se_reduce_padding): Identity()\n","        (_se_expand): Conv3d(12, 288, kernel_size=(1, 1, 1), stride=(1, 1, 1))\n","        (_se_expand_padding): Identity()\n","        (_project_conv): Conv3d(288, 88, kernel_size=(1, 1, 1), stride=(1, 1, 1), bias=False)\n","        (_project_conv_padding): Identity()\n","        (_bn2): BatchNorm3d(88, eps=0.001, momentum=0.01, affine=True, track_running_stats=True)\n","        (_swish): MemoryEfficientSwish()\n","      )\n","      (9): MBConvBlock(\n","        (_expand_conv): Conv3d(88, 528, kernel_size=(1, 1, 1), stride=(1, 1, 1), bias=False)\n","        (_expand_conv_padding): Identity()\n","        (_bn0): BatchNorm3d(528, eps=0.001, momentum=0.01, affine=True, track_running_stats=True)\n","        (_depthwise_conv): Conv3d(528, 528, kernel_size=(3, 3, 3), stride=(1, 1, 1), groups=528, bias=False)\n","        (_depthwise_conv_padding): ConstantPad3d(padding=(1, 1, 1, 1, 1, 1), value=0.0)\n","        (_bn1): BatchNorm3d(528, eps=0.001, momentum=0.01, affine=True, track_running_stats=True)\n","        (_se_adaptpool): AdaptiveAvgPool3d(output_size=1)\n","        (_se_reduce): Conv3d(528, 22, kernel_size=(1, 1, 1), stride=(1, 1, 1))\n","        (_se_reduce_padding): Identity()\n","        (_se_expand): Conv3d(22, 528, kernel_size=(1, 1, 1), stride=(1, 1, 1))\n","        (_se_expand_padding): Identity()\n","        (_project_conv): Conv3d(528, 88, kernel_size=(1, 1, 1), stride=(1, 1, 1), bias=False)\n","        (_project_conv_padding): Identity()\n","        (_bn2): BatchNorm3d(88, eps=0.001, momentum=0.01, affine=True, track_running_stats=True)\n","        (_swish): MemoryEfficientSwish()\n","      )\n","      (10): MBConvBlock(\n","        (_expand_conv): Conv3d(88, 528, kernel_size=(1, 1, 1), stride=(1, 1, 1), bias=False)\n","        (_expand_conv_padding): Identity()\n","        (_bn0): BatchNorm3d(528, eps=0.001, momentum=0.01, affine=True, track_running_stats=True)\n","        (_depthwise_conv): Conv3d(528, 528, kernel_size=(3, 3, 3), stride=(1, 1, 1), groups=528, bias=False)\n","        (_depthwise_conv_padding): ConstantPad3d(padding=(1, 1, 1, 1, 1, 1), value=0.0)\n","        (_bn1): BatchNorm3d(528, eps=0.001, momentum=0.01, affine=True, track_running_stats=True)\n","        (_se_adaptpool): AdaptiveAvgPool3d(output_size=1)\n","        (_se_reduce): Conv3d(528, 22, kernel_size=(1, 1, 1), stride=(1, 1, 1))\n","        (_se_reduce_padding): Identity()\n","        (_se_expand): Conv3d(22, 528, kernel_size=(1, 1, 1), stride=(1, 1, 1))\n","        (_se_expand_padding): Identity()\n","        (_project_conv): Conv3d(528, 88, kernel_size=(1, 1, 1), stride=(1, 1, 1), bias=False)\n","        (_project_conv_padding): Identity()\n","        (_bn2): BatchNorm3d(88, eps=0.001, momentum=0.01, affine=True, track_running_stats=True)\n","        (_swish): MemoryEfficientSwish()\n","      )\n","      (11): MBConvBlock(\n","        (_expand_conv): Conv3d(88, 528, kernel_size=(1, 1, 1), stride=(1, 1, 1), bias=False)\n","        (_expand_conv_padding): Identity()\n","        (_bn0): BatchNorm3d(528, eps=0.001, momentum=0.01, affine=True, track_running_stats=True)\n","        (_depthwise_conv): Conv3d(528, 528, kernel_size=(3, 3, 3), stride=(1, 1, 1), groups=528, bias=False)\n","        (_depthwise_conv_padding): ConstantPad3d(padding=(1, 1, 1, 1, 1, 1), value=0.0)\n","        (_bn1): BatchNorm3d(528, eps=0.001, momentum=0.01, affine=True, track_running_stats=True)\n","        (_se_adaptpool): AdaptiveAvgPool3d(output_size=1)\n","        (_se_reduce): Conv3d(528, 22, kernel_size=(1, 1, 1), stride=(1, 1, 1))\n","        (_se_reduce_padding): Identity()\n","        (_se_expand): Conv3d(22, 528, kernel_size=(1, 1, 1), stride=(1, 1, 1))\n","        (_se_expand_padding): Identity()\n","        (_project_conv): Conv3d(528, 88, kernel_size=(1, 1, 1), stride=(1, 1, 1), bias=False)\n","        (_project_conv_padding): Identity()\n","        (_bn2): BatchNorm3d(88, eps=0.001, momentum=0.01, affine=True, track_running_stats=True)\n","        (_swish): MemoryEfficientSwish()\n","      )\n","    )\n","    (4): Sequential(\n","      (12): MBConvBlock(\n","        (_expand_conv): Conv3d(88, 528, kernel_size=(1, 1, 1), stride=(1, 1, 1), bias=False)\n","        (_expand_conv_padding): Identity()\n","        (_bn0): BatchNorm3d(528, eps=0.001, momentum=0.01, affine=True, track_running_stats=True)\n","        (_depthwise_conv): Conv3d(528, 528, kernel_size=(5, 5, 5), stride=(1, 1, 1), groups=528, bias=False)\n","        (_depthwise_conv_padding): ConstantPad3d(padding=(2, 2, 2, 2, 2, 2), value=0.0)\n","        (_bn1): BatchNorm3d(528, eps=0.001, momentum=0.01, affine=True, track_running_stats=True)\n","        (_se_adaptpool): AdaptiveAvgPool3d(output_size=1)\n","        (_se_reduce): Conv3d(528, 22, kernel_size=(1, 1, 1), stride=(1, 1, 1))\n","        (_se_reduce_padding): Identity()\n","        (_se_expand): Conv3d(22, 528, kernel_size=(1, 1, 1), stride=(1, 1, 1))\n","        (_se_expand_padding): Identity()\n","        (_project_conv): Conv3d(528, 120, kernel_size=(1, 1, 1), stride=(1, 1, 1), bias=False)\n","        (_project_conv_padding): Identity()\n","        (_bn2): BatchNorm3d(120, eps=0.001, momentum=0.01, affine=True, track_running_stats=True)\n","        (_swish): MemoryEfficientSwish()\n","      )\n","      (13): MBConvBlock(\n","        (_expand_conv): Conv3d(120, 720, kernel_size=(1, 1, 1), stride=(1, 1, 1), bias=False)\n","        (_expand_conv_padding): Identity()\n","        (_bn0): BatchNorm3d(720, eps=0.001, momentum=0.01, affine=True, track_running_stats=True)\n","        (_depthwise_conv): Conv3d(720, 720, kernel_size=(5, 5, 5), stride=(1, 1, 1), groups=720, bias=False)\n","        (_depthwise_conv_padding): ConstantPad3d(padding=(2, 2, 2, 2, 2, 2), value=0.0)\n","        (_bn1): BatchNorm3d(720, eps=0.001, momentum=0.01, affine=True, track_running_stats=True)\n","        (_se_adaptpool): AdaptiveAvgPool3d(output_size=1)\n","        (_se_reduce): Conv3d(720, 30, kernel_size=(1, 1, 1), stride=(1, 1, 1))\n","        (_se_reduce_padding): Identity()\n","        (_se_expand): Conv3d(30, 720, kernel_size=(1, 1, 1), stride=(1, 1, 1))\n","        (_se_expand_padding): Identity()\n","        (_project_conv): Conv3d(720, 120, kernel_size=(1, 1, 1), stride=(1, 1, 1), bias=False)\n","        (_project_conv_padding): Identity()\n","        (_bn2): BatchNorm3d(120, eps=0.001, momentum=0.01, affine=True, track_running_stats=True)\n","        (_swish): MemoryEfficientSwish()\n","      )\n","      (14): MBConvBlock(\n","        (_expand_conv): Conv3d(120, 720, kernel_size=(1, 1, 1), stride=(1, 1, 1), bias=False)\n","        (_expand_conv_padding): Identity()\n","        (_bn0): BatchNorm3d(720, eps=0.001, momentum=0.01, affine=True, track_running_stats=True)\n","        (_depthwise_conv): Conv3d(720, 720, kernel_size=(5, 5, 5), stride=(1, 1, 1), groups=720, bias=False)\n","        (_depthwise_conv_padding): ConstantPad3d(padding=(2, 2, 2, 2, 2, 2), value=0.0)\n","        (_bn1): BatchNorm3d(720, eps=0.001, momentum=0.01, affine=True, track_running_stats=True)\n","        (_se_adaptpool): AdaptiveAvgPool3d(output_size=1)\n","        (_se_reduce): Conv3d(720, 30, kernel_size=(1, 1, 1), stride=(1, 1, 1))\n","        (_se_reduce_padding): Identity()\n","        (_se_expand): Conv3d(30, 720, kernel_size=(1, 1, 1), stride=(1, 1, 1))\n","        (_se_expand_padding): Identity()\n","        (_project_conv): Conv3d(720, 120, kernel_size=(1, 1, 1), stride=(1, 1, 1), bias=False)\n","        (_project_conv_padding): Identity()\n","        (_bn2): BatchNorm3d(120, eps=0.001, momentum=0.01, affine=True, track_running_stats=True)\n","        (_swish): MemoryEfficientSwish()\n","      )\n","      (15): MBConvBlock(\n","        (_expand_conv): Conv3d(120, 720, kernel_size=(1, 1, 1), stride=(1, 1, 1), bias=False)\n","        (_expand_conv_padding): Identity()\n","        (_bn0): BatchNorm3d(720, eps=0.001, momentum=0.01, affine=True, track_running_stats=True)\n","        (_depthwise_conv): Conv3d(720, 720, kernel_size=(5, 5, 5), stride=(1, 1, 1), groups=720, bias=False)\n","        (_depthwise_conv_padding): ConstantPad3d(padding=(2, 2, 2, 2, 2, 2), value=0.0)\n","        (_bn1): BatchNorm3d(720, eps=0.001, momentum=0.01, affine=True, track_running_stats=True)\n","        (_se_adaptpool): AdaptiveAvgPool3d(output_size=1)\n","        (_se_reduce): Conv3d(720, 30, kernel_size=(1, 1, 1), stride=(1, 1, 1))\n","        (_se_reduce_padding): Identity()\n","        (_se_expand): Conv3d(30, 720, kernel_size=(1, 1, 1), stride=(1, 1, 1))\n","        (_se_expand_padding): Identity()\n","        (_project_conv): Conv3d(720, 120, kernel_size=(1, 1, 1), stride=(1, 1, 1), bias=False)\n","        (_project_conv_padding): Identity()\n","        (_bn2): BatchNorm3d(120, eps=0.001, momentum=0.01, affine=True, track_running_stats=True)\n","        (_swish): MemoryEfficientSwish()\n","      )\n","    )\n","    (5): Sequential(\n","      (16): MBConvBlock(\n","        (_expand_conv): Conv3d(120, 720, kernel_size=(1, 1, 1), stride=(1, 1, 1), bias=False)\n","        (_expand_conv_padding): Identity()\n","        (_bn0): BatchNorm3d(720, eps=0.001, momentum=0.01, affine=True, track_running_stats=True)\n","        (_depthwise_conv): Conv3d(720, 720, kernel_size=(5, 5, 5), stride=(2, 2, 2), groups=720, bias=False)\n","        (_depthwise_conv_padding): ConstantPad3d(padding=(2, 2, 2, 2, 2, 2), value=0.0)\n","        (_bn1): BatchNorm3d(720, eps=0.001, momentum=0.01, affine=True, track_running_stats=True)\n","        (_se_adaptpool): AdaptiveAvgPool3d(output_size=1)\n","        (_se_reduce): Conv3d(720, 30, kernel_size=(1, 1, 1), stride=(1, 1, 1))\n","        (_se_reduce_padding): Identity()\n","        (_se_expand): Conv3d(30, 720, kernel_size=(1, 1, 1), stride=(1, 1, 1))\n","        (_se_expand_padding): Identity()\n","        (_project_conv): Conv3d(720, 208, kernel_size=(1, 1, 1), stride=(1, 1, 1), bias=False)\n","        (_project_conv_padding): Identity()\n","        (_bn2): BatchNorm3d(208, eps=0.001, momentum=0.01, affine=True, track_running_stats=True)\n","        (_swish): MemoryEfficientSwish()\n","      )\n","      (17): MBConvBlock(\n","        (_expand_conv): Conv3d(208, 1248, kernel_size=(1, 1, 1), stride=(1, 1, 1), bias=False)\n","        (_expand_conv_padding): Identity()\n","        (_bn0): BatchNorm3d(1248, eps=0.001, momentum=0.01, affine=True, track_running_stats=True)\n","        (_depthwise_conv): Conv3d(1248, 1248, kernel_size=(5, 5, 5), stride=(1, 1, 1), groups=1248, bias=False)\n","        (_depthwise_conv_padding): ConstantPad3d(padding=(2, 2, 2, 2, 2, 2), value=0.0)\n","        (_bn1): BatchNorm3d(1248, eps=0.001, momentum=0.01, affine=True, track_running_stats=True)\n","        (_se_adaptpool): AdaptiveAvgPool3d(output_size=1)\n","        (_se_reduce): Conv3d(1248, 52, kernel_size=(1, 1, 1), stride=(1, 1, 1))\n","        (_se_reduce_padding): Identity()\n","        (_se_expand): Conv3d(52, 1248, kernel_size=(1, 1, 1), stride=(1, 1, 1))\n","        (_se_expand_padding): Identity()\n","        (_project_conv): Conv3d(1248, 208, kernel_size=(1, 1, 1), stride=(1, 1, 1), bias=False)\n","        (_project_conv_padding): Identity()\n","        (_bn2): BatchNorm3d(208, eps=0.001, momentum=0.01, affine=True, track_running_stats=True)\n","        (_swish): MemoryEfficientSwish()\n","      )\n","      (18): MBConvBlock(\n","        (_expand_conv): Conv3d(208, 1248, kernel_size=(1, 1, 1), stride=(1, 1, 1), bias=False)\n","        (_expand_conv_padding): Identity()\n","        (_bn0): BatchNorm3d(1248, eps=0.001, momentum=0.01, affine=True, track_running_stats=True)\n","        (_depthwise_conv): Conv3d(1248, 1248, kernel_size=(5, 5, 5), stride=(1, 1, 1), groups=1248, bias=False)\n","        (_depthwise_conv_padding): ConstantPad3d(padding=(2, 2, 2, 2, 2, 2), value=0.0)\n","        (_bn1): BatchNorm3d(1248, eps=0.001, momentum=0.01, affine=True, track_running_stats=True)\n","        (_se_adaptpool): AdaptiveAvgPool3d(output_size=1)\n","        (_se_reduce): Conv3d(1248, 52, kernel_size=(1, 1, 1), stride=(1, 1, 1))\n","        (_se_reduce_padding): Identity()\n","        (_se_expand): Conv3d(52, 1248, kernel_size=(1, 1, 1), stride=(1, 1, 1))\n","        (_se_expand_padding): Identity()\n","        (_project_conv): Conv3d(1248, 208, kernel_size=(1, 1, 1), stride=(1, 1, 1), bias=False)\n","        (_project_conv_padding): Identity()\n","        (_bn2): BatchNorm3d(208, eps=0.001, momentum=0.01, affine=True, track_running_stats=True)\n","        (_swish): MemoryEfficientSwish()\n","      )\n","      (19): MBConvBlock(\n","        (_expand_conv): Conv3d(208, 1248, kernel_size=(1, 1, 1), stride=(1, 1, 1), bias=False)\n","        (_expand_conv_padding): Identity()\n","        (_bn0): BatchNorm3d(1248, eps=0.001, momentum=0.01, affine=True, track_running_stats=True)\n","        (_depthwise_conv): Conv3d(1248, 1248, kernel_size=(5, 5, 5), stride=(1, 1, 1), groups=1248, bias=False)\n","        (_depthwise_conv_padding): ConstantPad3d(padding=(2, 2, 2, 2, 2, 2), value=0.0)\n","        (_bn1): BatchNorm3d(1248, eps=0.001, momentum=0.01, affine=True, track_running_stats=True)\n","        (_se_adaptpool): AdaptiveAvgPool3d(output_size=1)\n","        (_se_reduce): Conv3d(1248, 52, kernel_size=(1, 1, 1), stride=(1, 1, 1))\n","        (_se_reduce_padding): Identity()\n","        (_se_expand): Conv3d(52, 1248, kernel_size=(1, 1, 1), stride=(1, 1, 1))\n","        (_se_expand_padding): Identity()\n","        (_project_conv): Conv3d(1248, 208, kernel_size=(1, 1, 1), stride=(1, 1, 1), bias=False)\n","        (_project_conv_padding): Identity()\n","        (_bn2): BatchNorm3d(208, eps=0.001, momentum=0.01, affine=True, track_running_stats=True)\n","        (_swish): MemoryEfficientSwish()\n","      )\n","      (20): MBConvBlock(\n","        (_expand_conv): Conv3d(208, 1248, kernel_size=(1, 1, 1), stride=(1, 1, 1), bias=False)\n","        (_expand_conv_padding): Identity()\n","        (_bn0): BatchNorm3d(1248, eps=0.001, momentum=0.01, affine=True, track_running_stats=True)\n","        (_depthwise_conv): Conv3d(1248, 1248, kernel_size=(5, 5, 5), stride=(1, 1, 1), groups=1248, bias=False)\n","        (_depthwise_conv_padding): ConstantPad3d(padding=(2, 2, 2, 2, 2, 2), value=0.0)\n","        (_bn1): BatchNorm3d(1248, eps=0.001, momentum=0.01, affine=True, track_running_stats=True)\n","        (_se_adaptpool): AdaptiveAvgPool3d(output_size=1)\n","        (_se_reduce): Conv3d(1248, 52, kernel_size=(1, 1, 1), stride=(1, 1, 1))\n","        (_se_reduce_padding): Identity()\n","        (_se_expand): Conv3d(52, 1248, kernel_size=(1, 1, 1), stride=(1, 1, 1))\n","        (_se_expand_padding): Identity()\n","        (_project_conv): Conv3d(1248, 208, kernel_size=(1, 1, 1), stride=(1, 1, 1), bias=False)\n","        (_project_conv_padding): Identity()\n","        (_bn2): BatchNorm3d(208, eps=0.001, momentum=0.01, affine=True, track_running_stats=True)\n","        (_swish): MemoryEfficientSwish()\n","      )\n","    )\n","    (6): Sequential(\n","      (21): MBConvBlock(\n","        (_expand_conv): Conv3d(208, 1248, kernel_size=(1, 1, 1), stride=(1, 1, 1), bias=False)\n","        (_expand_conv_padding): Identity()\n","        (_bn0): BatchNorm3d(1248, eps=0.001, momentum=0.01, affine=True, track_running_stats=True)\n","        (_depthwise_conv): Conv3d(1248, 1248, kernel_size=(3, 3, 3), stride=(1, 1, 1), groups=1248, bias=False)\n","        (_depthwise_conv_padding): ConstantPad3d(padding=(1, 1, 1, 1, 1, 1), value=0.0)\n","        (_bn1): BatchNorm3d(1248, eps=0.001, momentum=0.01, affine=True, track_running_stats=True)\n","        (_se_adaptpool): AdaptiveAvgPool3d(output_size=1)\n","        (_se_reduce): Conv3d(1248, 52, kernel_size=(1, 1, 1), stride=(1, 1, 1))\n","        (_se_reduce_padding): Identity()\n","        (_se_expand): Conv3d(52, 1248, kernel_size=(1, 1, 1), stride=(1, 1, 1))\n","        (_se_expand_padding): Identity()\n","        (_project_conv): Conv3d(1248, 352, kernel_size=(1, 1, 1), stride=(1, 1, 1), bias=False)\n","        (_project_conv_padding): Identity()\n","        (_bn2): BatchNorm3d(352, eps=0.001, momentum=0.01, affine=True, track_running_stats=True)\n","        (_swish): MemoryEfficientSwish()\n","      )\n","      (22): MBConvBlock(\n","        (_expand_conv): Conv3d(352, 2112, kernel_size=(1, 1, 1), stride=(1, 1, 1), bias=False)\n","        (_expand_conv_padding): Identity()\n","        (_bn0): BatchNorm3d(2112, eps=0.001, momentum=0.01, affine=True, track_running_stats=True)\n","        (_depthwise_conv): Conv3d(2112, 2112, kernel_size=(3, 3, 3), stride=(1, 1, 1), groups=2112, bias=False)\n","        (_depthwise_conv_padding): ConstantPad3d(padding=(1, 1, 1, 1, 1, 1), value=0.0)\n","        (_bn1): BatchNorm3d(2112, eps=0.001, momentum=0.01, affine=True, track_running_stats=True)\n","        (_se_adaptpool): AdaptiveAvgPool3d(output_size=1)\n","        (_se_reduce): Conv3d(2112, 88, kernel_size=(1, 1, 1), stride=(1, 1, 1))\n","        (_se_reduce_padding): Identity()\n","        (_se_expand): Conv3d(88, 2112, kernel_size=(1, 1, 1), stride=(1, 1, 1))\n","        (_se_expand_padding): Identity()\n","        (_project_conv): Conv3d(2112, 352, kernel_size=(1, 1, 1), stride=(1, 1, 1), bias=False)\n","        (_project_conv_padding): Identity()\n","        (_bn2): BatchNorm3d(352, eps=0.001, momentum=0.01, affine=True, track_running_stats=True)\n","        (_swish): MemoryEfficientSwish()\n","      )\n","    )\n","  )\n","  (_conv_head): Conv3d(352, 1408, kernel_size=(1, 1, 1), stride=(1, 1, 1), bias=False)\n","  (_conv_head_padding): Identity()\n","  (_bn1): BatchNorm3d(1408, eps=0.001, momentum=0.01, affine=True, track_running_stats=True)\n","  (_avg_pooling): AdaptiveAvgPool3d(output_size=1)\n","  (_dropout): Dropout(p=0.3, inplace=False)\n","  (_fc): Linear(in_features=1408, out_features=2, bias=True)\n","  (_swish): MemoryEfficientSwish()\n",")"]},"metadata":{},"execution_count":22}],"source":["model.load_state_dict(torch.load('/content/drive/MyDrive/F4ENB2ADvsCNbest_metric_model_classification3d_dict.pth'))\n","model.eval()"]},{"cell_type":"code","execution_count":23,"metadata":{"id":"KW5rFKe3eOHg","executionInfo":{"status":"ok","timestamp":1650459
…
