…
.CrossEntropyLoss()\n","  optimizer = torch.optim.Adam(model.parameters(), 1e-4)\n","  auc_metric = ROCAUCMetric()"]},{"cell_type":"code","execution_count":44,"metadata":{"colab":{"base_uri":"https://localhost:8080/"},"executionInfo":{"elapsed":64,"status":"ok","timestamp":1650046661819,"user":{"displayName":"Deevyankar Agarwal","userId":"14882055139397387561"},"user_tz":-240},"id":"rfTuqU6DJbqG","outputId":"f8f51493-9223-4291-9eec-b8268dd1d272"},"outputs":[{"output_type":"stream","name":"stdout","text":["<bound method Module.parameters of DenseNet(\n","  (features): Sequential(\n","    (conv0): Conv3d(1, 64, kernel_size=(7, 7, 7), stride=(2, 2, 2), padding=(3, 3, 3), bias=False)\n","    (norm0): BatchNorm3d(64, eps=1e-05, momentum=0.1, affine=True, track_running_stats=True)\n","    (relu0): ReLU(inplace=True)\n","    (pool0): MaxPool3d(kernel_size=3, stride=2, padding=1, dilation=1, ceil_mode=False)\n","    (denseblock1): _DenseBlock(\n","      (denselayer1): _DenseLayer(\n","        (layers): Sequential(\n","          (norm1): BatchNorm3d(64, eps=1e-05, momentum=0.1, affine=True, track_running_stats=True)\n","          (relu1): ReLU(inplace=True)\n","          (conv1): Conv3d(64, 128, kernel_size=(1, 1, 1), stride=(1, 1, 1), bias=False)\n","          (norm2): BatchNorm3d(128, eps=1e-05, momentum=0.1, affine=True, track_running_stats=True)\n","          (relu2): ReLU(inplace=True)\n","          (conv2): Conv3d(128, 32, kernel_size=(3, 3, 3), stride=(1, 1, 1), padding=(1, 1, 1), bias=False)\n","        )\n","      )\n","      (denselayer2): _DenseLayer(\n","        (layers): Sequential(\n","          (norm1): BatchNorm3d(96, eps=1e-05, momentum=0.1, affine=True, track_running_stats=True)\n","          (relu1): ReLU(inplace=True)\n","          (conv1): Conv3d(96, 128, kernel_size=(1, 1, 1), stride=(1, 1, 1), bias=False)\n","          (norm2): BatchNorm3d(128, eps=1e-05, momentum=0.1, affine=True, track_running_stats=True)\n","          (relu2): ReLU(inplace=True)\n","          (conv2): Conv3d(128, 32, kernel_size=(3, 3, 3), stride=(1, 1, 1), padding=(1, 1, 1), bias=False)\n","        )\n","      )\n","      (denselayer3): _DenseLayer(\n","        (layers): Sequential(\n","          (norm1): BatchNorm3d(128, eps=1e-05, momentum=0.1, affine=True, track_running_stats=True)\n","          (relu1): ReLU(inplace=True)\n","          (conv1): Conv3d(128, 128, kernel_size=(1, 1, 1), stride=(1, 1, 1), bias=False)\n","          (norm2): BatchNorm3d(128, eps=1e-05, momentum=0.1, affine=True, track_running_stats=True)\n","          (relu2): ReLU(inplace=True)\n","          (conv2): Conv3d(128, 32, kernel_size=(3, 3, 3), stride=(1, 1, 1), padding=(1, 1, 1), bias=False)\n","        )\n","      )\n","      (denselayer4): _DenseLayer(\n","        (layers): Sequential(\n","          (norm1): BatchNorm3d(160, eps=1e-05, momentum=0.1, affine=True, track_running_stats=True)\n","          (relu1): ReLU(inplace=True)\n","          (conv1): Conv3d(160, 128, kernel_size=(1, 1, 1), stride=(1, 1, 1), bias=False)\n","          (norm2): BatchNorm3d(128, eps=1e-05, momentum=0.1, affine=True, track_running_stats=True)\n","          (relu2): ReLU(inplace=True)\n","          (conv2): Conv3d(128, 32, kernel_size=(3, 3, 3), stride=(1, 1, 1), padding=(1, 1, 1), bias=False)\n","        )\n","      )\n","      (denselayer5): _DenseLayer(\n","        (layers): Sequential(\n","          (norm1): BatchNorm3d(192, eps=1e-05, momentum=0.1, affine=True, track_running_stats=True)\n","          (relu1): ReLU(inplace=True)\n","          (conv1): Conv3d(192, 128, kernel_size=(1, 1, 1), stride=(1, 1, 1), bias=False)\n","          (norm2): BatchNorm3d(128, eps=1e-05, momentum=0.1, affine=True, track_running_stats=True)\n","          (relu2): ReLU(inplace=True)\n","          (conv2): Conv3d(128, 32, kernel_size=(3, 3, 3), stride=(1, 1, 1), padding=(1, 1, 1), bias=False)\n","        )\n","      )\n","      (denselayer6): _DenseLayer(\n","        (layers): Sequential(\n","          (norm1): BatchNorm3d(224, eps=1e-05, momentum=0.1, affine=True, track_running_stats=True)\n","          (relu1): ReLU(inplace=True)\n","          (conv1): Conv3d(224, 128, kernel_size=(1, 1, 1), stride=(1, 1, 1), bias=False)\n","          (norm2): BatchNorm3d(128, eps=1e-05, momentum=0.1, affine=True, track_running_stats=True)\n","          (relu2): ReLU(inplace=True)\n","          (conv2): Conv3d(128, 32, kernel_size=(3, 3, 3), stride=(1, 1, 1), padding=(1, 1, 1), bias=False)\n","        )\n","      )\n","    )\n","    (transition1): _Transition(\n","      (norm): BatchNorm3d(256, eps=1e-05, momentum=0.1, affine=True, track_running_stats=True)\n","      (relu): ReLU(inplace=True)\n","      (conv): Conv3d(256, 128, kernel_size=(1, 1, 1), stride=(1, 1, 1), bias=False)\n","      (pool): AvgPool3d(kernel_size=2, stride=2, padding=0)\n","    )\n","    (denseblock2): _DenseBlock(\n","      (denselayer1): _DenseLayer(\n","        (layers): Sequential(\n","          (norm1): BatchNorm3d(128, eps=1e-05, momentum=0.1, affine=True, track_running_stats=True)\n","          (relu1): ReLU(inplace=True)\n","          (conv1): Conv3d(128, 128, kernel_size=(1, 1, 1), stride=(1, 1, 1), bias=False)\n","          (norm2): BatchNorm3d(128, eps=1e-05, momentum=0.1, affine=True, track_running_stats=True)\n","          (relu2): ReLU(inplace=True)\n","          (conv2): Conv3d(128, 32, kernel_size=(3, 3, 3), stride=(1, 1, 1), padding=(1, 1, 1), bias=False)\n","        )\n","      )\n","      (denselayer2): _DenseLayer(\n","        (layers): Sequential(\n","          (norm1): BatchNorm3d(160, eps=1e-05, momentum=0.1, affine=True, track_running_stats=True)\n","          (relu1): ReLU(inplace=True)\n","          (conv1): Conv3d(160, 128, kernel_size=(1, 1, 1), stride=(1, 1, 1), bias=False)\n","          (norm2): BatchNorm3d(128, eps=1e-05, momentum=0.1, affine=True, track_running_stats=True)\n","          (relu2): ReLU(inplace=True)\n","          (conv2): Conv3d(128, 32, kernel_size=(3, 3, 3), stride=(1, 1, 1), padding=(1, 1, 1), bias=False)\n","        )\n","      )\n","      (denselayer3): _DenseLayer(\n","        (layers): Sequential(\n","          (norm1): BatchNorm3d(192, eps=1e-05, momentum=0.1, affine=True, track_running_stats=True)\n","          (relu1): ReLU(inplace=True)\n","          (conv1): Conv3d(192, 128, kernel_size=(1, 1, 1), stride=(1, 1, 1), bias=False)\n","          (norm2): BatchNorm3d(128, eps=1e-05, momentum=0.1, affine=True, track_running_stats=True)\n","          (relu2): ReLU(inplace=True)\n","          (conv2): Conv3d(128, 32, kernel_size=(3, 3, 3), stride=(1, 1, 1), padding=(1, 1, 1), bias=False)\n","        )\n","      )\n","      (denselayer4): _DenseLayer(\n","        (layers): Sequential(\n","          (norm1): BatchNorm3d(224, eps=1e-05, momentum=0.1, affine=True, track_running_stats=True)\n","          (relu1): ReLU(inplace=True)\n","          (conv1): Conv3d(224, 128, kernel_size=(1, 1, 1), stride=(1, 1, 1), bias=False)\n","          (norm2): BatchNorm3d(128, eps=1e-05, momentum=0.1, affine=True, track_running_stats=True)\n","          (relu2): ReLU(inplace=True)\n","          (conv2): Conv3d(128, 32, kernel_size=(3, 3, 3), stride=(1, 1, 1), padding=(1, 1, 1), bias=False)\n","        )\n","      )\n","      (denselayer5): _DenseLayer(\n","        (layers): Sequential(\n","          (norm1): BatchNorm3d(256, eps=1e-05, momentum=0.1, affine=True, track_running_stats=True)\n","          (relu1): ReLU(inplace=True)\n","          (conv1): Conv3d(256, 128, kernel_size=(1, 1, 1), stride=(1, 1, 1), bias=False)\n","          (norm2): BatchNorm3d(128, eps=1e-05, momentum=0.1, affine=True, track_running_stats=True)\n","          (relu2): ReLU(inplace=True)\n","          (conv2): Conv3d(128, 32, kernel_size=(3, 3, 3), stride=(1, 1, 1), padding=(1, 1, 1), bias=False)\n","        )\n","      )\n","      (denselayer6): _DenseLayer(\n","        (layers): Sequential(\n","          (norm1): BatchNorm3d(288, eps=1e-05, momentum=0.1, affine=True, track_running_stats=True)\n","          (relu1): ReLU(inplace=True)\n","          (conv1): Conv3d(288, 128, kernel_size=(1, 1, 1), stride=(1, 1, 1), bias=False)\n","          (norm2): BatchNorm3d(128, eps=1e-05, momentum=0.1, affine=True, track_running_stats=True)\n","          (relu2): ReLU(inplace=True)\n","          (conv2): Conv3d(128, 32, kernel_size=(3, 3, 3), stride=(1, 1, 1), padding=(1, 1, 1), bias=False)\n","        )\n","      )\n","      (denselayer7): _DenseLayer(\n","        (layers): Sequential(\n","          (norm1): BatchNorm3d(320, eps=1e-05, momentum=0.1, affine=True, track_running_stats=True)\n","          (relu1): ReLU(inplace=True)\n","          (conv1): Conv3d(320, 128, kernel_size=(1, 1, 1), stride=(1, 1, 1), bias=False)\n","          (norm2): BatchNorm3d(128, eps=1e-05, momentum=0.1, affine=True, track_running_stats=True)\n","          (relu2): ReLU(inplace=True)\n","          (conv2): Conv3d(128, 32, kernel_size=(3, 3, 3), stride=(1, 1, 1), padding=(1, 1, 1), bias=False)\n","        )\n","      )\n","      (denselayer8): _DenseLayer(\n","        (layers): Sequential(\n","          (norm1): BatchNorm3d(352, eps=1e-05, momentum=0.1, affine=True, track_running_stats=True)\n","          (relu1): ReLU(inplace=True)\n","          (conv1): Conv3d(352, 128, kernel_size=(1, 1, 1), stride=(1, 1, 1), bias=False)\n","          (norm2): BatchNorm3d(128, eps=1e-05, momentum=0.1, affine=True, track_running_stats=True)\n","          (relu2): ReLU(inplace=True)\n","          (conv2): Conv3d(128, 32, kernel_size=(3, 3, 3), stride=(1, 1, 1), padding=(1, 1, 1), bias=False)\n","        )\n","      )\n","      (denselayer9): _DenseLayer(\n","        (layers): Sequential(\n","          (norm1): BatchNorm3d(384, eps=1e-05, momentum=0.1, affine=True, track_running_stats=True)\n","          (relu1): ReLU(inplace=True)\n","          (conv1): Conv3d(384, 128, kernel_size=(1, 1, 1), stride=(1, 1, 1), bias=False)\n","          (norm2): BatchNorm3d(128, eps=1e-05, momentum=0.1, affine=True, track_running_stats=True)\n","          (relu2): ReLU(inplace=True)\n","          (conv2): Conv3d(128, 32, kernel_size=(3, 3, 3), stride=(1, 1, 1), padding=(1, 1, 1), bias=False)\n","        )\n","      )\n","      (denselayer10): _DenseLayer(\n","        (layers): Sequential(\n","          (norm1): BatchNorm3d(416, eps=1e-05, momentum=0.1, affine=True, track_running_stats=True)\n","          (relu1): ReLU(inplace=True)\n","          (conv1): Conv3d(416, 128, kernel_size=(1, 1, 1), stride=(1, 1, 1), bias=False)\n","          (norm2): BatchNorm3d(128, eps=1e-05, momentum=0.1, affine=True, track_running_stats=True)\n","          (relu2): ReLU(inplace=True)\n","          (conv2): Conv3d(128, 32, kernel_size=(3, 3, 3), stride=(1, 1, 1), padding=(1, 1, 1), bias=False)\n","        )\n","      )\n","      (denselayer11): _DenseLayer(\n","        (layers): Sequential(\n","          (norm1): BatchNorm3d(448, eps=1e-05, momentum=0.1, affine=True, track_running_stats=True)\n","          (relu1): ReLU(inplace=True)\n","          (conv1): Conv3d(448, 128, kernel_size=(1, 1, 1), stride=(1, 1, 1), bias=False)\n","          (norm2): BatchNorm3d(128, eps=1e-05, momentum=0.1, affine=True, track_running_stats=True)\n","          (relu2): ReLU(inplace=True)\n","          (conv2): Conv3d(128, 32, kernel_size=(3, 3, 3), stride=(1, 1, 1), padding=(1, 1, 1), bias=False)\n","        )\n","      )\n","      (denselayer12): _DenseLayer(\n","        (layers): Sequential(\n","          (norm1): BatchNorm3d(480, eps=1e-05, momentum=0.1, affine=True, track_running_stats=True)\n","          (relu1): ReLU(inplace=True)\n","          (conv1): Conv3d(480, 128, kernel_size=(1, 1, 1), stride=(1, 1, 1), bias=False)\n","          (norm2): BatchNorm3d(128, eps=1e-05, momentum=0.1, affine=True, track_running_stats=True)\n","          (relu2): ReLU(inplace=True)\n","          (conv2): Conv3d(128, 32, kernel_size=(3, 3, 3), stride=(1, 1, 1), padding=(1, 1, 1), bias=False)\n","        )\n","      )\n","    )\n","    (transition2): _Transition(\n","      (norm): BatchNorm3d(512, eps=1e-05, momentum=0.1, affine=True, track_running_stats=True)\n","      (relu): ReLU(inplace=True)\n","      (conv): Conv3d(512, 256, kernel_size=(1, 1, 1), stride=(1, 1, 1), bias=False)\n","      (pool): AvgPool3d(kernel_size=2, stride=2, padding=0)\n","    )\n","    (denseblock3): _DenseBlock(\n","      (denselayer1): _DenseLayer(\n","        (layers): Sequential(\n","          (norm1): BatchNorm3d(256, eps=1e-05, momentum=0.1, affine=True, track_running_stats=True)\n","          (relu1): ReLU(inplace=True)\n","          (conv1): Conv3d(256, 128, kernel_size=(1, 1, 1), stride=(1, 1, 1), bias=False)\n","          (norm2): BatchNorm3d(128, eps=1e-05, momentum=0.1, affine=True, track_running_stats=True)\n","          (relu2): ReLU(inplace=True)\n","          (conv2): Conv3d(128, 32, kernel_size=(3, 3, 3), stride=(1, 1, 1), padding=(1, 1, 1), bias=False)\n","        )\n","      )\n","      (denselayer2): _DenseLayer(\n","        (layers): Sequential(\n","          (norm1): BatchNorm3d(288, eps=1e-05, momentum=0.1, affine=True, track_running_stats=True)\n","          (relu1): ReLU(inplace=True)\n","          (conv1): Conv3d(288, 128, kernel_size=(1, 1, 1), stride=(1, 1, 1), bias=False)\n","          (norm2): BatchNorm3d(128, eps=1e-05, momentum=0.1, affine=True, track_running_stats=True)\n","          (relu2): ReLU(inplace=True)\n","          (conv2): Conv3d(128, 32, kernel_size=(3, 3, 3), stride=(1, 1, 1), padding=(1, 1, 1), bias=False)\n","        )\n","      )\n","      (denselayer3): _DenseLayer(\n","        (layers): Sequential(\n","          (norm1): BatchNorm3d(320, eps=1e-05, momentum=0.1, affine=True, track_running_stats=True)\n","          (relu1): ReLU(inplace=True)\n","          (conv1): Conv3d(320, 128, kernel_size=(1, 1, 1), stride=(1, 1, 1), bias=False)\n","          (norm2): BatchNorm3d(128, eps=1e-05, momentum=0.1, affine=True, track_running_stats=True)\n","          (relu2): ReLU(inplace=True)\n","          (conv2): Conv3d(128, 32, kernel_size=(3, 3, 3), stride=(1, 1, 1), padding=(1, 1, 1), bias=False)\n","        )\n","      )\n","      (denselayer4): _DenseLayer(\n","        (layers): Sequential(\n","          (norm1): BatchNorm3d(352, eps=1e-05, momentum=0.1, affine=True, track_running_stats=True)\n","          (relu1): ReLU(inplace=True)\n","          (conv1): Conv3d(352, 128, kernel_size=(1, 1, 1), stride=(1, 1, 1), bias=False)\n","          (norm2): BatchNorm3d(128, eps=1e-05, momentum=0.1, affine=True, track_running_stats=True)\n","          (relu2): ReLU(inplace=True)\n","          (conv2): Conv3d(128, 32, kernel_size=(3, 3, 3), stride=(1, 1, 1), padding=(1, 1, 1), bias=False)\n","        )\n","      )\n","      (denselayer5): _DenseLayer(\n","        (layers): Sequential(\n","          (norm1): BatchNorm3d(384, eps=1e-05, momentum=0.1, affine=True, track_running_stats=True)\n","          (relu1): ReLU(inplace=True)\n","          (conv1): Conv3d(384, 128, kernel_size=(1, 1, 1), stride=(1, 1, 1), bias=False)\n","          (norm2): BatchNorm3d(128, eps=1e-05, momentum=0.1, affine=True, track_running_stats=True)\n","          (relu2): ReLU(inplace=True)\n","          (conv2): Conv3d(128, 32, kernel_size=(3, 3, 3), stride=(1, 1, 1), padding=(1, 1, 1), bias=False)\n","        )\n","      )\n","      (denselayer6): _DenseLayer(\n","        (layers): Sequential(\n","          (norm1): BatchNorm3d(416, eps=1e-05, momentum=0.1, affine=True, track_running_stats=True)\n","          (relu1): ReLU(inplace=True)\n","          (conv1): Conv3d(416, 128, kernel_size=(1, 1, 1), stride=(1, 1, 1), bias=False)\n","          (norm2): BatchNorm3d(128, eps=1e-05, momentum=0.1, affine=True, track_running_stats=True)\n","          (relu2): ReLU(inplace=True)\n","          (conv2): Conv3d(128, 32, kernel_size=(3, 3, 3), stride=(1, 1, 1), padding=(1, 1, 1), bias=False)\n","        )\n","      )\n","      (denselayer7): _DenseLayer(\n","        (layers): Sequential(\n","          (norm1): BatchNorm3d(448, eps=1e-05, momentum=0.1, affine=True, track_running_stats=True)\n","          (relu1): ReLU(inplace=True)\n","          (conv1): Conv3d(448, 128, kernel_size=(1, 1, 1), stride=(1, 1, 1), bias=False)\n","          (norm2): BatchNorm3d(128, eps=1e-05, momentum=0.1, affine=True, track_running_stats=True)\n","          (relu2): ReLU(inplace=True)\n","          (conv2): Conv3d(128, 32, kernel_size=(3, 3, 3), stride=(1, 1, 1), padding=(1, 1, 1), bias=False)\n","        )\n","      )\n","      (denselayer8): _DenseLayer(\n","        (layers): Sequential(\n","          (norm1): BatchNorm3d(480, eps=1e-05, momentum=0.1, affine=True, track_running_stats=True)\n","          (relu1): ReLU(inplace=True)\n","          (conv1): Conv3d(480, 128, kernel_size=(1, 1, 1), stride=(1, 1, 1), bias=False)\n","          (norm2): BatchNorm3d(128, eps=1e-05, momentum=0.1, affine=True, track_running_stats=True)\n","          (relu2): ReLU(inplace=True)\n","          (conv2): Conv3d(128, 32, kernel_size=(3, 3, 3), stride=(1, 1, 1), padding=(1, 1, 1), bias=False)\n","        )\n","      )\n","      (denselayer9): _DenseLayer(\n","        (layers): Sequential(\n","          (norm1): BatchNorm3d(512, eps=1e-05, momentum=0.1, affine=True, track_running_stats=True)\n","          (relu1): ReLU(inplace=True)\n","          (conv1): Conv3d(512, 128, kernel_size=(1, 1, 1), stride=(1, 1, 1), bias=False)\n","          (norm2): BatchNorm3d(128, eps=1e-05, momentum=0.1, affine=True, track_running_stats=True)\n","          (relu2): ReLU(inplace=True)\n","          (conv2): Conv3d(128, 32, kernel_size=(3, 3, 3), stride=(1, 1, 1), padding=(1, 1, 1), bias=False)\n","        )\n","      )\n","      (denselayer10): _DenseLayer(\n","        (layers): Sequential(\n","          (norm1): BatchNorm3d(544, eps=1e-05, momentum=0.1, affine=True, track_running_stats=True)\n","          (relu1): ReLU(inplace=True)\n","          (conv1): Conv3d(544, 128, kernel_size=(1, 1, 1), stride=(1, 1, 1), bias=False)\n","          (norm2): BatchNorm3d(128, eps=1e-05, momentum=0.1, affine=True, track_running_stats=True)\n","          (relu2): ReLU(inplace=True)\n","          (conv2): Conv3d(128, 32, kernel_size=(3, 3, 3), stride=(1, 1, 1), padding=(1, 1, 1), bias=False)\n","        )\n","      )\n","      (denselayer11): _DenseLayer(\n","        (layers): Sequential(\n","          (norm1): BatchNorm3d(576, eps=1e-05, momentum=0.1, affine=True, track_running_stats=True)\n","          (relu1): ReLU(inplace=True)\n","          (conv1): Conv3d(576, 128, kernel_size=(1, 1, 1), stride=(1, 1, 1), bias=False)\n","          (norm2): BatchNorm3d(128, eps=1e-05, momentum=0.1, affine=True, track_running_stats=True)\n","          (relu2): ReLU(inplace=True)\n","          (conv2): Conv3d(128, 32, kernel_size=(3, 3, 3), stride=(1, 1, 1), padding=(1, 1, 1), bias=False)\n","        )\n","      )\n","      (denselayer12): _DenseLayer(\n","        (layers): Sequential(\n","          (norm1): BatchNorm3d(608, eps=1e-05, momentum=0.1, affine=True, track_running_stats=True)\n","          (relu1): ReLU(inplace=True)\n","          (conv1): Conv3d(608, 128, kernel_size=(1, 1, 1), stride=(1, 1, 1), bias=False)\n","          (norm2): BatchNorm3d(128, eps=1e-05, momentum=0.1, affine=True, track_running_stats=True)\n","          (relu2): ReLU(inplace=True)\n","          (conv2): Conv3d(128, 32, kernel_size=(3, 3, 3), stride=(1, 1, 1), padding=(1, 1, 1), bias=False)\n","        )\n","      )\n","      (denselayer13): _DenseLayer(\n","        (layers): Sequential(\n","          (norm1): BatchNorm3d(640, eps=1e-05, momentum=0.1, affine=True, track_running_stats=True)\n","          (relu1): ReLU(inplace=True)\n","          (conv1): Conv3d(640, 128, kernel_size=(1, 1, 1), stride=(1, 1, 1), bias=False)\n","          (norm2): BatchNorm3d(128, eps=1e-05, momentum=0.1, affine=True, track_running_stats=True)\n","          (relu2): ReLU(inplace=True)\n","          (conv2): Conv3d(128, 32, kernel_size=(3, 3, 3), stride=(1, 1, 1), padding=(1, 1, 1), bias=False)\n","        )\n","      )\n","      (denselayer14): _DenseLayer(\n","        (layers): Sequential(\n","          (norm1): BatchNorm3d(672, eps=1e-05, momentum=0.1, affine=True, track_running_stats=True)\n","          (relu1): ReLU(inplace=True)\n","          (conv1): Conv3d(672, 128, kernel_size=(1, 1, 1), stride=(1, 1, 1), bias=False)\n","          (norm2): BatchNorm3d(128, eps=1e-05, momentum=0.1, affine=True, track_running_stats=True)\n","          (relu2): ReLU(inplace=True)\n","          (conv2): Conv3d(128, 32, kernel_size=(3, 3, 3), stride=(1, 1, 1), padding=(1, 1, 1), bias=False)\n","        )\n","      )\n","      (denselayer15): _DenseLayer(\n","        (layers): Sequential(\n","          (norm1): BatchNorm3d(704, eps=1e-05, momentum=0.1, affine=True, track_running_stats=True)\n","          (relu1): ReLU(inplace=True)\n","          (conv1): Conv3d(704, 128, kernel_size=(1, 1, 1), stride=(1, 1, 1), bias=False)\n","          (norm2): BatchNorm3d(128, eps=1e-05, momentum=0.1, affine=True, track_running_stats=True)\n","          (relu2): ReLU(inplace=True)\n","          (conv2): Conv3d(128, 32, kernel_size=(3, 3, 3), stride=(1, 1, 1), padding=(1, 1, 1), bias=False)\n","        )\n","      )\n","      (denselayer16): _DenseLayer(\n","        (layers): Sequential(\n","          (norm1): BatchNorm3d(736, eps=1e-05, momentum=0.1, affine=True, track_running_stats=True)\n","          (relu1): ReLU(inplace=True)\n","          (conv1): Conv3d(736, 128, kernel_size=(1, 1, 1), stride=(1, 1, 1), bias=False)\n","          (norm2): BatchNorm3d(128, eps=1e-05, momentum=0.1, affine=True, track_running_stats=True)\n","          (relu2): ReLU(inplace=True)\n","          (conv2): Conv3d(128, 32, kernel_size=(3, 3, 3), stride=(1, 1, 1), padding=(1, 1, 1), bias=False)\n","        )\n","      )\n","      (denselayer17): _DenseLayer(\n","        (layers): Sequential(\n","          (norm1): BatchNorm3d(768, eps=1e-05, momentum=0.1, affine=True, track_running_stats=True)\n","          (relu1): ReLU(inplace=True)\n","          (conv1): Conv3d(768, 128, kernel_size=(1, 1, 1), stride=(1, 1, 1), bias=False)\n","          (norm2): BatchNorm3d(128, eps=1e-05, momentum=0.1, affine=True, track_running_stats=True)\n","          (relu2): ReLU(inplace=True)\n","          (conv2): Conv3d(128, 32, kernel_size=(3, 3, 3), stride=(1, 1, 1), padding=(1, 1, 1), bias=False)\n","        )\n","      )\n","      (denselayer18): _DenseLayer(\n","        (layers): Sequential(\n","          (norm1): BatchNorm3d(800, eps=1e-05, momentum=0.1, affine=True, track_running_stats=True)\n","          (relu1): ReLU(inplace=True)\n","          (conv1): Conv3d(800, 128, kernel_size=(1, 1, 1), stride=(1, 1, 1), bias=False)\n","          (norm2): BatchNorm3d(128, eps=1e-05, momentum=0.1, affine=True, track_running_stats=True)\n","          (relu2): ReLU(inplace=True)\n","          (conv2): Conv3d(128, 32, kernel_size=(3, 3, 3), stride=(1, 1, 1), padding=(1, 1, 1), bias=False)\n","        )\n","      )\n","      (denselayer19): _DenseLayer(\n","        (layers): Sequential(\n","          (norm1): BatchNorm3d(832, eps=1e-05, momentum=0.1, affine=True, track_running_stats=True)\n","          (relu1): ReLU(inplace=True)\n","          (conv1): Conv3d(832, 128, kernel_size=(1, 1, 1), stride=(1, 1, 1), bias=False)\n","          (norm2): BatchNorm3d(128, eps=1e-05, momentum=0.1, affine=True, track_running_stats=True)\n","          (relu2): ReLU(inplace=True)\n","          (conv2): Conv3d(128, 32, kernel_size=(3, 3, 3), stride=(1, 1, 1), padding=(1, 1, 1), bias=False)\n","        )\n","      )\n","      (denselayer20): _DenseLayer(\n","        (layers): Sequential(\n","          (norm1): BatchNorm3d(864, eps=1e-05, momentum=0.1, affine=True, track_running_stats=True)\n","          (relu1): ReLU(inplace=True)\n","          (conv1): Conv3d(864, 128, kernel_size=(1, 1, 1), stride=(1, 1, 1), bias=False)\n","          (norm2): BatchNorm3d(128, eps=1e-05, momentum=0.1, affine=True, track_running_stats=True)\n","          (relu2): ReLU(inplace=True)\n","          (conv2): Conv3d(128, 32, kernel_size=(3, 3, 3), stride=(1, 1, 1), padding=(1, 1, 1), bias=False)\n","        )\n","      )\n","      (denselayer21): _DenseLayer(\n","        (layers): Sequential(\n","          (norm1): BatchNorm3d(896, eps=1e-05, momentum=0.1, affine=True, track_running_stats=True)\n","          (relu1): ReLU(inplace=True)\n","          (conv1): Conv3d(896, 128, kernel_size=(1, 1, 1), stride=(1, 1, 1), bias=False)\n","          (norm2): BatchNorm3d(128, eps=1e-05, momentum=0.1, affine=True, track_running_stats=True)\n","          (relu2): ReLU(inplace=True)\n","          (conv2): Conv3d(128, 32, kernel_size=(3, 3, 3), stride=(1, 1, 1), padding=(1, 1, 1), bias=False)\n","        )\n","      )\n","      (denselayer22): _DenseLayer(\n","        (layers): Sequential(\n","          (norm1): BatchNorm3d(928, eps=1e-05, momentum=0.1, affine=True, track_running_stats=True)\n","          (relu1): ReLU(inplace=True)\n","          (conv1): Conv3d(928, 128, kernel_size=(1, 1, 1), stride=(1, 1, 1), bias=False)\n","          (norm2): BatchNorm3d(128, eps=1e-05, momentum=0.1, affine=True, track_running_stats=True)\n","          (relu2): ReLU(inplace=True)\n","          (conv2): Conv3d(128, 32, kernel_size=(3, 3, 3), stride=(1, 1, 1), padding=(1, 1, 1), bias=False)\n","        )\n","      )\n","      (denselayer23): _DenseLayer(\n","        (layers): Sequential(\n","          (norm1): BatchNorm3d(960, eps=1e-05, momentum=0.1, affine=True, track_running_stats=True)\n","          (relu1): ReLU(inplace=True)\n","          (conv1): Conv3d(960, 128, kernel_size=(1, 1, 1), stride=(1, 1, 1), bias=False)\n","          (norm2): BatchNorm3d(128, eps=1e-05, momentum=0.1, affine=True, track_running_stats=True)\n","          (relu2): ReLU(inplace=True)\n","          (conv2): Conv3d(128, 32, kernel_size=(3, 3, 3), stride=(1, 1, 1), padding=(1, 1, 1), bias=False)\n","        )\n","      )\n","      (denselayer24): _DenseLayer(\n","        (layers): Sequential(\n","          (norm1): BatchNorm3d(992, eps=1e-05, momentum=0.1, affine=True, track_running_stats=True)\n","          (relu1): ReLU(inplace=True)\n","          (conv1): Conv3d(992, 128, kernel_size=(1, 1, 1), stride=(1, 1, 1), bias=False)\n","          (norm2): BatchNorm3d(128, eps=1e-05, momentum=0.1, affine=True, track_running_stats=True)\n","          (relu2): ReLU(inplace=True)\n","          (conv2): Conv3d(128, 32, kernel_size=(3, 3, 3), stride=(1, 1, 1), padding=(1, 1, 1), bias=False)\n","        )\n","      )\n","    )\n","    (transition3): _Transition(\n","      (norm): BatchNorm3d(1024, eps=1e-05, momentum=0.1, affine=True, track_running_stats=True)\n","      (relu): ReLU(inplace=True)\n","      (conv): Conv3d(1024, 512, kernel_size=(1, 1, 1), stride=(1, 1, 1), bias=False)\n","      (pool): AvgPool3d(kernel_size=2, stride=2, padding=0)\n","    )\n","    (denseblock4): _DenseBlock(\n","      (denselayer1): _DenseLayer(\n","        (layers): Sequential(\n","          (norm1): BatchNorm3d(512, eps=1e-05, momentum=0.1, affine=True, track_running_stats=True)\n","          (relu1): ReLU(inplace=True)\n","          (conv1): Conv3d(512, 128, kernel_size=(1, 1, 1), stride=(1, 1, 1), bias=False)\n","          (norm2): BatchNorm3d(128, eps=1e-05, momentum=0.1, affine=True, track_running_stats=True)\n","          (relu2): ReLU(inplace=True)\n","          (conv2): Conv3d(128, 32, kernel_size=(3, 3, 3), stride=(1, 1, 1), padding=(1, 1, 1), bias=False)\n","        )\n","      )\n","      (denselayer2): _DenseLayer(\n","        (layers): Sequential(\n","          (norm1): BatchNorm3d(544, eps=1e-05, momentum=0.1, affine=True, track_running_stats=True)\n","          (relu1): ReLU(inplace=True)\n","          (conv1): Conv3d(544, 128, kernel_size=(1, 1, 1), stride=(1, 1, 1), bias=False)\n","          (norm2): BatchNorm3d(128, eps=1e-05, momentum=0.1, affine=True, track_running_stats=True)\n","          (relu2): ReLU(inplace=True)\n","          (conv2): Conv3d(128, 32, kernel_size=(3, 3, 3), stride=(1, 1, 1), padding=(1, 1, 1), bias=False)\n","        )\n","      )\n","      (denselayer3): _DenseLayer(\n","        (layers): Sequential(\n","          (norm1): BatchNorm3d(576, eps=1e-05, momentum=0.1, affine=True, track_running_stats=True)\n","          (relu1): ReLU(inplace=True)\n","          (conv1): Conv3d(576, 128, kernel_size=(1, 1, 1), stride=(1, 1, 1), bias=False)\n","          (norm2): BatchNorm3d(128, eps=1e-05, momentum=0.1, affine=True, track_running_stats=True)\n","          (relu2): ReLU(inplace=True)\n","          (conv2): Conv3d(128, 32, kernel_size=(3, 3, 3), stride=(1, 1, 1), padding=(1, 1, 1), bias=False)\n","        )\n","      )\n","      (denselayer4): _DenseLayer(\n","        (layers): Sequential(\n","          (norm1): BatchNorm3d(608, eps=1e-05, momentum=0.1, affine=True, track_running_stats=True)\n","          (relu1): ReLU(inplace=True)\n","          (conv1): Conv3d(608, 128, kernel_size=(1, 1, 1), stride=(1, 1, 1), bias=False)\n","          (norm2): BatchNorm3d(128, eps=1e-05, momentum=0.1, affine=True, track_running_stats=True)\n","          (relu2): ReLU(inplace=True)\n","          (conv2): Conv3d(128, 32, kernel_size=(3, 3, 3), stride=(1, 1, 1), padding=(1, 1, 1), bias=False)\n","        )\n","      )\n","      (denselayer5): _DenseLayer(\n","        (layers): Sequential(\n","          (norm1): BatchNorm3d(640, eps=1e-05, momentum=0.1, affine=True, track_running_stats=True)\n","          (relu1): ReLU(inplace=True)\n","          (conv1): Conv3d(640, 128, kernel_size=(1, 1, 1), stride=(1, 1, 1), bias=False)\n","          (norm2): BatchNorm3d(128, eps=1e-05, momentum=0.1, affine=True, track_running_stats=True)\n","          (relu2): ReLU(inplace=True)\n","          (conv2): Conv3d(128, 32, kernel_size=(3, 3, 3), stride=(1, 1, 1), padding=(1, 1, 1), bias=False)\n","        )\n","      )\n","      (denselayer6): _DenseLayer(\n","        (layers): Sequential(\n","          (norm1): BatchNorm3d(672, eps=1e-05, momentum=0.1, affine=True, track_running_stats=True)\n","          (relu1): ReLU(inplace=True)\n","          (conv1): Conv3d(672, 128, kernel_size=(1, 1, 1), stride=(1, 1, 1), bias=False)\n","          (norm2): BatchNorm3d(128, eps=1e-05, momentum=0.1, affine=True, track_running_stats=True)\n","          (relu2): ReLU(inplace=True)\n","          (conv2): Conv3d(128, 32, kernel_size=(3, 3, 3), stride=(1, 1, 1), padding=(1, 1, 1), bias=False)\n","        )\n","      )\n","      (denselayer7): _DenseLayer(\n","        (layers): Sequential(\n","          (norm1): BatchNorm3d(704, eps=1e-05, momentum=0.1, affine=True, track_running_stats=True)\n","          (relu1): ReLU(inplace=True)\n","          (conv1): Conv3d(704, 128, kernel_size=(1, 1, 1), stride=(1, 1, 1), bias=False)\n","          (norm2): BatchNorm3d(128, eps=1e-05, momentum=0.1, affine=True, track_running_stats=True)\n","          (relu2): ReLU(inplace=True)\n","          (conv2): Conv3d(128, 32, kernel_size=(3, 3, 3), stride=(1, 1, 1), padding=(1, 1, 1), bias=False)\n","        )\n","      )\n","      (denselayer8): _DenseLayer(\n","        (layers): Sequential(\n","          (norm1): BatchNorm3d(736, eps=1e-05, momentum=0.1, affine=True, track_running_stats=True)\n","          (relu1): ReLU(inplace=True)\n","          (conv1): Conv3d(736, 128, kernel_size=(1, 1, 1), stride=(1, 1, 1), bias=False)\n","          (norm2): BatchNorm3d(128, eps=1e-05, momentum=0.1, affine=True, track_running_stats=True)\n","          (relu2): ReLU(inplace=True)\n","          (conv2): Conv3d(128, 32, kernel_size=(3, 3, 3), stride=(1, 1, 1), padding=(1, 1, 1), bias=False)\n","        )\n","      )\n","      (denselayer9): _DenseLayer(\n","        (layers): Sequential(\n","          (norm1): BatchNorm3d(768, eps=1e-05, momentum=0.1, affine=True, track_running_stats=True)\n","          (relu1): ReLU(inplace=True)\n","          (conv1): Conv3d(768, 128, kernel_size=(1, 1, 1), stride=(1, 1, 1), bias=False)\n","          (norm2): BatchNorm3d(128, eps=1e-05, momentum=0.1, affine=True, track_running_stats=True)\n","          (relu2): ReLU(inplace=True)\n","          (conv2): Conv3d(128, 32, kernel_size=(3, 3, 3), stride=(1, 1, 1), padding=(1, 1, 1), bias=False)\n","        )\n","      )\n","      (denselayer10): _DenseLayer(\n","        (layers): Sequential(\n","          (norm1): BatchNorm3d(800, eps=1e-05, momentum=0.1, affine=True, track_running_stats=True)\n","          (relu1): ReLU(inplace=True)\n","          (conv1): Conv3d(800, 128, kernel_size=(1, 1, 1), stride=(1, 1, 1), bias=False)\n","          (norm2): BatchNorm3d(128, eps=1e-05, momentum=0.1, affine=True, track_running_stats=True)\n","          (relu2): ReLU(inplace=True)\n","          (conv2): Conv3d(128, 32, kernel_size=(3, 3, 3), stride=(1, 1, 1), padding=(1, 1, 1), bias=False)\n","        )\n","      )\n","      (denselayer11): _DenseLayer(\n","        (layers): Sequential(\n","          (norm1): BatchNorm3d(832, eps=1e-05, momentum=0.1, affine=True, track_running_stats=True)\n","          (relu1): ReLU(inplace=True)\n","          (conv1): Conv3d(832, 128, kernel_size=(1, 1, 1), stride=(1, 1, 1), bias=False)\n","          (norm2): BatchNorm3d(128, eps=1e-05, momentum=0.1, affine=True, track_running_stats=True)\n","          (relu2): ReLU(inplace=True)\n","          (conv2): Conv3d(128, 32, kernel_size=(3, 3, 3), stride=(1, 1, 1), padding=(1, 1, 1), bias=False)\n","        )\n","      )\n","      (denselayer12): _DenseLayer(\n","        (layers): Sequential(\n","          (norm1): BatchNorm3d(864, eps=1e-05, momentum=0.1, affine=True, track_running_stats=True)\n","          (relu1): ReLU(inplace=True)\n","          (conv1): Conv3d(864, 128, kernel_size=(1, 1, 1), stride=(1, 1, 1), bias=False)\n","          (norm2): BatchNorm3d(128, eps=1e-05, momentum=0.1, affine=True, track_running_stats=True)\n","          (relu2): ReLU(inplace=True)\n","          (conv2): Conv3d(128, 32, kernel_size=(3, 3, 3), stride=(1, 1, 1), padding=(1, 1, 1), bias=False)\n","        )\n","      )\n","      (denselayer13): _DenseLayer(\n","        (layers): Sequential(\n","          (norm1): BatchNorm3d(896, eps=1e-05, momentum=0.1, affine=True, track_running_stats=True)\n","          (relu1): ReLU(inplace=True)\n","          (conv1): Conv3d(896, 128, kernel_size=(1, 1, 1), stride=(1, 1, 1), bias=False)\n","          (norm2): BatchNorm3d(128, eps=1e-05, momentum=0.1, affine=True, track_running_stats=True)\n","          (relu2): ReLU(inplace=True)\n","          (conv2): Conv3d(128, 32, kernel_size=(3, 3, 3), stride=(1, 1, 1), padding=(1, 1, 1), bias=False)\n","        )\n","      )\n","      (denselayer14): _DenseLayer(\n","        (layers): Sequential(\n","          (norm1): BatchNorm3d(928, eps=1e-05, momentum=0.1, affine=True, track_running_stats=True)\n","          (relu1): ReLU(inplace=True)\n","          (conv1): Conv3d(928, 128, kernel_size=(1, 1, 1), stride=(1, 1, 1), bias=False)\n","          (norm2): BatchNorm3d(128, eps=1e-05, momentum=0.1, affine=True, track_running_stats=True)\n","          (relu2): ReLU(inplace=True)\n","          (conv2): Conv3d(128, 32, kernel_size=(3, 3, 3), stride=(1, 1, 1), padding=(1, 1, 1), bias=False)\n","        )\n","      )\n","      (denselayer15): _DenseLayer(\n","        (layers): Sequential(\n","          (norm1): BatchNorm3d(960, eps=1e-05, momentum=0.1, affine=True, track_running_stats=True)\n","          (relu1): ReLU(inplace=True)\n","          (conv1): Conv3d(960, 128, kernel_size=(1, 1, 1), stride=(1, 1, 1), bias=False)\n","          (norm2): BatchNorm3d(128, eps=1e-05, momentum=0.1, affine=True, track_running_stats=True)\n","          (relu2): ReLU(inplace=True)\n","          (conv2): Conv3d(128, 32, kernel_size=(3, 3, 3), stride=(1, 1, 1), padding=(1, 1, 1), bias=False)\n","        )\n","      )\n","      (denselayer16): _DenseLayer(\n","        (layers): Sequential(\n","          (norm1): BatchNorm3d(992, eps=1e-05, momentum=0.1, affine=True, track_running_stats=True)\n","          (relu1): ReLU(inplace=True)\n","          (conv1): Conv3d(992, 128, kernel_size=(1, 1, 1), stride=(1, 1, 1), bias=False)\n","          (norm2): BatchNorm3d(128, eps=1e-05, momentum=0.1, affine=True, track_running_stats=True)\n","          (relu2): ReLU(inplace=True)\n","          (conv2): Conv3d(128, 32, kernel_size=(3, 3, 3), stride=(1, 1, 1), padding=(1, 1, 1), bias=False)\n","        )\n","      )\n","    )\n","    (norm5): BatchNorm3d(1024, eps=1e-05, momentum=0.1, affine=True, track_running_stats=True)\n","  )\n","  (class_layers): Sequential(\n","    (relu): ReLU(inplace=True)\n","    (pool): AdaptiveAvgPool3d(output_size=1)\n","    (flatten): Flatten(start_dim=1, end_dim=-1)\n","    (out): Linear(in_features=1024, out_features=2, bias=True)\n","  )\n",")>\n"]}],"source":["print(model.parameters)"]},{"cell_type":"code","execution_count":45,"metadata":{"colab":{"base_uri":"https://localhost:8080/"},"id":"Ve31g7LaVSGl","outputId":"e7000fc5-9771-42c6-a67a-401b0f3483fe","executionInfo":{"status":"ok","timestamp":1650054331969,"user_tz":-240,"elapsed":7669540,"user":{"displayName":"Deevyankar Ag
…
============================|\n","+-----------------------------------------------------------------------------+\n"]}],"source":["!nvidia-smi "]},{"cell_type":"code","execution_count":50,"metadata":{"colab":{"base_uri":"https://localhost:8080/"},"id":"pn5KWnRv7nhh","outputId":"68fb3f06-46a6-4842-bf29-23e58492dd04","executionInfo":{"status":"ok","timestamp":1650054332969,"user_tz":-240,"elapsed":31,"user":{"displayName":"Deevyankar Agarwal","userId":"14882055139397387561"}}},"outputs":[{"output_type":"execute_result","data":{"text/plain":["DenseNet(\n","  (features): Sequential(\n","    (conv0): Conv3d(1, 64, kernel_size=(7, 7, 7), stride=(2, 2, 2), padding=(3, 3, 3), bias=False)\n","    (norm0): BatchNorm3d(64, eps=1e-05, momentum=0.1, affine=True, track_running_stats=True)\n","    (relu0): ReLU(inplace=True)\n","    (pool0): MaxPool3d(kernel_size=3, stride=2, padding=1, dilation=1, ceil_mode=False)\n","    (denseblock1): _DenseBlock(\n","      (denselayer1): _DenseLayer(\n","        (layers): Sequential(\n","          (norm1): BatchNorm3d(64, eps=1e-05, momentum=0.1, affine=True, track_running_stats=True)\n","          (relu1): ReLU(inplace=True)\n","          (conv1): Conv3d(64, 128, kernel_size=(1, 1, 1), stride=(1, 1, 1), bias=False)\n","          (norm2): BatchNorm3d(128, eps=1e-05, momentum=0.1, affine=True, track_running_stats=True)\n","          (relu2): ReLU(inplace=True)\n","          (conv2): Conv3d(128, 32, kernel_size=(3, 3, 3), stride=(1, 1, 1), padding=(1, 1, 1), bias=False)\n","        )\n","      )\n","      (denselayer2): _DenseLayer(\n","        (layers): Sequential(\n","          (norm1): BatchNorm3d(96, eps=1e-05, momentum=0.1, affine=True, track_running_stats=True)\n","          (relu1): ReLU(inplace=True)\n","          (conv1): Conv3d(96, 128, kernel_size=(1, 1, 1), stride=(1, 1, 1), bias=False)\n","          (norm2): BatchNorm3d(128, eps=1e-05, momentum=0.1, affine=True, track_running_stats=True)\n","          (relu2): ReLU(inplace=True)\n","          (conv2): Conv3d(128, 32, kernel_size=(3, 3, 3), stride=(1, 1, 1), padding=(1, 1, 1), bias=False)\n","        )\n","      )\n","      (denselayer3): _DenseLayer(\n","        (layers): Sequential(\n","          (norm1): BatchNorm3d(128, eps=1e-05, momentum=0.1, affine=True, track_running_stats=True)\n","          (relu1): ReLU(inplace=True)\n","          (conv1): Conv3d(128, 128, kernel_size=(1, 1, 1), stride=(1, 1, 1), bias=False)\n","          (norm2): BatchNorm3d(128, eps=1e-05, momentum=0.1, affine=True, track_running_stats=True)\n","          (relu2): ReLU(inplace=True)\n","          (conv2): Conv3d(128, 32, kernel_size=(3, 3, 3), stride=(1, 1, 1), padding=(1, 1, 1), bias=False)\n","        )\n","      )\n","      (denselayer4): _DenseLayer(\n","        (layers): Sequential(\n","          (norm1): BatchNorm3d(160, eps=1e-05, momentum=0.1, affine=True, track_running_stats=True)\n","          (relu1): ReLU(inplace=True)\n","          (conv1): Conv3d(160, 128, kernel_size=(1, 1, 1), stride=(1, 1, 1), bias=False)\n","          (norm2): BatchNorm3d(128, eps=1e-05, momentum=0.1, affine=True, track_running_stats=True)\n","          (relu2): ReLU(inplace=True)\n","          (conv2): Conv3d(128, 32, kernel_size=(3, 3, 3), stride=(1, 1, 1), padding=(1, 1, 1), bias=False)\n","        )\n","      )\n","      (denselayer5): _DenseLayer(\n","        (layers): Sequential(\n","          (norm1): BatchNorm3d(192, eps=1e-05, momentum=0.1, affine=True, track_running_stats=True)\n","          (relu1): ReLU(inplace=True)\n","          (conv1): Conv3d(192, 128, kernel_size=(1, 1, 1), stride=(1, 1, 1), bias=False)\n","          (norm2): BatchNorm3d(128, eps=1e-05, momentum=0.1, affine=True, track_running_stats=True)\n","          (relu2): ReLU(inplace=True)\n","          (conv2): Conv3d(128, 32, kernel_size=(3, 3, 3), stride=(1, 1, 1), padding=(1, 1, 1), bias=False)\n","        )\n","      )\n","      (denselayer6): _DenseLayer(\n","        (layers): Sequential(\n","          (norm1): BatchNorm3d(224, eps=1e-05, momentum=0.1, affine=True, track_running_stats=True)\n","          (relu1): ReLU(inplace=True)\n","          (conv1): Conv3d(224, 128, kernel_size=(1, 1, 1), stride=(1, 1, 1), bias=False)\n","          (norm2): BatchNorm3d(128, eps=1e-05, momentum=0.1, affine=True, track_running_stats=True)\n","          (relu2): ReLU(inplace=True)\n","          (conv2): Conv3d(128, 32, kernel_size=(3, 3, 3), stride=(1, 1, 1), padding=(1, 1, 1), bias=False)\n","        )\n","      )\n","    )\n","    (transition1): _Transition(\n","      (norm): BatchNorm3d(256, eps=1e-05, momentum=0.1, affine=True, track_running_stats=True)\n","      (relu): ReLU(inplace=True)\n","      (conv): Conv3d(256, 128, kernel_size=(1, 1, 1), stride=(1, 1, 1), bias=False)\n","      (pool): AvgPool3d(kernel_size=2, stride=2, padding=0)\n","    )\n","    (denseblock2): _DenseBlock(\n","      (denselayer1): _DenseLayer(\n","        (layers): Sequential(\n","          (norm1): BatchNorm3d(128, eps=1e-05, momentum=0.1, affine=True, track_running_stats=True)\n","          (relu1): ReLU(inplace=True)\n","          (conv1): Conv3d(128, 128, kernel_size=(1, 1, 1), stride=(1, 1, 1), bias=False)\n","          (norm2): BatchNorm3d(128, eps=1e-05, momentum=0.1, affine=True, track_running_stats=True)\n","          (relu2): ReLU(inplace=True)\n","          (conv2): Conv3d(128, 32, kernel_size=(3, 3, 3), stride=(1, 1, 1), padding=(1, 1, 1), bias=False)\n","        )\n","      )\n","      (denselayer2): _DenseLayer(\n","        (layers): Sequential(\n","          (norm1): BatchNorm3d(160, eps=1e-05, momentum=0.1, affine=True, track_running_stats=True)\n","          (relu1): ReLU(inplace=True)\n","          (conv1): Conv3d(160, 128, kernel_size=(1, 1, 1), stride=(1, 1, 1), bias=False)\n","          (norm2): BatchNorm3d(128, eps=1e-05, momentum=0.1, affine=True, track_running_stats=True)\n","          (relu2): ReLU(inplace=True)\n","          (conv2): Conv3d(128, 32, kernel_size=(3, 3, 3), stride=(1, 1, 1), padding=(1, 1, 1), bias=False)\n","        )\n","      )\n","      (denselayer3): _DenseLayer(\n","        (layers): Sequential(\n","          (norm1): BatchNorm3d(192, eps=1e-05, momentum=0.1, affine=True, track_running_stats=True)\n","          (relu1): ReLU(inplace=True)\n","          (conv1): Conv3d(192, 128, kernel_size=(1, 1, 1), stride=(1, 1, 1), bias=False)\n","          (norm2): BatchNorm3d(128, eps=1e-05, momentum=0.1, affine=True, track_running_stats=True)\n","          (relu2): ReLU(inplace=True)\n","          (conv2): Conv3d(128, 32, kernel_size=(3, 3, 3), stride=(1, 1, 1), padding=(1, 1, 1), bias=False)\n","        )\n","      )\n","      (denselayer4): _DenseLayer(\n","        (layers): Sequential(\n","          (norm1): BatchNorm3d(224, eps=1e-05, momentum=0.1, affine=True, track_running_stats=True)\n","          (relu1): ReLU(inplace=True)\n","          (conv1): Conv3d(224, 128, kernel_size=(1, 1, 1), stride=(1, 1, 1), bias=False)\n","          (norm2): BatchNorm3d(128, eps=1e-05, momentum=0.1, affine=True, track_running_stats=True)\n","          (relu2): ReLU(inplace=True)\n","          (conv2): Conv3d(128, 32, kernel_size=(3, 3, 3), stride=(1, 1, 1), padding=(1, 1, 1), bias=False)\n","        )\n","      )\n","      (denselayer5): _DenseLayer(\n","        (layers): Sequential(\n","          (norm1): BatchNorm3d(256, eps=1e-05, momentum=0.1, affine=True, track_running_stats=True)\n","          (relu1): ReLU(inplace=True)\n","          (conv1): Conv3d(256, 128, kernel_size=(1, 1, 1), stride=(1, 1, 1), bias=False)\n","          (norm2): BatchNorm3d(128, eps=1e-05, momentum=0.1, affine=True, track_running_stats=True)\n","          (relu2): ReLU(inplace=True)\n","          (conv2): Conv3d(128, 32, kernel_size=(3, 3, 3), stride=(1, 1, 1), padding=(1, 1, 1), bias=False)\n","        )\n","      )\n","      (denselayer6): _DenseLayer(\n","        (layers): Sequential(\n","          (norm1): BatchNorm3d(288, eps=1e-05, momentum=0.1, affine=True, track_running_stats=True)\n","          (relu1): ReLU(inplace=True)\n","          (conv1): Conv3d(288, 128, kernel_size=(1, 1, 1), stride=(1, 1, 1), bias=False)\n","          (norm2): BatchNorm3d(128, eps=1e-05, momentum=0.1, affine=True, track_running_stats=True)\n","          (relu2): ReLU(inplace=True)\n","          (conv2): Conv3d(128, 32, kernel_size=(3, 3, 3), stride=(1, 1, 1), padding=(1, 1, 1), bias=False)\n","        )\n","      )\n","      (denselayer7): _DenseLayer(\n","        (layers): Sequential(\n","          (norm1): BatchNorm3d(320, eps=1e-05, momentum=0.1, affine=True, track_running_stats=True)\n","          (relu1): ReLU(inplace=True)\n","          (conv1): Conv3d(320, 128, kernel_size=(1, 1, 1), stride=(1, 1, 1), bias=False)\n","          (norm2): BatchNorm3d(128, eps=1e-05, momentum=0.1, affine=True, track_running_stats=True)\n","          (relu2): ReLU(inplace=True)\n","          (conv2): Conv3d(128, 32, kernel_size=(3, 3, 3), stride=(1, 1, 1), padding=(1, 1, 1), bias=False)\n","        )\n","      )\n","      (denselayer8): _DenseLayer(\n","        (layers): Sequential(\n","          (norm1): BatchNorm3d(352, eps=1e-05, momentum=0.1, affine=True, track_running_stats=True)\n","          (relu1): ReLU(inplace=True)\n","          (conv1): Conv3d(352, 128, kernel_size=(1, 1, 1), stride=(1, 1, 1), bias=False)\n","          (norm2): BatchNorm3d(128, eps=1e-05, momentum=0.1, affine=True, track_running_stats=True)\n","          (relu2): ReLU(inplace=True)\n","          (conv2): Conv3d(128, 32, kernel_size=(3, 3, 3), stride=(1, 1, 1), padding=(1, 1, 1), bias=False)\n","        )\n","      )\n","      (denselayer9): _DenseLayer(\n","        (layers): Sequential(\n","          (norm1): BatchNorm3d(384, eps=1e-05, momentum=0.1, affine=True, track_running_stats=True)\n","          (relu1): ReLU(inplace=True)\n","          (conv1): Conv3d(384, 128, kernel_size=(1, 1, 1), stride=(1, 1, 1), bias=False)\n","          (norm2): BatchNorm3d(128, eps=1e-05, momentum=0.1, affine=True, track_running_stats=True)\n","          (relu2): ReLU(inplace=True)\n","          (conv2): Conv3d(128, 32, kernel_size=(3, 3, 3), stride=(1, 1, 1), padding=(1, 1, 1), bias=False)\n","        )\n","      )\n","      (denselayer10): _DenseLayer(\n","        (layers): Sequential(\n","          (norm1): BatchNorm3d(416, eps=1e-05, momentum=0.1, affine=True, track_running_stats=True)\n","          (relu1): ReLU(inplace=True)\n","          (conv1): Conv3d(416, 128, kernel_size=(1, 1, 1), stride=(1, 1, 1), bias=False)\n","          (norm2): BatchNorm3d(128, eps=1e-05, momentum=0.1, affine=True, track_running_stats=True)\n","          (relu2): ReLU(inplace=True)\n","          (conv2): Conv3d(128, 32, kernel_size=(3, 3, 3), stride=(1, 1, 1), padding=(1, 1, 1), bias=False)\n","        )\n","      )\n","      (denselayer11): _DenseLayer(\n","        (layers): Sequential(\n","          (norm1): BatchNorm3d(448, eps=1e-05, momentum=0.1, affine=True, track_running_stats=True)\n","          (relu1): ReLU(inplace=True)\n","          (conv1): Conv3d(448, 128, kernel_size=(1, 1, 1), stride=(1, 1, 1), bias=False)\n","          (norm2): BatchNorm3d(128, eps=1e-05, momentum=0.1, affine=True, track_running_stats=True)\n","          (relu2): ReLU(inplace=True)\n","          (conv2): Conv3d(128, 32, kernel_size=(3, 3, 3), stride=(1, 1, 1), padding=(1, 1, 1), bias=False)\n","        )\n","      )\n","      (denselayer12): _DenseLayer(\n","        (layers): Sequential(\n","          (norm1): BatchNorm3d(480, eps=1e-05, momentum=0.1, affine=True, track_running_stats=True)\n","          (relu1): ReLU(inplace=True)\n","          (conv1): Conv3d(480, 128, kernel_size=(1, 1, 1), stride=(1, 1, 1), bias=False)\n","          (norm2): BatchNorm3d(128, eps=1e-05, momentum=0.1, affine=True, track_running_stats=True)\n","          (relu2): ReLU(inplace=True)\n","          (conv2): Conv3d(128, 32, kernel_size=(3, 3, 3), stride=(1, 1, 1), padding=(1, 1, 1), bias=False)\n","        )\n","      )\n","    )\n","    (transition2): _Transition(\n","      (norm): BatchNorm3d(512, eps=1e-05, momentum=0.1, affine=True, track_running_stats=True)\n","      (relu): ReLU(inplace=True)\n","      (conv): Conv3d(512, 256, kernel_size=(1, 1, 1), stride=(1, 1, 1), bias=False)\n","      (pool): AvgPool3d(kernel_size=2, stride=2, padding=0)\n","    )\n","    (denseblock3): _DenseBlock(\n","      (denselayer1): _DenseLayer(\n","        (layers): Sequential(\n","          (norm1): BatchNorm3d(256, eps=1e-05, momentum=0.1, affine=True, track_running_stats=True)\n","          (relu1): ReLU(inplace=True)\n","          (conv1): Conv3d(256, 128, kernel_size=(1, 1, 1), stride=(1, 1, 1), bias=False)\n","          (norm2): BatchNorm3d(128, eps=1e-05, momentum=0.1, affine=True, track_running_stats=True)\n","          (relu2): ReLU(inplace=True)\n","          (conv2): Conv3d(128, 32, kernel_size=(3, 3, 3), stride=(1, 1, 1), padding=(1, 1, 1), bias=False)\n","        )\n","      )\n","      (denselayer2): _DenseLayer(\n","        (layers): Sequential(\n","          (norm1): BatchNorm3d(288, eps=1e-05, momentum=0.1, affine=True, track_running_stats=True)\n","          (relu1): ReLU(inplace=True)\n","          (conv1): Conv3d(288, 128, kernel_size=(1, 1, 1), stride=(1, 1, 1), bias=False)\n","          (norm2): BatchNorm3d(128, eps=1e-05, momentum=0.1, affine=True, track_running_stats=True)\n","          (relu2): ReLU(inplace=True)\n","          (conv2): Conv3d(128, 32, kernel_size=(3, 3, 3), stride=(1, 1, 1), padding=(1, 1, 1), bias=False)\n","        )\n","      )\n","      (denselayer3): _DenseLayer(\n","        (layers): Sequential(\n","          (norm1): BatchNorm3d(320, eps=1e-05, momentum=0.1, affine=True, track_running_stats=True)\n","          (relu1): ReLU(inplace=True)\n","          (conv1): Conv3d(320, 128, kernel_size=(1, 1, 1), stride=(1, 1, 1), bias=False)\n","          (norm2): BatchNorm3d(128, eps=1e-05, momentum=0.1, affine=True, track_running_stats=True)\n","          (relu2): ReLU(inplace=True)\n","          (conv2): Conv3d(128, 32, kernel_size=(3, 3, 3), stride=(1, 1, 1), padding=(1, 1, 1), bias=False)\n","        )\n","      )\n","      (denselayer4): _DenseLayer(\n","        (layers): Sequential(\n","          (norm1): BatchNorm3d(352, eps=1e-05, momentum=0.1, affine=True, track_running_stats=True)\n","          (relu1): ReLU(inplace=True)\n","          (conv1): Conv3d(352, 128, kernel_size=(1, 1, 1), stride=(1, 1, 1), bias=False)\n","          (norm2): BatchNorm3d(128, eps=1e-05, momentum=0.1, affine=True, track_running_stats=True)\n","          (relu2): ReLU(inplace=True)\n","          (conv2): Conv3d(128, 32, kernel_size=(3, 3, 3), stride=(1, 1, 1), padding=(1, 1, 1), bias=False)\n","        )\n","      )\n","      (denselayer5): _DenseLayer(\n","        (layers): Sequential(\n","          (norm1): BatchNorm3d(384, eps=1e-05, momentum=0.1, affine=True, track_running_stats=True)\n","          (relu1): ReLU(inplace=True)\n","          (conv1): Conv3d(384, 128, kernel_size=(1, 1, 1), stride=(1, 1, 1), bias=False)\n","          (norm2): BatchNorm3d(128, eps=1e-05, momentum=0.1, affine=True, track_running_stats=True)\n","          (relu2): ReLU(inplace=True)\n","          (conv2): Conv3d(128, 32, kernel_size=(3, 3, 3), stride=(1, 1, 1), padding=(1, 1, 1), bias=False)\n","        )\n","      )\n","      (denselayer6): _DenseLayer(\n","        (layers): Sequential(\n","          (norm1): BatchNorm3d(416, eps=1e-05, momentum=0.1, affine=True, track_running_stats=True)\n","          (relu1): ReLU(inplace=True)\n","          (conv1): Conv3d(416, 128, kernel_size=(1, 1, 1), stride=(1, 1, 1), bias=False)\n","          (norm2): BatchNorm3d(128, eps=1e-05, momentum=0.1, affine=True, track_running_stats=True)\n","          (relu2): ReLU(inplace=True)\n","          (conv2): Conv3d(128, 32, kernel_size=(3, 3, 3), stride=(1, 1, 1), padding=(1, 1, 1), bias=False)\n","        )\n","      )\n","      (denselayer7): _DenseLayer(\n","        (layers): Sequential(\n","          (norm1): BatchNorm3d(448, eps=1e-05, momentum=0.1, affine=True, track_running_stats=True)\n","          (relu1): ReLU(inplace=True)\n","          (conv1): Conv3d(448, 128, kernel_size=(1, 1, 1), stride=(1, 1, 1), bias=False)\n","          (norm2): BatchNorm3d(128, eps=1e-05, momentum=0.1, affine=True, track_running_stats=True)\n","          (relu2): ReLU(inplace=True)\n","          (conv2): Conv3d(128, 32, kernel_size=(3, 3, 3), stride=(1, 1, 1), padding=(1, 1, 1), bias=False)\n","        )\n","      )\n","      (denselayer8): _DenseLayer(\n","        (layers): Sequential(\n","          (norm1): BatchNorm3d(480, eps=1e-05, momentum=0.1, affine=True, track_running_stats=True)\n","          (relu1): ReLU(inplace=True)\n","          (conv1): Conv3d(480, 128, kernel_size=(1, 1, 1), stride=(1, 1, 1), bias=False)\n","          (norm2): BatchNorm3d(128, eps=1e-05, momentum=0.1, affine=True, track_running_stats=True)\n","          (relu2): ReLU(inplace=True)\n","          (conv2): Conv3d(128, 32, kernel_size=(3, 3, 3), stride=(1, 1, 1), padding=(1, 1, 1), bias=False)\n","        )\n","      )\n","      (denselayer9): _DenseLayer(\n","        (layers): Sequential(\n","          (norm1): BatchNorm3d(512, eps=1e-05, momentum=0.1, affine=True, track_running_stats=True)\n","          (relu1): ReLU(inplace=True)\n","          (conv1): Conv3d(512, 128, kernel_size=(1, 1, 1), stride=(1, 1, 1), bias=False)\n","          (norm2): BatchNorm3d(128, eps=1e-05, momentum=0.1, affine=True, track_running_stats=True)\n","          (relu2): ReLU(inplace=True)\n","          (conv2): Conv3d(128, 32, kernel_size=(3, 3, 3), stride=(1, 1, 1), padding=(1, 1, 1), bias=False)\n","        )\n","      )\n","      (denselayer10): _DenseLayer(\n","        (layers): Sequential(\n","          (norm1): BatchNorm3d(544, eps=1e-05, momentum=0.1, affine=True, track_running_stats=True)\n","          (relu1): ReLU(inplace=True)\n","          (conv1): Conv3d(544, 128, kernel_size=(1, 1, 1), stride=(1, 1, 1), bias=False)\n","          (norm2): BatchNorm3d(128, eps=1e-05, momentum=0.1, affine=True, track_running_stats=True)\n","          (relu2): ReLU(inplace=True)\n","          (conv2): Conv3d(128, 32, kernel_size=(3, 3, 3), stride=(1, 1, 1), padding=(1, 1, 1), bias=False)\n","        )\n","      )\n","      (denselayer11): _DenseLayer(\n","        (layers): Sequential(\n","          (norm1): BatchNorm3d(576, eps=1e-05, momentum=0.1, affine=True, track_running_stats=True)\n","          (relu1): ReLU(inplace=True)\n","          (conv1): Conv3d(576, 128, kernel_size=(1, 1, 1), stride=(1, 1, 1), bias=False)\n","          (norm2): BatchNorm3d(128, eps=1e-05, momentum=0.1, affine=True, track_running_stats=True)\n","          (relu2): ReLU(inplace=True)\n","          (conv2): Conv3d(128, 32, kernel_size=(3, 3, 3), stride=(1, 1, 1), padding=(1, 1, 1), bias=False)\n","        )\n","      )\n","      (denselayer12): _DenseLayer(\n","        (layers): Sequential(\n","          (norm1): BatchNorm3d(608, eps=1e-05, momentum=0.1, affine=True, track_running_stats=True)\n","          (relu1): ReLU(inplace=True)\n","          (conv1): Conv3d(608, 128, kernel_size=(1, 1, 1), stride=(1, 1, 1), bias=False)\n","          (norm2): BatchNorm3d(128, eps=1e-05, momentum=0.1, affine=True, track_running_stats=True)\n","          (relu2): ReLU(inplace=True)\n","          (conv2): Conv3d(128, 32, kernel_size=(3, 3, 3), stride=(1, 1, 1), padding=(1, 1, 1), bias=False)\n","        )\n","      )\n","      (denselayer13): _DenseLayer(\n","        (layers): Sequential(\n","          (norm1): BatchNorm3d(640, eps=1e-05, momentum=0.1, affine=True, track_running_stats=True)\n","          (relu1): ReLU(inplace=True)\n","          (conv1): Conv3d(640, 128, kernel_size=(1, 1, 1), stride=(1, 1, 1), bias=False)\n","          (norm2): BatchNorm3d(128, eps=1e-05, momentum=0.1, affine=True, track_running_stats=True)\n","          (relu2): ReLU(inplace=True)\n","          (conv2): Conv3d(128, 32, kernel_size=(3, 3, 3), stride=(1, 1, 1), padding=(1, 1, 1), bias=False)\n","        )\n","      )\n","      (denselayer14): _DenseLayer(\n","        (layers): Sequential(\n","          (norm1): BatchNorm3d(672, eps=1e-05, momentum=0.1, affine=True, track_running_stats=True)\n","          (relu1): ReLU(inplace=True)\n","          (conv1): Conv3d(672, 128, kernel_size=(1, 1, 1), stride=(1, 1, 1), bias=False)\n","          (norm2): BatchNorm3d(128, eps=1e-05, momentum=0.1, affine=True, track_running_stats=True)\n","          (relu2): ReLU(inplace=True)\n","          (conv2): Conv3d(128, 32, kernel_size=(3, 3, 3), stride=(1, 1, 1), padding=(1, 1, 1), bias=False)\n","        )\n","      )\n","      (denselayer15): _DenseLayer(\n","        (layers): Sequential(\n","          (norm1): BatchNorm3d(704, eps=1e-05, momentum=0.1, affine=True, track_running_stats=True)\n","          (relu1): ReLU(inplace=True)\n","          (conv1): Conv3d(704, 128, kernel_size=(1, 1, 1), stride=(1, 1, 1), bias=False)\n","          (norm2): BatchNorm3d(128, eps=1e-05, momentum=0.1, affine=True, track_running_stats=True)\n","          (relu2): ReLU(inplace=True)\n","          (conv2): Conv3d(128, 32, kernel_size=(3, 3, 3), stride=(1, 1, 1), padding=(1, 1, 1), bias=False)\n","        )\n","      )\n","      (denselayer16): _DenseLayer(\n","        (layers): Sequential(\n","          (norm1): BatchNorm3d(736, eps=1e-05, momentum=0.1, affine=True, track_running_stats=True)\n","          (relu1): ReLU(inplace=True)\n","          (conv1): Conv3d(736, 128, kernel_size=(1, 1, 1), stride=(1, 1, 1), bias=False)\n","          (norm2): BatchNorm3d(128, eps=1e-05, momentum=0.1, affine=True, track_running_stats=True)\n","          (relu2): ReLU(inplace=True)\n","          (conv2): Conv3d(128, 32, kernel_size=(3, 3, 3), stride=(1, 1, 1), padding=(1, 1, 1), bias=False)\n","        )\n","      )\n","      (denselayer17): _DenseLayer(\n","        (layers): Sequential(\n","          (norm1): BatchNorm3d(768, eps=1e-05, momentum=0.1, affine=True, track_running_stats=True)\n","          (relu1): ReLU(inplace=True)\n","          (conv1): Conv3d(768, 128, kernel_size=(1, 1, 1), stride=(1, 1, 1), bias=False)\n","          (norm2): BatchNorm3d(128, eps=1e-05, momentum=0.1, affine=True, track_running_stats=True)\n","          (relu2): ReLU(inplace=True)\n","          (conv2): Conv3d(128, 32, kernel_size=(3, 3, 3), stride=(1, 1, 1), padding=(1, 1, 1), bias=False)\n","        )\n","      )\n","      (denselayer18): _DenseLayer(\n","        (layers): Sequential(\n","          (norm1): BatchNorm3d(800, eps=1e-05, momentum=0.1, affine=True, track_running_stats=True)\n","          (relu1): ReLU(inplace=True)\n","          (conv1): Conv3d(800, 128, kernel_size=(1, 1, 1), stride=(1, 1, 1), bias=False)\n","          (norm2): BatchNorm3d(128, eps=1e-05, momentum=0.1, affine=True, track_running_stats=True)\n","          (relu2): ReLU(inplace=True)\n","          (conv2): Conv3d(128, 32, kernel_size=(3, 3, 3), stride=(1, 1, 1), padding=(1, 1, 1), bias=False)\n","        )\n","      )\n","      (denselayer19): _DenseLayer(\n","        (layers): Sequential(\n","          (norm1): BatchNorm3d(832, eps=1e-05, momentum=0.1, affine=True, track_running_stats=True)\n","          (relu1): ReLU(inplace=True)\n","          (conv1): Conv3d(832, 128, kernel_size=(1, 1, 1), stride=(1, 1, 1), bias=False)\n","          (norm2): BatchNorm3d(128, eps=1e-05, momentum=0.1, affine=True, track_running_stats=True)\n","          (relu2): ReLU(inplace=True)\n","          (conv2): Conv3d(128, 32, kernel_size=(3, 3, 3), stride=(1, 1, 1), padding=(1, 1, 1), bias=False)\n","        )\n","      )\n","      (denselayer20): _DenseLayer(\n","        (layers): Sequential(\n","          (norm1): BatchNorm3d(864, eps=1e-05, momentum=0.1, affine=True, track_running_stats=True)\n","          (relu1): ReLU(inplace=True)\n","          (conv1): Conv3d(864, 128, kernel_size=(1, 1, 1), stride=(1, 1, 1), bias=False)\n","          (norm2): BatchNorm3d(128, eps=1e-05, momentum=0.1, affine=True, track_running_stats=True)\n","          (relu2): ReLU(inplace=True)\n","          (conv2): Conv3d(128, 32, kernel_size=(3, 3, 3), stride=(1, 1, 1), padding=(1, 1, 1), bias=False)\n","        )\n","      )\n","      (denselayer21): _DenseLayer(\n","        (layers): Sequential(\n","          (norm1): BatchNorm3d(896, eps=1e-05, momentum=0.1, affine=True, track_running_stats=True)\n","          (relu1): ReLU(inplace=True)\n","          (conv1): Conv3d(896, 128, kernel_size=(1, 1, 1), stride=(1, 1, 1), bias=False)\n","          (norm2): BatchNorm3d(128, eps=1e-05, momentum=0.1, affine=True, track_running_stats=True)\n","          (relu2): ReLU(inplace=True)\n","          (conv2): Conv3d(128, 32, kernel_size=(3, 3, 3), stride=(1, 1, 1), padding=(1, 1, 1), bias=False)\n","        )\n","      )\n","      (denselayer22): _DenseLayer(\n","        (layers): Sequential(\n","          (norm1): BatchNorm3d(928, eps=1e-05, momentum=0.1, affine=True, track_running_stats=True)\n","          (relu1): ReLU(inplace=True)\n","          (conv1): Conv3d(928, 128, kernel_size=(1, 1, 1), stride=(1, 1, 1), bias=False)\n","          (norm2): BatchNorm3d(128, eps=1e-05, momentum=0.1, affine=True, track_running_stats=True)\n","          (relu2): ReLU(inplace=True)\n","          (conv2): Conv3d(128, 32, kernel_size=(3, 3, 3), stride=(1, 1, 1), padding=(1, 1, 1), bias=False)\n","        )\n","      )\n","      (denselayer23): _DenseLayer(\n","        (layers): Sequential(\n","          (norm1): BatchNorm3d(960, eps=1e-05, momentum=0.1, affine=True, track_running_stats=True)\n","          (relu1): ReLU(inplace=True)\n","          (conv1): Conv3d(960, 128, kernel_size=(1, 1, 1), stride=(1, 1, 1), bias=False)\n","          (norm2): BatchNorm3d(128, eps=1e-05, momentum=0.1, affine=True, track_running_stats=True)\n","          (relu2): ReLU(inplace=True)\n","          (conv2): Conv3d(128, 32, kernel_size=(3, 3, 3), stride=(1, 1, 1), padding=(1, 1, 1), bias=False)\n","        )\n","      )\n","      (denselayer24): _DenseLayer(\n","        (layers): Sequential(\n","          (norm1): BatchNorm3d(992, eps=1e-05, momentum=0.1, affine=True, track_running_stats=True)\n","          (relu1): ReLU(inplace=True)\n","          (conv1): Conv3d(992, 128, kernel_size=(1, 1, 1), stride=(1, 1, 1), bias=False)\n","          (norm2): BatchNorm3d(128, eps=1e-05, momentum=0.1, affine=True, track_running_stats=True)\n","          (relu2): ReLU(inplace=True)\n","          (conv2): Conv3d(128, 32, kernel_size=(3, 3, 3), stride=(1, 1, 1), padding=(1, 1, 1), bias=False)\n","        )\n","      )\n","    )\n","    (transition3): _Transition(\n","      (norm): BatchNorm3d(1024, eps=1e-05, momentum=0.1, affine=True, track_running_stats=True)\n","      (relu): ReLU(inplace=True)\n","      (conv): Conv3d(1024, 512, kernel_size=(1, 1, 1), stride=(1, 1, 1), bias=False)\n","      (pool): AvgPool3d(kernel_size=2, stride=2, padding=0)\n","    )\n","    (denseblock4): _DenseBlock(\n","      (denselayer1): _DenseLayer(\n","        (layers): Sequential(\n","          (norm1): BatchNorm3d(512, eps=1e-05, momentum=0.1, affine=True, track_running_stats=True)\n","          (relu1): ReLU(inplace=True)\n","          (conv1): Conv3d(512, 128, kernel_size=(1, 1, 1), stride=(1, 1, 1), bias=False)\n","          (norm2): BatchNorm3d(128, eps=1e-05, momentum=0.1, affine=True, track_running_stats=True)\n","          (relu2): ReLU(inplace=True)\n","          (conv2): Conv3d(128, 32, kernel_size=(3, 3, 3), stride=(1, 1, 1), padding=(1, 1, 1), bias=False)\n","        )\n","      )\n","      (denselayer2): _DenseLayer(\n","        (layers): Sequential(\n","          (norm1): BatchNorm3d(544, eps=1e-05, momentum=0.1, affine=True, track_running_stats=True)\n","          (relu1): ReLU(inplace=True)\n","          (conv1): Conv3d(544, 128, kernel_size=(1, 1, 1), stride=(1, 1, 1), bias=False)\n","          (norm2): BatchNorm3d(128, eps=1e-05, momentum=0.1, affine=True, track_running_stats=True)\n","          (relu2): ReLU(inplace=True)\n","          (conv2): Conv3d(128, 32, kernel_size=(3, 3, 3), stride=(1, 1, 1), padding=(1, 1, 1), bias=False)\n","        )\n","      )\n","      (denselayer3): _DenseLayer(\n","        (layers): Sequential(\n","          (norm1): BatchNorm3d(576, eps=1e-05, momentum=0.1, affine=True, track_running_stats=True)\n","          (relu1): ReLU(inplace=True)\n","          (conv1): Conv3d(576, 128, kernel_size=(1, 1, 1), stride=(1, 1, 1), bias=False)\n","          (norm2): BatchNorm3d(128, eps=1e-05, momentum=0.1, affine=True, track_running_stats=True)\n","          (relu2): ReLU(inplace=True)\n","          (conv2): Conv3d(128, 32, kernel_size=(3, 3, 3), stride=(1, 1, 1), padding=(1, 1, 1), bias=False)\n","        )\n","      )\n","      (denselayer4): _DenseLayer(\n","        (layers): Sequential(\n","          (norm1): BatchNorm3d(608, eps=1e-05, momentum=0.1, affine=True, track_running_stats=True)\n","          (relu1): ReLU(inplace=True)\n","          (conv1): Conv3d(608, 128, kernel_size=(1, 1, 1), stride=(1, 1, 1), bias=False)\n","          (norm2): BatchNorm3d(128, eps=1e-05, momentum=0.1, affine=True, track_running_stats=True)\n","          (relu2): ReLU(inplace=True)\n","          (conv2): Conv3d(128, 32, kernel_size=(3, 3, 3), stride=(1, 1, 1), padding=(1, 1, 1), bias=False)\n","        )\n","      )\n","      (denselayer5): _DenseLayer(\n","        (layers): Sequential(\n","          (norm1): BatchNorm3d(640, eps=1e-05, momentum=0.1, affine=True, track_running_stats=True)\n","          (relu1): ReLU(inplace=True)\n","          (conv1): Conv3d(640, 128, kernel_size=(1, 1, 1), stride=(1, 1, 1), bias=False)\n","          (norm2): BatchNorm3d(128, eps=1e-05, momentum=0.1, affine=True, track_running_stats=True)\n","          (relu2): ReLU(inplace=True)\n","          (conv2): Conv3d(128, 32, kernel_size=(3, 3, 3), stride=(1, 1, 1), padding=(1, 1, 1), bias=False)\n","        )\n","      )\n","      (denselayer6): _DenseLayer(\n","        (layers): Sequential(\n","          (norm1): BatchNorm3d(672, eps=1e-05, momentum=0.1, affine=True, track_running_stats=True)\n","          (relu1): ReLU(inplace=True)\n","          (conv1): Conv3d(672, 128, kernel_size=(1, 1, 1), stride=(1, 1, 1), bias=False)\n","          (norm2): BatchNorm3d(128, eps=1e-05, momentum=0.1, affine=True, track_running_stats=True)\n","          (relu2): ReLU(inplace=True)\n","          (conv2): Conv3d(128, 32, kernel_size=(3, 3, 3), stride=(1, 1, 1), padding=(1, 1, 1), bias=False)\n","        )\n","      )\n","      (denselayer7): _DenseLayer(\n","        (layers): Sequential(\n","          (norm1): BatchNorm3d(704, eps=1e-05, momentum=0.1, affine=True, track_running_stats=True)\n","          (relu1): ReLU(inplace=True)\n","          (conv1): Conv3d(704, 128, kernel_size=(1, 1, 1), stride=(1, 1, 1), bias=False)\n","          (norm2): BatchNorm3d(128, eps=1e-05, momentum=0.1, affine=True, track_running_stats=True)\n","          (relu2): ReLU(inplace=True)\n","          (conv2): Conv3d(128, 32, kernel_size=(3, 3, 3), stride=(1, 1, 1), padding=(1, 1, 1), bias=False)\n","        )\n","      )\n","      (denselayer8): _DenseLayer(\n","        (layers): Sequential(\n","          (norm1): BatchNorm3d(736, eps=1e-05, momentum=0.1, affine=True, track_running_stats=True)\n","          (relu1): ReLU(inplace=True)\n","          (conv1): Conv3d(736, 128, kernel_size=(1, 1, 1), stride=(1, 1, 1), bias=False)\n","          (norm2): BatchNorm3d(128, eps=1e-05, momentum=0.1, affine=True, track_running_stats=True)\n","          (relu2): ReLU(inplace=True)\n","          (conv2): Conv3d(128, 32, kernel_size=(3, 3, 3), stride=(1, 1, 1), padding=(1, 1, 1), bias=False)\n","        )\n","      )\n","      (denselayer9): _DenseLayer(\n","        (layers): Sequential(\n","          (norm1): BatchNorm3d(768, eps=1e-05, momentum=0.1, affine=True, track_running_stats=True)\n","          (relu1): ReLU(inplace=True)\n","          (conv1): Conv3d(768, 128, kernel_size=(1, 1, 1), stride=(1, 1, 1), bias=False)\n","          (norm2): BatchNorm3d(128, eps=1e-05, momentum=0.1, affine=True, track_running_stats=True)\n","          (relu2): ReLU(inplace=True)\n","          (conv2): Conv3d(128, 32, kernel_size=(3, 3, 3), stride=(1, 1, 1), padding=(1, 1, 1), bias=False)\n","        )\n","      )\n","      (denselayer10): _DenseLayer(\n","        (layers): Sequential(\n","          (norm1): BatchNorm3d(800, eps=1e-05, momentum=0.1, affine=True, track_running_stats=True)\n","          (relu1): ReLU(inplace=True)\n","          (conv1): Conv3d(800, 128, kernel_size=(1, 1, 1), stride=(1, 1, 1), bias=False)\n","          (norm2): BatchNorm3d(128, eps=1e-05, momentum=0.1, affine=True, track_running_stats=True)\n","          (relu2): ReLU(inplace=True)\n","          (conv2): Conv3d(128, 32, kernel_size=(3, 3, 3), stride=(1, 1, 1), padding=(1, 1, 1), bias=False)\n","        )\n","      )\n","      (denselayer11): _DenseLayer(\n","        (layers): Sequential(\n","          (norm1): BatchNorm3d(832, eps=1e-05, momentum=0.1, affine=True, track_running_stats=True)\n","          (relu1): ReLU(inplace=True)\n","          (conv1): Conv3d(832, 128, kernel_size=(1, 1, 1), stride=(1, 1, 1), bias=False)\n","          (norm2): BatchNorm3d(128, eps=1e-05, momentum=0.1, affine=True, track_running_stats=True)\n","          (relu2): ReLU(inplace=True)\n","          (conv2): Conv3d(128, 32, kernel_size=(3, 3, 3), stride=(1, 1, 1), padding=(1, 1, 1), bias=False)\n","        )\n","      )\n","      (denselayer12): _DenseLayer(\n","        (layers): Sequential(\n","          (norm1): BatchNorm3d(864, eps=1e-05, momentum=0.1, affine=True, track_running_stats=True)\n","          (relu1): ReLU(inplace=True)\n","          (conv1): Conv3d(864, 128, kernel_size=(1, 1, 1), stride=(1, 1, 1), bias=False)\n","          (norm2): BatchNorm3d(128, eps=1e-05, momentum=0.1, affine=True, track_running_stats=True)\n","          (relu2): ReLU(inplace=True)\n","          (conv2): Conv3d(128, 32, kernel_size=(3, 3, 3), stride=(1, 1, 1), padding=(1, 1, 1), bias=False)\n","        )\n","      )\n","      (denselayer13): _DenseLayer(\n","        (layers): Sequential(\n","          (norm1): BatchNorm3d(896, eps=1e-05, momentum=0.1, affine=True, track_running_stats=True)\n","          (relu1): ReLU(inplace=True)\n","          (conv1): Conv3d(896, 128, kernel_size=(1, 1, 1), stride=(1, 1, 1), bias=False)\n","          (norm2): BatchNorm3d(128, eps=1e-05, momentum=0.1, affine=True, track_running_stats=True)\n","          (relu2): ReLU(inplace=True)\n","          (conv2): Conv3d(128, 32, kernel_size=(3, 3, 3), stride=(1, 1, 1), padding=(1, 1, 1), bias=False)\n","        )\n","      )\n","      (denselayer14): _DenseLayer(\n","        (layers): Sequential(\n","          (norm1): BatchNorm3d(928, eps=1e-05, momentum=0.1, affine=True, track_running_stats=True)\n","          (relu1): ReLU(inplace=True)\n","          (conv1): Conv3d(928, 128, kernel_size=(1, 1, 1), stride=(1, 1, 1), bias=False)\n","          (norm2): BatchNorm3d(128, eps=1e-05, momentum=0.1, affine=True, track_running_stats=True)\n","          (relu2): ReLU(inplace=True)\n","          (conv2): Conv3d(128, 32, kernel_size=(3, 3, 3), stride=(1, 1, 1), padding=(1, 1, 1), bias=False)\n","        )\n","      )\n","      (denselayer15): _DenseLayer(\n","        (layers): Sequential(\n","          (norm1): BatchNorm3d(960, eps=1e-05, momentum=0.1, affine=True, track_running_stats=True)\n","          (relu1): ReLU(inplace=True)\n","          (conv1): Conv3d(960, 128, kernel_size=(1, 1, 1), stride=(1, 1, 1), bias=False)\n","          (norm2): BatchNorm3d(128, eps=1e-05, momentum=0.1, affine=True, track_running_stats=True)\n","          (relu2): ReLU(inplace=True)\n","          (conv2): Conv3d(128, 32, kernel_size=(3, 3, 3), stride=(1, 1, 1), padding=(1, 1, 1), bias=False)\n","        )\n","      )\n","      (denselayer16): _DenseLayer(\n","        (layers): Sequential(\n","          (norm1): BatchNorm3d(992, eps=1e-05, momentum=0.1, affine=True, track_running_stats=True)\n","          (relu1): ReLU(inplace=True)\n","          (conv1): Conv3d(992, 128, kernel_size=(1, 1, 1), stride=(1, 1, 1), bias=False)\n","          (norm2): BatchNorm3d(128, eps=1e-05, momentum=0.1, affine=True, track_running_stats=True)\n","          (relu2): ReLU(inplace=True)\n","          (conv2): Conv3d(128, 32, kernel_size=(3, 3, 3), stride=(1, 1, 1), padding=(1, 1, 1), bias=False)\n","        )\n","      )\n","    )\n","    (norm5): BatchNorm3d(1024, eps=1e-05, momentum=0.1, affine=True, track_running_stats=True)\n","  )\n","  (class_layers): Sequential(\n","    (relu): ReLU(inplace=True)\n","    (pool): AdaptiveAvgPool3d(output_size=1)\n","    (flatten): Flatten(start_dim=1, end_dim=-1)\n","    (out): Linear(in_features=1024, out_features=2, bias=True)\n","  )\n",")"]},"metadata":{},"execution_count":50}],"source":["model.load_state_dict(torch.load('/content/drive/MyDrive/F5DENSENETSMCIvsADbest_metric_model_classification3d_dict.pth'))\n","model.eval()"]},{"cell_type":"code","execution_count":51,"metadata":{"id":"KW5rFKe3eOHg","executionInfo":{"status":"ok","timestamp":1650054401638,"user_tz":-240,"el
…
